trained_models/03_best_model.pt (torch, 425672 bytes, 7 tensors)

weight_ih_l0 f4 [384, 100]
0.020466184 -0.03025702 -0.07906222 0.08830507 0.122061945 0.066625945 -0.029073553 0.017676424
-0.12076305 0.09344538 -0.0501935 -0.11043405 -0.043720145 0.05183035 -0.12019237 -0.100150175
0.036082838 0.038047243 -0.09540084 -0.014884989 0.044710398 -0.03775105 -0.037656907 0.052380964
-0.048138943 0.024069726 0.08346865 0.076454125 0.14945666 -0.020130385 0.034237843 0.06258322
0.105384745 0.1495158 -0.036122527 0.031219756 0.009716629 0.065139756 -0.009182687 -0.023141824
-0.061662264 -0.03612051 0.1368752 -0.07327903 -0.016424151 0.09165352 -0.037697934 0.008348084
0.08625587 0.0150790475 0.09362549 0.003080244 0.015155597 -0.07400011 -0.00016133 -0.017315306
-0.10563075 -0.019254036 0.002676342 0.055732295 -0.00814924 0.06525705 0.05725049 -0.14428313
-0.02381545 0.053832702 -0.09767283 -0.013032029 0.048910208 0.15682426 0.07494423 0.059768178
0.09467911 -0.1092516 0.004597067 0.052355397 0.09810222 -0.03072823 0.078132346 0.08428979
-0.004510082 0.034326833 0.05997315 0.09164168 0.053834602 0.09642761 -0.040895507 0.045452416
0.0026942275 0.040287063 0.10810333 0.02416057 0.050842583 -0.10182244 -0.030553194 0.09709258
0.007828813 -0.083158694 0.004879873 0.006238895 0.13701631 0.065957695 -0.07231149 -0.07033422
-0.14794831 -0.066082284 0.016237611 0.030073712 0.15325688 0.021723788 -0.046451908 0.0671801
0.04929791 0.14326862 0.022116298 -0.11757065 0.0393811 -0.011589554 -0.027531397 0.066435464
-0.040021464 0.055985466 -0.13771164 -0.03185378 0.030678201 -0.03505058 0.023306714 -0.038327437
0.06248484 -0.017334804 3.3846954e-06 0.037559565 0.078191 0.022182092 -0.11066574 0.028042981
-0.031706113 0.023698218 0.004594734 -0.049398746 -0.0040894067 -0.0058874483 -0.080572404 0.07758315
0.06580046 -0.009123033 0.0047424007 -0.1086508 -0.106523946 0.07929455 0.037793487 -0.055506166
0.05824039 0.02555339 0.041508034 -0.06273247 0.026352355 -0.0027109503 0.07370479 -0.03136479
0.053870704 -0.081687845 0.024031563 0.075056 -0.061589554 -0.015299995 -0.0004065762 -0.051833905
0.022803603 -0.04323901 0.017865526 0.030236635 0.116940424 0.024339007 -0.06973484 -0.07641215
-0.025378142 0.022791198 -0.07800069 0.07602582 1.7986546e-05 0.0365168 -0.02026375 0.03797962
0.0681985 -0.021029303 0.010442711 -0.06214685 -0.017544799 -0.023419987 -0.049931053 -0.0029038102
0.059356615 0.105645746 -0.044724472 0.05333989 0.07177861 0.14667279 -0.029226087 0.049824677
-0.024816975 0.083569676 0.055199802 0.07499702 -0.05915805 -0.013207479 -0.120063715 -0.058014296
-0.039353535 -0.030330652 0.02964355 0.007515213 0.06470664 0.005416685 -0.046773255 -0.02778904
-0.030918255 -0.01767088 -0.04436222 0.05373848 -0.101264425 -0.029995086 -0.08750076 0.0018745749
-0.008530711 -0.09933213 -0.07405383 -0.006478769 0.10661123 0.04501248 0.004805516 -0.032681726
-0.008181225 0.02733733 0.13161188 -0.002498391 0.053195804 -0.01627326 -0.055658527 -0.05339422
-0.13531204 -0.05780322 0.05674586 -0.009364089 -0.08698181 -0.040492456 -0.0917274 0.03814073
-0.12131306 0.03137311 -0.02051084 -0.0116942255 -0.0060245246 -0.0006664442 0.05691143 0.053064734
00000000: b3a8 a73c 92dd f7bc 60eb a1bd 4ad9 b43d
00000010: 9dfb f93d 2f73 883d a92b eebc 26ce 903c
00000020: 9e52 f7bd 4b60 bf3d b397 4dbd 3f2b e2bd
00000030: e513 33bd 104c 543d 6b27 f6bd 891b cdbd
00000040: 99cb 133d 6dd7 1b3d 8461 c3bd 2be0 73bc
00000050: 4022 373d d8a0 1abd 213e 1abd 6c8d 563d
00000060: 572d 45bd e02d c53c 9df1 aa3d fb93 9c3d
00000070: 2b0b 193e 7ae8 a4bc fb3c 0c3d a22b 803d
00000080: f5d3 d73d ab1a 193e 37f5 13bd 93c0 ff3c
00000090: 7f32 1f3c fe67 853d fb72 16bc ec93 bdbc
000000a0: 9291 7cbd 1af3 13bd 0329 0c3e 5113 96bd
000000b0: f18b 86bc d7b4 bb3d 2669 1abd 67c6 083c
000000c0: eba6 b03d 1c0e 773c b9be bf3d ebdd 493b
000000d0: 2e4f 783c 5f8d 97bd b12a 29b9 d4d8 8dbc
000000e0: ef54 d8bd a4ba 9dbc 9165 2f3b 8c47 643d
000000f0: 6484 05bc 7da5 853d 7d7f 6a3d f5be 13be
00000100: 9e18 c3bc ae7f 5c3d b108 c8bd 4b84 55bc
00000110: 1256 483d 8a96 203e 5c7c 993d 7acf 743d
00000120: 1fe7 c13d 4ebf dfbd fea2 963b 9d72 563d
00000130: d1e9 c83d c5b9 fbbc da03 a03d 20a0 ac3d
00000140: 4fc9 93bb 4b9a 0c3d 68a6 753d a2ae bb3d
00000150: ac81 5c3d d77b c53d 0c82 27bd 502c 3a3d
00000160: a391 303b 0c04 253d 4765 dd3d 63ec c53c
00000170: 5040 503d 4988 d0bd b14a fabc 79d8 c63d
00000180: 6c44 003c 1b4f aabd 57e7 9f3b a56f cc3b
00000190: 014e 0c3e d414 873d 0c18 94bd 630b 90bd
000001a0: c37f 17be 2656 87bd bd04 853c 255d f63c
000001b0: 5fef 1c3e 16f6 b13c 5b44 3ebd b895 893d
000001c0: 9bec 493d 02b5 123e 3d2d b53c e2c8 f0bd
000001d0: 144e 213d 1de2 3dbc 8689 e1bc 510f 883d
000001e0: 8ced 23bd 0451 653d 4804 0dbe 1c79 02bd
000001f0: da50 fb3c 3291 0fbd b9ed be3c 3bfd 1cbd
00000200: 1bf0 7f3d b801 8ebc a024 6336 0fd8 193d
00000210: 9a22 a03d 38b7 b53c b8a4 e2bd 65ba e53c
00000220: 45de 01bd c422 c23c 6c8f 963b 5756 4abd
00000230: 6e00 86bb 7feb c0bb 2503 a5bd eae3 9e3d
00000240: 64c2 863d c678 15bc 2466 9b3b 5084 debd
00000250: 3a29 dabd 2e65 a23d 58cd 1a3d 6f5a 63bd
00000260: 7a8d 6e3d 5855 d13c 5404 2a3d e279 80bd
00000270: e5e0 d73c 33aa 31bb 89f2 963d 5e78 00bd
00000280: 87a7 5c3d f54b a7bd d7dd c43c f6b6 993d
00000290: 5445 7cbd d5ac 7abc bc29 d5b9 ca4f 54bd
000002a0: 9fce ba3c 631b 31bd b95a 923c d2b2 f73c
000002b0: 767e ef3d 9962 c73c 24d1 8ebd f97d 9cbd
000002c0: d2e5 cfbc 9bb4 ba3c d3be 9fbd 6db3 9b3d
000002d0: d0e1 9637 a492 153d 2a00 a6bc 8590 1b3d
000002e0: a8ab 8b3d a545 acbc e817 2b3c b28d 7ebd
000002f0: 1cba 8fbc 46db bfbc 8184 4cbd da4d 3ebb
00000300: ec1f 733d cc5c d83d 0231 37bd ee7a 5a3d
00000310: aa00 933d 6431 163e 8c6b efbc f614 4c3d
00000320: f84c cbbc 9426 ab3d 3019 623d 0a98 993d
00000330: b64f 72bd 2f64 58bc f7e3 f5bd 66a0 6dbd
00000340: 2c31 21bd fd77 f8bc 08d7 f23c 2d42 f63b
00000350: ea84 843d 727e b13b 5095 3fbd d7a5 e3bc
00000360: 4848 fdbc 85c2 90bc 29b5 35bd e11c 5c3d
00000370: b963 cfbd 41b8 f5bc 9933 b3bd 4cb4 f53a
00000380: 65c4 0bbc a56e cbbd 89a9 97bd da4b d4bb
00000390: fd56 da3d 025f 383d 9777 9d3b 46dd 05bd
000003a0: 8b0a 06bc 89f2 df3c 44c5 063e 0cbc 23bb
000003b0: d8e3 593d 804f 85bc 32fa 63bd e6b3 5abd
000003c0: 3d8f 0abe 12c3 6cbd 596e 683d d66b 19bc
000003d0: 8523 b2bd 6bdb 25bd 93db bbbd 7439 1c3d
000003e0: fb72 f8bd 1781 003d 5906 a8bc 2399 3fbc
000003f0: 6069 c5bb 50b4 2eba f61b 693d 685a 593d

weight_hh_l0 f4 [384, 128]
0.0011763552 0.045015257 0.0573008 0.038785804 0.045473255 0.035053205 -0.09137 -0.09033333
-0.025426313 -0.03933565 -0.020182505 0.08907848 -0.09983487 -0.05558145 0.002510844 0.035938572
-0.01424773 0.090394154 0.006860898 -0.015162103 0.0329727 -0.011821314 -0.066417314 -0.016065288
0.061444618 -0.028079474 0.033358578 0.081855215 -0.022995025 -0.001499286 -0.008012031 -0.057851944
-0.046305712 0.052797195 0.058439847 0.05385723 0.043891996 -0.028090693 -0.09686808 -0.0509848
0.03689805 0.0036060717 0.009897489 0.044562846 0.03446354 -0.048225578 -0.008664697 -0.009426552
-0.08030425 0.014070805 -0.10641576 0.12556663 0.09170618 0.062285975 0.06912457 0.025960036
0.09289188 -0.023601348 -0.007184457 0.07803316 -0.08116135 0.008354988 0.053795356 0.016018998
0.032608792 0.087300904 -0.017578358 -0.06467641 0.03607238 0.0459465 0.015394906 -0.028595097
0.026969772 -0.01654493 0.005296699 0.007475498 0.026380645 0.016314946 -0.09496762 -0.08919981
-0.054658223 -0.12422997 0.11732322 0.058227234 -0.010457669 0.02424336 0.026297025 0.015125404
0.039418146 -0.07868741 -0.057149295 0.08094196 -0.018236265 0.029449243 -0.027908439 -0.040397193
0.055693354 0.09362053 0.036740147 -0.0059290277 -0.014742956 0.0009762164 0.057210602 0.02923649
0.038282193 -0.009677899 0.06566983 -0.10418968 -0.065829895 0.07195915 0.019716421 0.027647756
-0.0649718 0.0005407694 -0.07660219 -0.05166625 0.014473903 -0.071088865 0.035365995 -0.09740814
0.048126377 0.0050474196 -0.11044871 -0.110075064 0.07407663 -0.00802286 -0.06263932 -0.019156901
-0.04115828 0.017196437 0.025214469 0.05682835 0.07296473 -0.04401777 0.07137114 -0.07523835
0.032018933 -0.081825756 0.034510467 -0.08937804 0.0637826 -0.033393394 0.009027534 -0.003155794
-0.065902464 -0.07165522 0.10691956 0.092055425 -0.036353435 -0.0051376554 0.0035215493 -0.049496688
-0.0070295194 0.079544276 0.008487623 0.087724164 -0.02842627 -0.10854244 0.015354529 0.031634882
-0.08053793 -0.046032924 0.06298163 0.08562944 0.008301555 0.0005772969 0.071148366 -0.015742283
-0.010600163 -0.035634875 0.06318354 0.07682568 0.000520422 0.034665175 0.0921734 -0.017900635
-0.10584076 0.09916981 0.043585043 0.069526866 0.0521651 0.041748345 0.11065854 0.044494893
-0.017900035 -0.03299425 -0.03739078 0.07819779 -0.060529545 -0.06878058 -0.015211837 0.08346155
-0.042852003 0.08846771 -0.053551912 0.0067252456 -0.038961228 0.10324273 0.06546779 -0.052812796
0.073037535 -0.079570726 -0.018738855 0.008941752 -0.024286252 -0.042694937 0.06308673 -0.03424557
-0.024089051 -0.06699419 0.06712109 -0.040847167 0.056904584 -0.03880954 0.049409565 -0.073432356
0.038239896 0.072851814 -0.056022912 -0.09488018 0.0103158625 0.064926855 -0.054441128 -0.09847527
0.007997533 0.11449108 0.041562907 -0.09675182 -0.028766498 -0.07385684 -0.006909346 -0.030186895
-0.0700476 -0.022500424 -0.059999786 -0.047376405 -0.017133716 -0.057643197 -0.025481254 -0.048515838
-0.035134494 -0.041409228 0.01563359 -0.018852044 -0.04774695 -0.0021181786 -0.0051712138 0.010985909
0.10741482 0.08638546 -0.025580183 -0.0471608 0.05774993 -0.012222349 0.0017226137 -0.017565962
00000000: ee2f 9a3a eb61 383d 3eb4 6a3d dddd 1e3d
00000010: 2a42 3a3d f393 0f3d 3220 bbbd ae00 b9bd
00000020: d84a d0bc 6b1e 21bd c855 a5bc c76e b63d
00000030: 3976 ccbd 60a9 63bd f98c 243b 5334 133d
00000040: 506f 69bc 9220 b93d 62d1 e03b 786a 78bc
00000050: 620e 073d 2fae 41bc cd05 88bd 5a9b 83bc
00000060: 5aad 7b3d ed06 e6bc 01a3 083d b5a3 a73d
00000070: 1060 bcbc b183 c4ba e544 03bc 29f6 6cbd
00000080: 0fab 3dbd df41 583d 9f5e 6f3d 6699 5c3d
00000090: 18c8 333d 741e e6bc c662 c6bd 70d5 50bd
000000a0: 6922 173d d853 6c3b 1429 223c 8887 363d
000000b0: a429 0d3d 2f88 45bd 60f6 0dbc d371 1abc
000000c0: 8e76 a4bd 3c89 663c 82f0 d9bd 8a94 003e
000000d0: 73d0 bb3d 941f 7f3d 2f91 8d3d 24aa d43c
000000e0: 193e be3d 9d57 c1bc 986b ebbb d9cf 9f3d
000000f0: ec37 a6bd 5ce3 083c 8558 5c3d 463a 833c
00000100: cc90 053d d1ca b23d 7d00 90bc 1175 84bd
00000110: a2c0 133d 6632 3c3d ea3a 7c3c 4440 eabc
00000120: b6ef dc3c 3c89 87bc ee8f ad3b 06f5 f43b
00000130: 391c d83c eca6 853c 627e c2bd 64ae b6bd
00000140: 4de1 5fbd 486c febd 2847 f03d ae7f 6e3d
00000150: a556 2bbc 039a c63c dc6c d73c 8bd0 773c
00000160: ec74 213d dd26 a1bd 6115 6abd e6c4 a53d
00000170: 3864 95bc 8a3f f13c 3da0 e4bc 8777 25bd
00000180: b71e 643d 1fbc bf3d d67c 163d 4a48 c2bb
00000190: 708c 71bc c6e8 7f3a aa55 6a3d 5d81 ef3c
000001a0: cacd 1c3d 0d90 1ebc e77d 863d 6661 d5bd
000001b0: d3d1 86bd 525f 933d 5584 a13c 8c7d e23c
000001c0: ef0f 85bd 6cc2 0d3a 9ce1 9cbd fd9f 53bd
000001d0: f323 6d3c 0a97 91bd efdb 103d eb7d c7bd
000001e0: 2a20 453d d364 a53b ef32 e2bd 096f e1bd
000001f0: 7db5 973d 5072 03bc 0b49 80bd efee 9cbc
00000200: 9695 28bd 8bdf 8c3c 938e ce3c d8c4 683d
00000210: 886e 953d fa4b 34bd 082b 923d 9016 9abd
00000220: 4926 033d 4394 a7bd d95a 0d3d d50b b7bd
00000230: 74a0 823d 83c7 08bd 39e8 133c 70d1 4ebb
00000240: dff7 86bd f9bf 92bd a4f8 da3d 8e87 bc3d
00000250: 57e7 14bd c759 a8bb cbc9 663b 0abd 4abd
00000260: e257 e6bb 1ce8 a23d ac0f 0b3c baa8 b33d
00000270: 35de e8bc 804b debd 9091 7b3c 9493 013d
00000280: 12f1 a4bd 058d 3cbd 83fc 803d 7d5e af3d
00000290: 3f03 083c bd55 173a 3cb6 913d f6f5 80bc
000002a0: 4eac 2dbc e0f5 11bd 5f66 813d c856 9d3d
000002b0: ee6c 083a 12fd 0d3d 68c5 bc3d 5aa4 92bc
000002c0: 0ac3 d8bd 8b19 cb3d 3b86 323d 1a64 8e3d
000002d0: 12ab 553d 5000 2b3d f2a0 e23d 4740 363d
000002e0: 18a3 92bc fb24 07bd 1327 19bd 2a26 a03d
000002f0: d4ed 77bd d5dc 8cbd 123b 79bc e4ed aa3d
00000300: 9585 2fbd 8f2e b53d 4059 5bbd 735f dc3b
00000310: cf95 1fbd ed70 d33d fa13 863d 3b52 58bd
00000320: b494 953d faf5 a2bd 3a82 99bc 6d80 123c
00000330: f6f3 c6bc e3e0 2ebd 9e33 813d 1545 0cbd
00000340: 6756 c5bc 4034 89bd c876 893d 5c4f 27bd
00000350: c814 693d c1f6 1ebd af61 4a3d b463 96bd
00000360: 70a1 1c3d 5533 953d 4878 65bd 8a50 c2bd
00000370: dd03 293c 5ff8 843d a9fd 5ebd 67ad c9bd
00000380: 1608 033c 4d7a ea3d de3d 2a3d d125 c6bd
00000390: b8a7 ebbc 4142 97bd cc67 e2bb 824a f7bc
000003a0: 1e75 8fbd cf52 b8bc 56c2 75bd c30d 42bd
000003b0: 025c 8cbc 461b 6cbd 10be d0bc 8bb8 46bd
000003c0: 30e9 0fbd b99c 29bd 0412 803c 9a6f 9abc
000003d0: 4e92 43bd 24d1 0abb 4973 a9bb 3efe 333c
000003e0: 4dfc db3d dcea b03d 888d d1bc af2b 41bd
000003f0: 318b 6c3d 3f40 48bc 53c9 e13a 7ee6 8fbc

bias_ih_l0 f4 [384]
-0.09416417 0.029620154 -0.058729544 -0.044332236 -0.08204765 -0.04906979 0.0146977855 -0.12280077
0.069959454 -0.064610474 0.017504595 -0.079261154 0.068412386 0.03144034 -0.10115759 -0.05580989
0.05216938 0.07747612 0.04852572 -0.013045748 -0.08129706 -0.020719897 0.0003185708 -0.10487663
0.031406414 -0.08864216 0.028119 0.04194946 0.09794352 -0.062553406 0.063900545 0.026178611
-0.089227475 -0.059823573 -0.08556636 -0.087124765 -0.035764627 -0.017040778 0.0076735243 -0.040597733
0.103779286 0.019337464 -0.007959888 0.059754413 0.04970712 0.008062158 -0.027096855 0.018440044
-0.051072773 -0.07487206 -0.04192351 0.08563445 0.002469931 0.030875076 -0.038749535 0.073322855
-0.06099848 0.06112886 -0.07057451 0.020450614 -0.04624324 0.09739274 -0.019019905 -0.04317505
-0.05498889 -0.033943817 0.004668317 0.03644926 -0.105578475 0.07910723 0.07331029 0.106462084
0.013295785 -0.020651193 0.04345349 -0.005546943 -0.0484728 0.068359435 -0.06370677 -0.065604724
0.03876582 0.12074646 -0.07453366 0.050941266 -0.120423384 -0.06263806 -0.086124405 -0.076005995
-0.13673007 -0.06615427 0.012416113 -0.01263941 -0.090351604 -0.0052615954 -0.11485394 0.011831067
0.017301602 -0.061535962 0.037806068 -0.049544454 -0.03330137 0.01829674 -0.074550934 -0.08975292
-0.025054095 0.0096939225 -0.039106585 -0.057065226 -0.04443289 -0.050099954 -0.014844354 -0.06471106
0.011818841 -0.07622366 -0.094846405 0.09211183 -0.060451932 0.06552564 0.07438531 -0.0883672
-0.016194385 0.03603657 0.0053951223 -0.052495077 0.038313955 0.057780724 0.016732812 -0.02360547
0.21479495 0.23369357 0.21524484 0.11799069 0.19223167 0.21799628 0.26478693 0.09182919
0.13274163 0.15193614 0.092851326 0.13643897 0.19440374 0.33348516 0.16802266 -0.02548503
0.26853803 0.13984077 0.07976335 0.06353775 0.0684611 0.105000675 0.25300872 0.046132844
0.024010113 0.012016254 -0.12626128 -0.046904813 0.15092333 -0.067098245 0.31029055 -0.011299966
0.108075775 0.06531488 0.007071034 0.1121254 0.24536759 0.14889793 0.0131968465 0.13888937
0.09558581 -0.1314894 -0.034000643 0.24203248 0.28243065 0.031911794 -0.042032592 0.07142251
0.1846321 0.15606214 0.20097634 0.35141566 0.2976525 0.1479822 0.098239586 -0.033816174
0.31373316 0.07691701 -0.015825331 0.02740278 -0.06060256 0.18607728 0.051470302 0.08968075
0.07371388 -0.03677275 -0.031395808 0.050008316 0.024572419 0.021240544 0.12537366 0.2481175
-0.08107526 0.008993252 -0.06852352 0.050646227 -0.036718972 0.042873017 0.22316825 0.21777935
0.10264378 0.33281708 0.2502637 0.12659733 -0.023466334 0.22842577 0.04780812 -0.10041826
0.09206297 -0.05859138 0.033279877 0.09466713 0.12911554 0.25893545 0.024590427 0.14252071
0.26330447 0.21291173 0.06487323 -0.072229 0.2799117 -0.053921096 -0.11646794 -0.090413645
0.09074884 0.2214518 0.050767407 0.17378724 0.2773379 0.16921262 0.066413715 0.19505137
0.12450578 0.1388498 0.16349137 0.22475103 -0.04028134 0.08487963 0.20916103 0.29701334
0.16720057 0.071295954 0.2153339 -0.040296093 0.20420565 0.09229608 0.071372785 0.26415923
00000000: 25d9 c0bd f7a5 f23c 648e 70bd b895 35bd
00000010: 9908 a8bd 67fd 48bd fbce 703c f87e fbbd
00000020: e746 8f3d 7f52 84bd cc65 8f3c ac53 a2bd
00000030: cb1b 8c3d 96c7 003d b62b cfbd e998 64bd
00000040: 8faf 553d cdab 9e3d e8c2 463d d5bd 55bc
00000050: 137f a6bd c6bc a9bc d905 a739 8fc9 d6bd
00000060: 03a4 003d 058a b5bd d159 e63c 32d3 2b3d
00000070: 9d96 c83d 001c 80bd 4ade 823d 8774 d63c
00000080: e5bc b6bd 9009 75bd 6a3d afbd 786e b2bd
00000090: ee7d 12bd 1a99 8bbc 3072 fb3b cf49 26bd
000000a0: 3c8a d43d 9a69 9e3c 316a 02bc 0bc1 743d
000000b0: b199 4b3d 2417 043c 39fa ddbc 930f 973c
000000c0: af31 51bd 8656 99bd fdb7 2bbd 1d61 af3d
000000d0: 91de 213b baed fc3c d5b7 1ebd 4b2a 963d
000000e0: 8bd9 79bd 4162 7a3d 5e89 90bd 0c88 a73c
000000f0: 8d69 3dbd d875 c73d a2cf 9bbc 52d8 30bd
00000100: 083c 61bd ac08 0bbd aef8 983b d24b 153d
00000110: 8739 d8bd f902 a23d b523 963d cb08 da3d
00000120: 90d6 593c b12c a9bc 49fc 313d 21c3 b5bb
00000130: 6a8b 46bd 0800 8c3d b278 82bd c55b 86bd
00000140: e9c8 1e3d ec49 f73d 1ba5 98bd caa7 503d
00000150: 89a0 f6bd 6248 80bd fe61 b0bd 08a9 9bbd
00000160: f802 0cbe e47b 87bd f46c 4b3c 8715 4fbc
00000170: 430a b9bd 7669 acbb 8b38 ebbd 17d7 413c
00000180: 17bc 8d3c 220d 7cbd 89da 1a3d 20ef 4abd
00000190: 0467 08bd 0be3 953c 29ae 98bd 61d0 b7bd
000001a0: 3f3e cdbc 42d3 1e3c 3a2e 20bd 3abd 69bd
000001b0: 43ff 35bd 9c35 4dbd bc35 73bc 3b87 84bd
000001c0: d0a3 413c 261b 9cbd d53e c2bd 21a5 bc3d
000001d0: 729c 77bd 4f32 863d 5357 983d ddf9 b4bd
000001e0: 16aa 84bc 159b 133d 91c9 b03b 1405 57bd
000001f0: 18ef 1c3d 7bab 6c3d 4013 893c 4260 c1bc
00000200: 35f3 5b3e 5e4d 6f3e 2569 5c3e 1aa5 f13d
00000210: 61d8 443e 6b3a 5f3e 2792 873e f110 bc3d
00000220: 6ced 073e 2695 1b3e d628 be3d a8b6 0b3e
00000230: c611 473e 91be aa3e 220e 2c3e fbc5 d0bc
00000240: d17d 893e 6b32 0f3e f85a a33d 1420 823d
00000250: 5535 8c3d 980a d73d 5c8a 813e cbf5 3c3d
00000260: dbb0 c43c d2df 443c a34a 01be 431f 40bd
00000270: a58b 1a3e ce6a 89bd 67de 9e3e 7e23 39bc
00000280: d556 dd3d cfc3 853d 22b4 e73b 00a2 e53d
00000290: a441 7b3e b378 183e 9637 583c 0439 0e3e
000002a0: 7ec2 c33d 28a5 06be 4244 0bbd 5dd7 773e
000002b0: c09a 903e f1b5 023d 5e2a 2cbd f745 923d
000002c0: 3210 3d3e c1ce 1f3e becc 4d3e c1ec b33e
000002d0: e965 983e a588 173e d631 c93d d482 0abd
000002e0: a2a1 a03e aa86 9d3d 20a4 81bc cb7b e03c
000002f0: 643a 78bd 0b8b 3e3e 86d2 523d 8baa b73d
00000300: 4df7 963d 069f 16bd e498 00bd 85d5 4c3d
00000310: 194c c93c a600 ae3c f461 003e 8412 7e3e
00000320: c90a a6bd 6f58 133c 0f56 8cbd 6b72 4f3d
00000330: a266 16bd 9e9b 2f3d 3886 643e 8d01 5f3e
00000340: e736 d23d 0067 aa3e 9022 803e bba2 013e
00000350: 783c c0bc 72e8 693e 72d2 433d 17a8 cdbd
00000360: 838b bc3d 84fd 6fbd 7b50 083d d7e0 c13d
00000370: dd36 043e 3093 843e dd71 c93c f3f0 113e
00000380: d8cf 863e 8805 5a3e 42dc 843d ccec 93bd
00000390: 9650 8f3e 5edc 5cbd be86 eebd ca2a b9bd
000003a0: 87da b93d 43c4 623e 7cf1 4f3d 48f5 313e
000003b0: 3cff 8d3e 1346 2d3e ea03 883d 8cbb 473e
000003c0: e3fc fe3d a42e 0e3e 486a 273e 2225 663e
000003d0: 0cfe 24bd 5fd5 ad3d 4f2e 563e 2212 983e
000003e0: a036 2b3e 9d03 923d 7d80 5c3e 840d 25bd
000003f0: 491b 513e ba05 bd3d e52b 923d e13f 873e

bias_hh_l0 f4 [384]
0.038257293 -0.059303556 0.09451598 0.0015675962 -0.09542969 0.004766736 0.108512625 -0.057459008
0.05182173 0.057174295 0.055148397 0.01702974 -0.019824328 -0.03466314 0.003931156 0.052476298
0.021318242 -0.016378174 -0.0900459 -0.08746208 -0.0065540425 -0.07372431 -0.03838404 -0.062407594
0.0457593 0.07617967 0.033080656 -0.0009935979 -0.015994253 -0.0028456752 0.087331414 0.032219782
-0.014370629 -0.04454937 0.029641183 0.06671526 0.024597805 -0.0007912187 -0.06317699 0.009898052
-0.044408973 -0.067570046 -0.08187456 0.1750011 -0.03869922 0.017686728 -0.022771263 -0.06310406
0.023635266 -0.06369379 0.082187526 0.039983638 -0.0012206866 0.04421642 -0.088429004 -0.022356402
0.023556376 -0.094109364 -0.011378962 -0.066655345 -0.06912572 0.032260377 0.04127546 -0.064334095
-0.056026563 0.018893031 -0.05272065 0.03362568 0.019546572 -0.01922567 0.11519435 -0.054981895
0.06352208 0.056169562 -0.12841448 -0.033801068 -0.049603395 -0.066541 -0.0373151 0.010289678
-0.015343283 0.070588425 0.073662855 -0.057725847 -0.038131576 0.033739947 0.0074137836 0.011894267
-0.09795627 0.05947381 -0.121059395 -0.09683119 -0.03833155 0.0027357535 -0.07889262 -0.10795869
0.047491197 -0.0737788 0.045725107 -0.06785041 0.06253676 0.0065074116 0.026196392 -0.035014853
-0.1032186 -0.039057672 -0.020543644 -0.005391042 -0.0007723739 -0.07069014 -0.06462013 0.005511013
-0.009214881 0.07790584 0.011609064 0.0571135 -0.046775468 0.0059169983 0.045886822 -0.019816903
-0.06462754 -0.036169972 -0.06798689 0.05754967 0.0020525884 -0.023519011 0.053176064 -0.023147248
0.067386255 0.28706616 0.22548929 0.03463525 0.15632012 0.21782811 0.20146798 0.03510148
-0.019992907 0.2098692 0.18547429 0.21745421 0.2648509 0.21873835 0.23818038 -0.074676365
0.23736377 0.16183168 -0.018576872 0.15322755 0.05513231 -0.010081467 0.2113529 -0.019846056
-0.043915592 0.15899672 -0.1081699 0.07100032 0.11353808 -0.059264913 0.3280528 -0.05559703
0.084415026 0.015750388 -0.09664288 0.008471687 0.31620902 0.11361353 0.073447905 0.1277633
0.1862566 -0.057421945 0.0061778375 0.23195681 0.23075746 -0.019396111 0.04833688 0.23642115
0.2362427 0.22324468 0.19371757 0.29354677 0.226982 0.15718655 0.113450065 0.049154382
0.3087126 0.01559302 -0.06141129 0.12878583 0.09357149 0.1886171 0.06048073 0.161426
0.13727613 -0.05196566 -0.07213941 0.16631235 0.013491204 0.016641958 0.12733349 0.17132956
-0.08224034 0.12330991 0.00839091 0.009686443 -0.01797751 0.1040346 0.348228 0.25822446
0.1280765 0.31227463 0.2251623 0.16683199 0.03684218 0.3486383 0.050455645 -0.07274022
-0.02751627 0.10061369 -0.049336724 -0.004580168 0.15078323 0.19639842 -0.0023818098 0.25329348
0.19328515 0.11935362 0.008439909 0.047103696 0.31202203 0.049914256 -0.13506484 -0.094421186
0.08872823 0.22536787 0.041408453 0.051114548 0.23895898 0.04726643 0.068428315 0.105944306
0.23084189 0.12436685 0.316571 0.27714008 0.094904594 0.051908694 0.07462992 0.24341138
0.25360796 0.047815263 0.2663419 0.025382152 0.21657723 0.17394927 0.026652101 0.18547495
00000000: aeb3 1c3d 49e8 72bd 9891 c13d cd77 cd3a
00000010: a470 c3bd 4832 9c3b de3b de3d 235a 6bbd
00000020: 0643 543d 982f 6a3d 49e3 613d f481 8b3c
00000030: a166 a2bc f0fa 0dbd edd0 803b 63f1 563d
00000040: 98a3 ae3c 852b 86bc fc69 b8bd 521f b3bd
00000050: 4bc3 d6bb c5fc 96bd 9538 1dbd 1b9f 7fbd
00000060: 1b6e 3b3d 1604 9c3d 957f 073d 9d3b 82ba
00000070: 6106 83bc 827e 3abb d0da b23d e4f8 033d
00000080: c972 6bbc 6679 36bd 11d2 f23c 03a2 883d
00000090: 5681 c93c ca69 4fba f062 81bd 702b 223c
000000a0: 2fe6 35bd 2a62 8abd d9ad a7bd 7d33 333e
000000b0: 1383 1ebd c2e3 903c cd8a babc b43c 81bd
000000c0: bf9e c13c e471 82bd ef51 a83d e2c5 233d
000000d0: 72ff 9fba 471c 353d 441a b5bd c624 b7bc
000000e0: 4df9 c03c 69bc c0bd d36e 3abc 9982 88bd
000000f0: c991 8dbd 7523 043d 7510 293d 98c1 83bd
00000100: 1c7c 65bd 8fc5 9a3c 9cf1 57bd 15bb 093d
00000110: 2220 a03c 277f 9dbc 04eb eb3d b234 61bd
00000120: dd17 823d 0e12 663d 167f 03be fd72 0abd
00000130: ee2c 4bbd a646 88bd b8d7 18bd 0a96 283c
00000140: 6562 7bbc aa90 903d 8ddc 963d f071 6cbd
00000150: db2f 1cbd e632 0a3d 53ef f23b 2ce0 423c
00000160: 4c9d c8bd cf9a 733d fded f7bd 6e4f c6bd
00000170: 8b01 1dbd 544a 333b 7492 a1bd 7219 ddbd
00000180: 2186 423d 5719 97bd 404a 3b3d 28f5 8abd
00000190: 4613 803d 203c d53b d199 d63c bc6b 0fbd
000001a0: 4664 d3bd f0fa 1fbd 254b a8bc 57a7 b0bb
000001b0: 2379 4aba fec5 90bd 8f57 84bd ba95 b43b
000001c0: 03fa 16bc 198d 9f3d f233 3e3c d8ef 693d
000001d0: a297 3fbd 61e3 c13b d2f3 3b3d 0f57 a2bc
000001e0: 725b 84bd f726 14bd b63c 8bbd 34b9 6b3d
000001f0: b884 063b f1aa c0bc 25cf 593d 4c9f bdbc
00000200: ce01 8a3d 56fa 923e aae6 663e b1dd 0d3d
00000210: 6212 203e 550e 5f3e 9f4d 4e3e 92c6 0f3d
00000220: 2ac8 a3bc f4e7 563e f9ec 3d3e 51ac 5e3e
00000230: 8a9a 873e f2fc 5f3e 8fe5 733e ecef 98bd
00000240: 7d0f 733e 34b7 253e 862e 98bc afe7 1c3e
00000250: 6bd2 613d bd2c 25bc e56c 583e 3294 a2bc
00000260: d6e0 33bd 09d0 223e 2e88 ddbd 9e68 913d
00000270: a786 e83d c4bf 72bd 89f6 a73e b6b9 63bd
00000280: c9e1 ac3d f506 813c b4ec c5bd d5cc 0a3c
00000290: 26e6 a13e 36ae e83d db6b 963d 62d4 023e
000002a0: 0dba 3e3e 4633 6bbd 756f ca3b 1686 6d3e
000002b0: af4b 6c3e 98e4 9ebc e4fc 453d 6318 723e
000002c0: 9be9 713e 419a 643e e65d 463e c34b 963e
000002d0: f86d 683e 83f5 203e 8258 e83d 1b56 493d
000002e0: 940f 9e3e de79 7f3c 688a 7bbd 6fe0 033e
000002f0: 69a2 bf3d d724 413e a4ba 773d db4c 253e
00000300: 1d92 0c3e f2d9 54bd d4bd 93bd c94d 2a3e
00000310: 360a 5d3c b754 883c b663 023e 0471 2f3e
00000320: a06d a8bd e889 fc3d 077a 093c e3b3 1e3c
00000330: 9245 93bc 1810 d53d f14a b23e ff35 843e
00000340: 7c26 033e 76e2 9f3e f290 663e 01d6 2a3e
00000350: d3e7 163d b880 b23e 94aa 4e3d d3f8 94bd
00000360: cd69 e1bc 8d0e ce3d 4e15 4abd 3c15 96bb
00000370: eb66 1a3e ab1c 493e 2318 1cbb afaf 813e
00000380: 8bec 453e ac6f f43d 8b47 0a3c ceef 403d
00000390: 5ac1 9f3e e472 4c3d 704e 0abe e55f c1bd
000003a0: 25b7 b53d d6c6 663e e99b 293d 7d5d 513d
000003b0: aab1 743e 729a 413d 2524 8c3d 54f9 d83d
000003c0: d161 6c3e 0cb4 fe3d 9815 a23e 4ee5 8d3e
000003d0: 575d c23d 369e 543d 92d7 983d d540 793e
000003e0: e7d8 813e f0d9 433d f75d 883e 3bee cf3c
000003f0: 6cc6 5d3e c21f 323e 8255 da3c 25ed 3d3e

weight f4 [128, 128]
0.11581708 0.035938717 -0.11024563 0.040020555 -0.004946387 -0.08845523 0.028687028 -0.07284937
0.038803227 -0.083952524 -0.023573805 -0.06838128 0.071026355 -0.07407535 0.037634388 0.0060687405
-0.12306628 -0.057382032 0.024684187 0.07411741 0.04298361 -0.033015527 -0.027989827 -0.022133399
-0.0015612142 0.15451714 0.10324058 0.0714813 -0.035094667 -0.027154883 -0.02510364 0.06748899
0.022490649 -0.06699838 0.080927536 -0.012167608 -0.0014031061 -0.07484652 -0.058522407 -0.08833663
0.09431176 0.09117288 -0.015022696 -0.044124607 0.01560783 0.13308136 -0.046636026 -0.030950408
-0.035394803 0.049882308 0.092057265 -0.09612433 -0.14246023 -0.08300482 0.021839228 -0.008128405
-0.12720451 -0.07292861 0.019411974 0.0988918 0.13061799 0.055362932 -0.0051002386 -0.023473443
-0.07285762 0.06600266 0.09428349 0.00014288712 -0.02961744 0.0064331056 -0.03460875 -0.016468706
-0.06317472 -0.02653939 0.099606775 0.09508565 -0.041647617 -0.08467668 -0.009982018 0.0031643724
0.06809053 -0.05711995 -0.05733381 -0.08670532 0.013259704 -0.11719451 0.07843339 0.028369622
-0.026214598 -0.05713895 -0.039630573 -0.05740674 -0.045607656 0.071431994 0.051681314 -0.026086638
-0.042819533 0.012093169 -0.0034485848 -0.03352813 -0.048574314 0.048088893 0.009687257 0.019578086
-0.0037987542 0.037421778 -0.0026108078 0.08255113 0.044097975 -0.06037874 0.01590501 -0.023951298
-0.017374268 -0.027493844 -0.061779015 0.07181616 0.014069682 0.061631594 0.0120348185 0.089679025
-0.027611084 -0.017960744 0.03169178 -0.030763783 0.056214403 0.016424956 -0.03767 0.05863763
0.017996717 0.09649573 0.033109747 0.033644654 -0.047014125 0.010720788 0.036485005 0.0041225348
0.036503613 0.01595345 -0.0008661007 0.07132807 0.0011571196 -0.06395272 0.057130318 -0.014934162
-0.077998765 0.06157415 -0.01207048 0.0410335 -0.0050920513 0.017704595 -0.030541591 0.044987217
-0.072521985 0.041837092 0.07886334 -0.01669412 0.018556654 -0.09027713 -0.039596938 -0.017047362
0.003377039 -0.014953574 -0.0025414468 -0.053205818 -0.031038627 -0.049472027 0.028873283 0.05699566
-0.09619376 -0.08573706 -0.036311027 0.08130315 -0.07498838 -0.03525686 -0.02655859 0.052071154
0.028938962 0.06881253 -0.012555663 -0.076551735 -0.013925874 0.07278528 0.05040161 -0.06852566
-0.083285764 -0.023627857 -0.06954893 -0.0004633749 -0.07915017 -0.015443177 8.628004e-05 -0.09018972
-0.037566494 0.034929164 -0.012529816 0.024517938 0.00853204 0.061410155 0.0018144986 -0.009238902
-0.036196545 -0.05296511 -0.02686558 -0.08416379 0.08144452 0.017460587 0.060261536 -0.060912535
-0.059509523 -0.0900277 -8.8676075e-05 0.06711004 0.060400583 0.08694316 -0.032974478 -0.047480308
-0.059749123 0.02442936 -0.087250814 0.022219075 0.049948048 0.052386057 0.0717553 0.08054328
-0.0859492 -0.04564537 0.050161157 0.08102089 0.0039341482 -0.04735488 0.038327523 -0.002279874
0.07380301 -0.047496174 -0.08524452 0.015581541 0.0031811919 -0.011162817 -0.06316919 0.06285752
0.0717568 0.016996477 -0.059330717 0.011917277 -0.027178174 -0.027054466 -0.041126043 -0.026674606
-0.09760546 -0.028055826 -0.011578286 0.08687086 0.06967646 -0.08557102 -0.0031419625 0.07767893
00000000: 8131 ed3d 7a34 133d 76c8 e1bd 98ec 233d
00000010: 4d15 a2bb 0428 b5bd 0f01 eb3c 0d32 95bd
00000020: 22f0 1e3d 4def abbd da1d c1bc 7c0b 8cbd
00000030: 4476 913d d1b4 97bd 8426 1a3d 49dc c63b
00000040: 2c0a fcbd 6c09 6bbd 7e36 ca3c deca 973d
00000050: 950f 303d 4a3b 07bd ec4a e5bc 1a51 b5bc
00000060: a8a1 ccba be39 1e3e cc6f d33d ca64 923d
00000070: 6dbf 0fbd eb73 debc 26a6 cdbc ab37 8a3d
00000080: 4f3e b83c 7236 89bd 56bd a53d a65a 47bc
00000090: 6ee8 b7ba 2249 99bd 31b5 6fbd d6e9 b4bd
000000a0: 8626 c13d d9b8 ba3d c121 76bc 01bc 34bd
000000b0: fcb7 7f3c 7b46 083e 6b05 3fbd b68b fdbc
000000c0: 24fa 10bd 6451 4c3d 8588 bc3d d5dc c4bd
000000d0: 18e1 11be 6efe a9bd 2ee8 b23c 002d 05bc
000000e0: e641 02be 985b 95bd dc05 9f3c c987 ca3d
000000f0: b9c0 053e 3ec4 623d e71f a7bb 614b c0bc
00000100: 6036 95bd 672c 873d b417 c13d f8d3 1539
00000110: 46a0 f2bc cdcc d23b e8c1 0dbd 61e9 86bc
00000120: bf61 81bd 2369 d9bc a3fe cb3d 44bc c23d
00000130: b196 2abd f86a adbd 9e8b 23bc 5c61 4f3b
00000140: 0c73 8b3d 9cf6 69bd dbd6 6abd 8f92 b1bd
00000150: 3b3f 593c ad03 f0bd afa1 a03d 6967 e83c
00000160: ffbf d6bc 880a 6abd ab53 22bd 5423 6bbd
00000170: 18cf 3abd f04a 923d c9af 533d a5b3 d5bc
00000180: 8963 2fbd 6d22 463c a701 62bb cb54 09bd
00000190: dcf5 46bd dcf8 443d 4db7 1e3c 3962 a03c
000001a0: 85f4 78bb 9447 193d 161a 2bbb 9110 a93d
000001b0: 14a0 343d b34f 77bd 394b 823c 8335 c4bc
000001c0: 7b54 8ebc c53a e1bc fe0b 7dbd 5a14 933d
000001d0: 8684 663c 6971 7c3d b02d 453c a3a9 b73d
000001e0: a430 e2bc 6922 93bc 3dcf 013d 5404 fcbc
000001f0: 1341 663d a18d 863c dc4b 1abd 032e 703d
00000200: da6d 933c 8e9f c53d 169e 073d face 093d
00000210: e291 40bd 3ea6 2f3c 4d71 153d 5416 873b
00000220: d084 153d cfb0 823c 090b 63ba 7314 923d
00000230: 7eaa 973a a5f9 82bd 7b01 6a3d 6aae 74bc
00000240: d1bd 9fbd 2d35 7c3d 43c3 45bc be12 283d
00000250: 39db a6bb 3a09 913c 5c32 fabc 8444 383d
00000260: 6886 94bd 5f5d 2b3d 1a83 a13d 1bc2 88bc
00000270: 2004 983c 37e3 b8bd 6630 22bd e9a6 8bbc
00000280: 5051 5d3b d6ff 74bc 678e 26bb 58ee 59bd
00000290: b844 febc 2ea3 4abd aa87 ec3c 4874 693d
000002a0: 3c01 c5bd e996 afbd dfba 14bd 4482 a63d
000002b0: 8293 99bd 7f69 10bd 6691 d9bc 9048 553d
000002c0: 6711 ed3c 95ed 8c3d 44b6 4dbc 28c7 9cbd
000002d0: 5929 64bc 7310 953d eb71 4e3d 2e57 8cbd
000002e0: ba91 aabd 358f c1bc ab6f 8ebd 20f1 f2b9
000002f0: 7c19 a2bd 6105 7dbc 3ef1 b438 63b5 b8bd
00000300: 53df 19bd e211 0f3d db49 4dbc d8d9 c83c
00000310: f8c9 0b3c 3789 7b3d 78d4 ed3a c35e 17bc
00000320: d442 14bd f1f1 58bd 3415 dcbc 115e acbd
00000330: 62cc a63d 8109 8f3c cdd4 763d 6c7f 79bd
00000340: 42c0 73bd 7160 b8bd 9bf7 b9b8 fd70 893d
00000350: 9a66 773d 410f b23d 3f10 07bd b67a 42bd
00000360: 7fbb 74bd 1520 c83c 8eb0 b2bd c704 b63c
00000370: 5396 4c3d c392 563d 71f4 923d e0f3 a43d
00000380: 2206 b0bd a4f6 3abd c975 4d3d 48ee a53d
00000390: 07ea 803b 31f7 41bd 52fd 1c3d f069 15bb
000003a0: 0826 973d 598b 42bd ae94 aebd b849 7f3c
000003b0: 8b7b 503b 3fe4 36bc d95e 81bd 72bb 803d
000003c0: 3bf5 923d 323c 8b3c c404 73bd af40 433c
000003d0: c3a4 debc 54a1 ddbc c873 28bd b484 dabc
000003e0: 5fe5 c7bd 55d5 e5bc dab2 3dbc 59e9 b13d
000003f0: 88b2 8e3d dc3f afbd 62e9 4dbb 2116 9f3d

bias f4 [128]
0.05787033 0.064045765 0.046491433 -0.030068053 -0.00510267 0.022429243 0.0148644345 -0.022348791
-0.017717212 0.022067735 -0.10342147 0.05731581 0.07605109 0.058251925 0.0075403736 -0.07159127
0.058415588 0.027823925 0.070023365 -0.09945938 0.090859525 -0.030296167 -0.028343553 0.05886594
-0.08447777 0.029700765 -0.04225989 0.06290874 -0.0728998 -0.03538738 -0.07400704 -0.051291887
0.07299483 -0.09321142 -0.009431744 -0.02524464 -0.025717892 -0.014542208 0.076073274 0.036820047
-0.060183372 -0.0030165517 0.05689375 0.07397823 -0.062404927 0.015429961 -0.03984007 0.030163677
0.043507148 -0.05637592 0.06646012 -0.026060684 -0.06819415 -0.017597558 0.06898451 0.0854382
-0.062408 -0.011336493 0.05472604 -0.019447643 -0.019153548 -0.050841406 0.005615993 -0.049955383
-0.07998777 -0.08903274 0.07388682 -0.031331412 -0.108274974 -0.04528484 -0.04759802 0.014966934
0.008915302 -0.050435368 -0.07409286 -0.047846634 -0.07918743 0.08884423 -0.0008679459 0.060399253
-0.0888634 0.055199694 0.035819277 0.080916345 -0.066621415 -0.052142344 -0.08125922 -0.08257856
0.06754969 0.030571697 0.09532457 -0.06939124 -0.037534986 -0.057291023 0.010934504 0.0066205505
0.06573335 0.057064906 -0.017638752 -0.010195059 0.07055796 -0.04053705 0.0005466816 -0.04773705
-0.087137744 -0.009166642 -0.05693828 0.027704092 -0.03871909 -0.034293965 -0.054389734 0.082558796
-0.105443284 0.013736905 0.006531499 -0.06866593 -0.0018564399 -0.026443534 0.08426978 0.004305169
0.071105935 0.014828205 -0.033079527 0.0634926 -0.058973502 -0.062713586 0.036561847 -0.06180613
00000000: 7009 6d3d 6d2a 833d cd6d 3e3d 4751 f6bc
00000010: 4c34 a7bb 88bd b73c f589 733c d014 b7bc
00000020: b023 91bc 65c7 b43c a3ce d3bd fcc3 6a3d
00000030: adc0 9b3d 9299 6e3d 3d15 f73b 729e 92bd
00000040: 2f45 6f3d 00ef e33c 6968 8f3d 5cb1 cbbd
00000050: 8f14 ba3d ab2f f8bc bd30 e8bc 691d 713d
00000060: ae02 adbd 054f f33c b518 2dbd 4cd6 803d
00000070: 7e4c 95bd 5bf2 10bd 0191 97bd 7117 52bd
00000080: 507e 953d a1e5 bebd 9a87 1abc d9cd cebc
00000090: 54ae d2bc 7142 6ebc 4ecc 9b3d 9ed0 163d
000000a0: d782 76bd 57b1 45bb 6c09 693d e681 973d
000000b0: 4f9c 7fbd f2cd 7c3c 572f 23bd d119 f73c
000000c0: 8d34 323d 70ea 66bd 3e1c 883d 377d d5bc
000000d0: 60a9 8bbd c128 90bc c047 8d3d 39fa ae3d
000000e0: 889f 7fbd b3bc 39bc 6a28 603d aa50 9fbc
000000f0: e7e7 9cbc 143f 50bd 5d06 b83b 049e 4cbd
00000100: a1d0 a3bd cc56 b6bd f951 973d 5e55 00bd
00000110: 45bf ddbd 997c 39bd 24f6 42bd df37 753c
00000120: 7d11 123c 5195 4ebd ffbd 97bd d5fa 43bd
00000130: 052d a2bd f7f3 b53d dd86 63ba 3565 773d
00000140: 04fe b5bd 1319 623d 3cb7 123d 78b7 a53d
00000150: cf70 88bd 3693 55bd 3c6b a6bd f31e a9bd
00000160: 7e57 8a3d 7f71 fa3c 8739 c33d ff1c 8ebd
00000170: 49be 19bd fea9 6abd a226 333c 34f1 d83b
00000180: 359f 863d e4bc 693d 257f 90bc 2d09 27bc
00000190: b180 903d 2e0a 26bd 2e4f 0f3a ed87 43bd
000001a0: 4675 b2bd af2f 16bc 1d38 69bd b1f3 e23c
000001b0: e997 1ebd d477 0cbd c5c7 5ebd 9614 a93d
000001c0: a6f2 d7bd c110 613c 2f06 d63b b9a0 8cbd
000001d0: c953 f3ba 1ca0 d8bc a295 ac3d 6012 8d3b
000001e0: fd9f 913d 00f2 723c 667e 07bd 6908 823d
000001f0: 338e 71bd fb6f 80bd e0c1 153d 6d28 7dbd

weight f4 [1, 128]
-0.051474854 -0.00091041403 -0.088399455 0.05432408 0.066030145 0.085279904 0.009708467 -0.045458492
0.08683475 0.029644735 -0.12142282 -0.08985476 -0.10919433 -0.044847228 0.083190255 -0.08665187
0.06827101 0.000982498 0.07506786 0.055333782 0.06508458 -0.06570344 -0.09700494 -0.06769542
0.032403365 0.04736058 0.051702786 0.045931756 0.052420016 -0.10707354 0.08968907 -0.0716564
0.046113495 0.054845195 0.099248804 0.0108369365 0.07012683 -0.019551039 0.06076813 -0.08762895
0.06523387 0.095195435 -0.05517803 -0.069837645 0.08333696 0.05072481 0.10823918 -0.08565843
0.089780755 -0.052125 -0.103521876 -0.10795049 0.042966954 0.040518463 -0.07205734 -0.08128717
0.044453442 0.002349365 0.08318455 0.04158778 -0.11975006 0.080978155 -0.04449765 -0.0034302971
-0.024438301 -0.121793024 -0.10685375 -0.042494804 0.09317935 -0.07061822 0.0715288 -0.08346437
0.1177459 -0.034518857 -0.10598801 0.06790867 -0.009925303 -0.060117163 -0.06518947 0.09544687
-0.0681 -0.06927668 -0.10611835 0.08535624 0.050252195 0.05285652 -0.050646376 -0.0058157532
0.09221001 0.0422549 0.06155785 -0.10358545 0.055063732 0.04114772 0.06255464 0.031643577
0.05024588 -0.062389206 0.08991684 0.06897014 0.07884165 0.030440325 -0.04314048 0.084884115
-0.14612943 0.09236243 -0.02815374 0.07931112 -0.05360938 0.041640352 -0.077024 -0.08462083
-0.007154446 -0.085400835 -0.021117384 0.00040274893 0.031199908 0.045085147 0.050345585 -0.074439324
0.026440619 0.0667479 0.013779732 -0.04152725 -0.09175082 0.10263775 -0.042856824 0.08612565
00000000: 4cd7 52bd daa8 6eba c60a b5bd ed82 5e3d
00000010: d03a 873d 3ba7 ae3d 4310 1f3c af32 3abd
00000020: 6bd6 b13d 84d9 f23c 87ac f8bd c605 b8bd
00000030: 47a1 dfbd bab1 37bd a75f aa3d 8976 b1bd
00000040: acd1 8b3d 2ac7 803a 2ebd 993d ada5 623d
00000050: 104b 853d 868f 86bd 87aa c6bd e5a3 8abd
00000060: 64b9 043d 2bfd 413d 4dc6 533d f022 3c3d
00000070: 5fb6 563d 5f49 dbbd e7ae b73d 97c0 92bd
00000080: 81e1 3c3d 5ba5 603d f542 cb3d 688d 313c
00000090: a89e 8f3d 8029 a0bc 01e8 783d cf76 b3bd
000000a0: 5699 853d d3f5 c23d 5c02 62bd 0a07 8fbd
000000b0: 91ac aa3d d2c4 4f3d 81ac dd3d b06d afbd
000000c0: f9de b73d 0681 55bd 4703 d4bd 2615 ddbd
000000d0: 1efe 2f3d b0f6 253d cc92 93bd e379 a6bd
000000e0: d014 363d cef7 193b a95c aa3d f357 2a3d
000000f0: 853f f5bd e0d7 a53d 2b43 36bd d6ce 60bb
00000100: d532 c8bc 9f6e f9bd 24d6 dabd 080f 2ebd
00000110: d1d4 be3d 49a0 90bd b17d 923d 5eef aabd
00000120: c324 f13d a563 0dbd 3e10 d9bd b313 8b3d
00000130: bd9d 22bc 6a3d 76bd 0f82 85bd a679 c33d
00000140: 0378 8bbd efe0 8dbd 9454 d9bd 41cf ae3d
00000150: 3fd5 4d3d 1480 583d 9372 4fbd 1392 bebb
00000160: 9ad8 bc3d 7913 2d3d 1624 7c3d 9c24 d4bd
00000170: 828a 613d 838a 283d a61c 803d b29c 013d
00000180: a0ce 4d3d d38b 7fbd 5226 b83d 3740 8d3d
00000190: bb77 a13d fd5d f93c 12b4 30bd b9d7 ad3d
000001a0: f4a2 15be 8428 bd3d aca2 e6bc de6d a23d
000001b0: 8295 5bbd 138f 2a3d c2be 9dbd b04d adbd
000001c0: d86f eabb a2e6 aebd 5dfe acbc 0c28 d339
000001d0: f396 ff3c 34ab 383d 2c37 4e3d a573 98bd
000001e0: ff99 d83c 1fb3 883d 63c4 613c 7a18 2abd
000001f0: dbe7 bbbd be33 d23d a38a 2fbd a562 b03d
