trained_models/03_lstm_model.pt (torch, 780266 bytes, 19 tensors)

weight_ih_l0 f4 [256, 100]
0	0x3e9aaa9e	0.30208296
1	0xbc05f7ad	-0.008176726
2	0x3d7191a7	0.058976796
3	0xbca24d07	-0.01981212
4	0xbe09f195	-0.13471062
5	0x3e2f8706	0.17141351
6	0x3e03c79d	0.12869115
7	0xbde3de14	-0.111263424
8	0x3d85eb90	0.065390706
9	0xbc961aee	-0.018323388
10	0xbde52aab	-0.11189779
11	0x3dc65edc	0.09686062
12	0xbd793b2e	-0.060847454
13	0x3befb741	0.0073155467
14	0xbbfc1000	-0.007692337
15	0xbd0ba7b6	-0.03409549
16	0xbcc58512	-0.024111304
17	0xbdaa69e6	-0.0832098
18	0xbdd87e1f	-0.10570931
19	0x3e118af2	0.1421316
20	0xbddf6f4e	-0.109099016
21	0x3cf5016f	0.02990791
22	0x3dc22daf	0.0948137
23	0xbaebf73d	-0.001800276
24	0x3d784f96	0.060622774
25	0x3c2dd5c6	0.01061005
26	0x3d3cd7ea	0.04610435
27	0xbe0eba79	-0.13938321
28	0xbcacf2ae	-0.021111812
29	0xbcf39ed8	-0.029738829
30	0xbdf5ef0b	-0.120084845
31	0xbc81954d	-0.015818262
32	0x3e81f8a1	0.25385
33	0xbc6c2019	-0.01441195
34	0x3db95761	0.09049869
35	0xbc2ca7df	-0.01053807
36	0xbde565db	-0.11201068
37	0x3e6a9c69	0.22911228
38	0xbc010bd9	-0.00787636
39	0x3d3c9609	0.046041522
40	0xbe5cfeca	-0.2158157
41	0x3cea3613	0.028590238
42	0xbd0b92e5	-0.034075636
43	0x3e0712b6	0.13190731
44	0x3dc22f9d	0.09481738
45	0xbde2329d	-0.1104481
46	0xbe229186	-0.15875825
47	0x3cfca96e	0.03084251
48	0xbdd4a066	-0.10382156
49	0xbb095989	-0.0020957908
50	0x3d3855bf	0.04500365
51	0x3dba98c0	0.09111166
52	0xbccf5fe5	-0.02531428
53	0xbd1e5372	-0.0386538
54	0xbd3a7e5b	-0.04553066
55	0x3df2958c	0.1184493
56	0xbdcaca45	-0.09901861
57	0x3d890da0	0.06692052
58	0x3d39dc96	0.045376383
59	0xbda2b7c8	-0.0794521
60	0xbda3aaca	-0.0799156
61	0x3dae4d35	0.0851082
62	0xbd1baf2a	-0.038008846
63	0x3def4769	0.11683542
64	0xbd80aafa	-0.06282611
65	0xbd0eda5a	-0.034876205
66	0x3ca69286	0.02033354
67	0x3e2591fb	0.16168968
68	0xbb4d7aea	-0.003135378
69	0xbd114fe8	-0.035476595
70	0xbde5d783	-0.11222746
71	0x3e024d2c	0.12724751
72	0xbd97292e	-0.07380901
73	0x3df20ed0	0.118192315
74	0x3cddf2e2	0.027093355
75	0xbdac0d5d	-0.08400986
76	0x3df0a7a3	0.11750724
77	0xbe1b2261	-0.15149833
78	0x3e049417	0.12947117
79	0x3dd68641	0.10474826
80	0x3a6b7955	0.00089826185
81	0x3d590805	0.052986164
82	0x3d521ffe	0.05130004
83	0xbd1cd55e	-0.03828942
84	0xbde0acdc	-0.1097047
85	0xbcc64026	-0.02420051
86	0xbd5dd112	-0.054154463
87	0x3dd61e5e	0.10455011
88	0xbc06f322	-0.008236678
89	0xbd3ec26d	-0.046572138
90	0x3dcad62b	0.099041305
91	0xbd96154f	-0.07328283
92	0x3d0693bd	0.032855738
93	0xbdbb14f1	-0.09134854
94	0x3bf34d3b	0.007424978
95	0x3d210e29	0.039320145
96	0xbcc4fdb5	-0.024046758
97	0xbddb2020	-0.10699487
98	0xbc0b639c	-0.008507635
99	0xbde1075c	-0.10987732
100	0x3d28118a	0.04103235
101	0xbdb9e4b2	-0.09076823
102	0xbe160427	-0.14650021
103	0x3e013a8e	0.12619993
104	0xbb1cf25a	-0.0023948164
105	0xbd7c5534	-0.061604694
106	0x3e467e8b	0.1938421
107	0x3d1eda99	0.03878269
108	0xba7cf936	-0.00096501724
109	0x3e6a3998	0.22873533
110	0x3d7afa1c	0.06127368
111	0xbd14e2e9	-0.03634921
112	0xbdad142c	-0.08451113
113	0x3de4098d	0.11134634
114	0xbe389a38	-0.1802758
115	0x3d873f79	0.06603903
116	0x3d9d1a98	0.07671088
117	0xbe18a943	-0.14908318
118	0x3e124e92	0.14287785
119	0x3dabfc0d	0.08397684
120	0xbe16fb6a	-0.14744344
121	0xbd28c95e	-0.041207664
122	0xbdc9f9b3	-0.098620795
123	0xbc6be855	-0.014398654
124	0x3e197490	0.14985871
125	0x3d6617f3	0.056175184
126	0x3ba3277b	0.0049790717
127	0xbc443daf	-0.011977597
128	0x3e3a0058	0.18164194
129	0x3d99b1a9	0.07504589
130	0xbd3a5b53	-0.04549725
131	0xbbb711b9	-0.0055868295
132	0x3e2c769b	0.1684212
133	0x3d91243a	0.07086988
134	0x3cf27afa	0.029599655
135	0xbdb12b67	-0.086508565
136	0x3d5ddf89	0.054168258
137	0xbda8f6c7	-0.08250194
138	0x3df577b2	0.11985721
139	0x3dd91bcb	0.10601004
140	0x3e6e66be	0.2328138
141	0x3d4da617	0.050207224
142	0x3e441d7f	0.19151877
143	0x3d5c3bb3	0.05376787
144	0x3cb3da23	0.021954602
145	0x3e18518d	0.14874859
146	0xbca9e49f	-0.020738898
147	0xbdea9d3b	-0.114557706
148	0xbe10f0c4	-0.14154345
149	0x3e0b4097	0.13598858
150	0x3d9f92ec	0.07791695
151	0xbc5a3e65	-0.01332054
152	0xbb9288fd	-0.0044718967
153	0xbcaca5a7	-0.021075083
154	0xbe3e3293	-0.1857398
155	0xbcf5499a	-0.029942323
156	0x3d865239	0.065586515
157	0x3ce904ea	0.028444726
158	0x3cb3f7f3	0.021968817
159	0xbda54077	-0.08068936
160	0x3b9dda97	0.0048173177
161	0x3d7003e6	0.058597468
162	0x3dddac0a	0.108238295
163	0x3e2002b4	0.15626031
164	0xbdaed842	-0.08537342
165	0xbe3af5a3	-0.18257765
166	0xbc55b041	-0.0130425105
167	0xbe0b97d8	-0.13632143
168	0xbe1572e8	-0.14594615
169	0x3cdb0a3f	0.026738284
170	0x3c2a731d	0.010403422
171	0x3e20898e	0.15677473
172	0x3b4f5de6	0.0031641661
173	0x3d894cf7	0.06704133
174	0x3cd93f02	0.026519302
175	0xbdd1b0cf	-0.10238802
176	0x3d525ab7	0.051356044
177	0x3ce18fed	0.02753445
178	0x3d72fa6c	0.059320852
179	0x3e037d93	0.12840872
180	0xbce658a0	-0.028118432
181	0x3e1842e2	0.14869264
182	0x3e03cbd6	0.12870726
183	0xbcaf2af9	-0.021382796
184	0x3d332c56	0.043743454
185	0x3e557060	0.20843649
186	0xbbd95923	-0.0066329404
187	0x3dd7d5d5	0.10538832
188	0x3dca9165	0.09891013
189	0x3da7b402	0.08188631
190	0x3d912fa7	0.07089167
191	0x3d7b8b8d	0.061412383
192	0x3df824ea	0.12116416
193	0xbdc39877	-0.09550565
194	0xbd8b18ea	-0.06791861
195	0xbda4ad78	-0.08040899
196	0xbc1ce075	-0.009574999
197	0x3c810ad7	0.01575224
198	0xbe465aaf	-0.1937053
199	0xbd91c1b7	-0.07117026
200	0x3de82b0e	0.11336337
201	0xbda9ddd5	-0.08294264
202	0xbe47e0ad	-0.19519301
203	0x3e6ddd07	0.23228846
204	0xbe0b7ee3	-0.13622622
205	0xbd245893	-0.040123533
206	0xbd16ecb2	-0.036846824
207	0x3e1dae41	0.15398504
208	0x3d4b9758	0.04970488
209	0xbe39cf45	-0.18145473
210	0xbd3900fd	-0.045166958
211	0x3e1f76fc	0.15572733
212	0xbd4c031b	-0.04980765
213	0xbd6d0cb3	-0.05787344
214	0xbdb091a4	-0.08621529
215	0xbe8dd458	-0.27701068
216	0x3d4689c7	0.04847124
217	0x3da93646	0.08262305
218	0xbe469795	-0.19393761
219	0xbdb6a7c0	-0.089187145
220	0xbe34f2f1	-0.176708
221	0xbc631f68	-0.013862468
222	0x3d8178ae	0.06321846
223	0x3e7c5e1a	0.24645272
224	0xbe04c62c	-0.12966222
225	0x3d2db8b2	0.042412467
226	0x3e037144	0.12836176
227	0x3d80db1f	0.06291794
228	0x3e0a4bde	0.13505504
229	0xbcc2e81e	-0.023792323
230	0x3d4f8d4a	0.050671853
231	0x3d7b8ff1	0.06141657
232	0xbdaaa619	-0.08332462
233	0x3d4837ff	0.048881527
234	0xbc251fb5	-0.01007836
235	0x3aabbfea	0.001310346
236	0x3e64ea1d	0.22354932
237	0xbec5bde6	-0.38621444
238	0xbe91cdf0	-0.2847743
239	0x3d966004	0.07342532
240	0xbce0a3f2	-0.027421925
241	0xbe2627f1	-0.16226174
242	0xbd1bd233	-0.03804226
243	0xbe19e167	-0.1502739
244	0xbdabc947	-0.08388
245	0xbe348d3e	-0.17632005
246	0xbdf2d093	-0.118561886
247	0xbc2ea231	-0.010658787
248	0x3dbd5f4a	0.092466906
249	0xbddb36ae	-0.10703789
250	0x3bef298e	0.007298655
251	0xbdf402b3	-0.11914577
252	0x3da2a153	0.079409264
253	0xbd03c654	-0.032171562
254	0xbe0aa5f3	-0.13539867
255	0x3da459b1	0.0802492

weight_hh_l0 f4 [256, 64]
0	0xbd96e8c2	-0.07368614
1	0xbe02666a	-0.1273438
2	0x3d539510	0.05165583
3	0xbd993ca8	-0.074822724
4	0x3d0f928f	0.03505188
5	0x3d195960	0.03743875
6	0xbd1e47e3	-0.038642775
7	0xbe1b3c27	-0.15159665
8	0x3c2aa556	0.010415396
9	0xbc53b6da	-0.012922013
10	0xbd2436da	-0.040091373
11	0xbdb8498c	-0.08998403
12	0xbe12c78f	-0.14333938
13	0xbe16bd13	-0.14720564
14	0x3c824e26	0.015906405
15	0xbda3159c	-0.07963106
16	0x395800bc	0.00020599639
17	0xbdc223c6	-0.094794795
18	0xbd9065a6	-0.07050638
19	0x3c8bf6a6	0.017085385
20	0x3c5c5499	0.013447904
21	0xbce763b7	-0.02824579
22	0xbc8e5595	-0.017374793
23	0x3da807a7	0.082045846
24	0x3c35fe86	0.011108046
25	0xbd7df2ad	-0.06199901
26	0xbd9915d3	-0.07474866
27	0xbd5395c2	-0.051656492
28	0x3d02dff7	0.03195187
29	0xbde0c267	-0.10974579
30	0x3de57adc	0.11205074
31	0xbc489678	-0.012242906
32	0xbd0eee9f	-0.034895536
33	0xbce964c9	-0.02849044
34	0xbdd7c010	-0.1053468
35	0x3d281577	0.041036095
36	0x3d10bb9b	0.035335165
37	0x3c098c7f	0.008395313
38	0xbc779660	-0.015111536
39	0x3daad7ab	0.08341917
40	0xbdecdfca	-0.11566122
41	0x3d88a529	0.06672127
42	0xbdfeb7c3	-0.124373935
43	0xbde9e16b	-0.11419948
44	0x3da83819	0.08213825
45	0xbd9609f1	-0.07326115
46	0x3e0269db	0.12735693
47	0x3d88861f	0.066662066
48	0xbd31544e	-0.04329329
49	0xbb2aa2fd	-0.002603709
50	0x3d273253	0.040819477
51	0xbdf63264	-0.1202133
52	0xbd49d722	-0.049277432
53	0xbdff9725	-0.124800004
54	0xbe460865	-0.1933914
55	0x3e26e668	0.1629883
56	0x3c86f66f	0.01647493
57	0x3dd84f6e	0.10562025
58	0xbdf95d3c	-0.12175986
59	0xbcf43e36	-0.02981482
60	0xbda34ba9	-0.079734154
61	0x3d8f1a0a	0.069873884
62	0x3d629b6f	0.055324014
63	0xbe115fac	-0.14196652
64	0xbd4ee982	-0.05051566
65	0xbca572ce	-0.020196345
66	0xbc8d6109	-0.017258184
67	0xbd0a3d69	-0.03374997
68	0x3ddcd09c	0.107819766
69	0xbccf862e	-0.025332537
70	0xbda32528	-0.07966071
71	0x3b3b0e48	0.0028542448
72	0x3b9bdf5e	0.004756852
73	0x3e11a03b	0.1422128
74	0xbd0fc524	-0.035100117
75	0x3de57975	0.11204807
76	0x3da50ffd	0.0805969
77	0xbd8d037f	-0.068854325
78	0x3d932d07	0.07186323
79	0xbd97c692	-0.07410921
80	0x3e06ec3d	0.13176055
81	0x3d3bc87d	0.045845497
82	0xbcf45cc6	-0.029829394
83	0x3d43ff8d	0.047851134
84	0x3d09e05f	0.033661243
85	0x3d4c635f	0.049899455
86	0xbdeb7d90	-0.114985585
87	0x3cc4c00a	0.024017353
88	0xbdd7b6af	-0.10532891
89	0xbd3653a8	-0.044513375
90	0x3d763f29	0.060118828
91	0x3b2aec1b	0.0026080671
92	0xbd4e6fce	-0.050399594
93	0xbde86223	-0.11346843
94	0xbd2011a9	-0.039079342
95	0x3d5815f7	0.052755322
96	0xbe2ace78	-0.16680324
97	0xbd84ad3f	-0.064783566
98	0xbe38fb4f	-0.18064617
99	0x3e02bd9b	0.12767641
100	0x3d2eb39e	0.042651765
101	0xbd9693a9	-0.07352383
102	0x3c419610	0.011815563
103	0xbdb6ab8e	-0.0891944
104	0xbc16db15	-0.009207507
105	0xbd552109	-0.052033458
106	0x3ccf1ce2	0.025282327
107	0x3db3c1fe	0.087772354
108	0xbd18b1c4	-0.037278906
109	0x3df00261	0.11719204
110	0xbd707550	-0.058705628
111	0x3e27cfa6	0.16387805
112	0xbd71f3f6	-0.05907055
113	0x3dbc9985	0.09208969
114	0x3dc1c264	0.09460905
115	0x3d5574eb	0.052113455
116	0x3c816af0	0.015798062
117	0xbd36e6d5	-0.044653732
118	0xbe1d19fb	-0.15341942
119	0x3dad3d58	0.08458966
120	0xbcd739fd	-0.026272768
121	0x3c4953ee	0.012288077
122	0x3d3985d1	0.045293633
123	0x3d880b4c	0.0664278
124	0xbdfb6396	-0.12274854
125	0x3dcb049d	0.09912989
126	0x3c8c59ff	0.017132757
127	0x3db0d275	0.086338915
128	0xbd3a064e	-0.04541617
129	0x3cf060f4	0.029343106
130	0xbda73e6a	-0.081662014
131	0x3d36fa73	0.04467244
132	0xbd8939e1	-0.06700493
133	0x3dab8b89	0.083762236
134	0x3ccf6391	0.025316032
135	0xbdeb8374	-0.11499682
136	0xbd61db65	-0.05514087
137	0xbd84d7bd	-0.06486461
138	0xbe0218da	-0.12704793
139	0xbda5eda7	-0.08101969
140	0x3c5cec69	0.013484099
141	0x3d5d1d9a	0.05398331
142	0x3d18b01b	0.037277322
143	0xbc934afe	-0.017980095
144	0xbd72bd80	-0.059262753
145	0x3de96981	0.113970764
146	0x3db8429a	0.08997078
147	0x3d592ca9	0.053021107
148	0x3de6008c	0.11230573
149	0x3d834121	0.06408907
150	0xbdd44396	-0.103644535
151	0x3bd7c86e	0.0065851724
152	0x3de010f2	0.10940732
153	0xbda2e6c0	-0.07954168
154	0xbc529421	-0.0128526995
155	0xbe314bac	-0.17314023
156	0xbde2859b	-0.110606395
157	0xbd6b3fd6	-0.057433926
158	0x3d9453ff	0.072425835
159	0x3d52a2fb	0.05142496
160	0x3d2ba203	0.041902553
161	0xbda131b2	-0.07870807
162	0xbca5c0db	-0.020233562
163	0x3e2074f0	0.15669608
164	0xbdd96150	-0.10614264
165	0xbc3d674f	-0.011560275
166	0xbda50e5e	-0.08059381
167	0xbd978018	-0.07397479
168	0xbd3507a8	-0.044196755
169	0x3d0828f3	0.033242177
170	0xbde92c28	-0.11385375
171	0xbe3c45f6	-0.18386063
172	0xbd737016	-0.059433065
173	0xbddfff98	-0.109374225
174	0xbda7125b	-0.08157798
175	0xbe0bd52d	-0.13655539
176	0xbd8276fa	-0.06370349
177	0x3dcf03f1	0.10108174
178	0x3ca63694	0.020289697
179	0x3d5d8a16	0.054086767
180	0xbd8af61b	-0.06785222
181	0xbd510b58	-0.05103621
182	0x3d504205	0.05084421
183	0x3d6c4559	0.057683323
184	0x3ddcdf4c	0.10784778
185	0x3d7d63f4	0.0618629
186	0xbdc04a9c	-0.093892306
187	0xbce722ab	-0.028214773
188	0x3cf020ec	0.029312573
189	0x3e13c3f0	0.14430213
190	0x3d058699	0.032599065
191	0x3d7a28d1	0.06107408
192	0xbd2fd41f	-0.042926904
193	0xbdb751cd	-0.08951149
194	0xbde58013	-0.11206069
195	0x3d7e6840	0.06211114
196	0xbcb4863d	-0.022036666
197	0x3d03a16e	0.032136373
198	0x3c454f29	0.012042799
199	0xbc91fa07	-0.017819418
200	0x3c6b352d	0.01435594
201	0x3e11551c	0.14192623
202	0x3cf86c83	0.03032518
203	0xbc7b7a98	-0.015349053
204	0x3d5c8cdf	0.053845283
205	0xbd5ff012	-0.05467231
206	0xbd702d43	-0.058636915
207	0xbc26d0c2	-0.010181608
208	0xbdf0a350	-0.117498994
209	0xbb7e77bf	-0.0038828698
210	0xbd0f377e	-0.03496503
211	0x3d9a4071	0.075318225
212	0x3e20e139	0.15710916
213	0xbdc49dcd	-0.096004106
214	0xbcdaede9	-0.026724773
215	0x3d525374	0.05134912
216	0xbd90ebeb	-0.07076248
217	0xbd47d8f5	-0.04879089
218	0xbc95d76e	-0.018291201
219	0xbdc1046e	-0.09424673
220	0xbd84e293	-0.06488528
221	0xbc9af63b	-0.01891624
222	0xbdd70c5a	-0.10500403
223	0xbde8445c	-0.113411635
224	0x3db942f5	0.09045974
225	0xbe1a23d6	-0.15052733
226	0xbdf984ae	-0.1218351
227	0xbaf6131d	-0.0018774007
228	0x3d925199	0.0714447
229	0xbc1d4bac	-0.009600561
230	0xbd5d680f	-0.054054316
231	0xbd237230	-0.03990382
232	0xbdcc8cf2	-0.09987821
233	0xbd2f1170	-0.04274124
234	0xbc590c67	-0.013247586
235	0x3dab1e27	0.083553605
236	0xbc98222d	-0.018570984
237	0x3dceb71a	0.100935176
238	0x3d826556	0.063669845
239	0x3becd09b	0.007227016
240	0xbcbbb9cb	-0.022915741
241	0x3d825ce6	0.06365375
242	0x3e0f3ce5	0.13988073
243	0x3dc891da	0.09793444
244	0x3cfb8ce4	0.03070683
245	0xbc410941	-0.011781991
246	0x3de6042f	0.11231267
247	0x3dc1b84e	0.094589815
248	0x3caf2378	0.021379218
249	0x3e285e00	0.16442108
250	0xbd578ce7	-0.05262461
251	0x3e1b6b4c	0.1517765
252	0xbda604c1	-0.081063755
253	0xbdc8930b	-0.09793671
254	0xbd030d6d	-0.031995226
255	0xbdf0c456	-0.11756198

bias_ih_l0 f4 [256]
0	0x39409dc7	0.00018369324
1	0xbe057bb7	-0.13035475
2	0xbd831db1	-0.064021476
3	0x3d627d8b	0.05529551
4	0xbd8747e9	-0.06605513
5	0x3d6b23ab	0.057407063
6	0x3d4cdfcd	0.05001812
7	0x3dc697a7	0.09696894
8	0xbdd9d973	-0.10637178
9	0x3acd6f04	0.0015673344
10	0xbdb53c1f	-0.08849358
11	0xbbaf29b9	-0.00534555
12	0xbd9ae52e	-0.07563244
13	0x3d56a277	0.052401032
14	0xbd98504c	-0.074371904
15	0x3da1ef28	0.079069436
16	0x3e157175	0.14594062
17	0xbdb5b993	-0.08873286
18	0xbddcb81e	-0.10777305
19	0x3da89735	0.082319655
20	0xbd29be9c	-0.041441545
21	0xbd05b26d	-0.032640863
22	0xbdf39ba1	-0.11894918
23	0x3d8aaf20	0.06771684
24	0x3cc73bd1	0.024320515
25	0xbd3ea37e	-0.046542637
26	0x3cec14b0	0.028818458
27	0xbe0fad17	-0.14030872
28	0x3d04bca7	0.032406475
29	0x3da6a1ce	0.081363305
30	0x3db4431a	0.08801861
31	0xbc622436	-0.013802579
32	0xbb84f09c	-0.004057003
33	0xbd146d32	-0.03623695
34	0xbdbc67c9	-0.09199483
35	0xbc9ad5e7	-0.018900825
36	0xbc76b32f	-0.015057369
37	0xbe2134f0	-0.1574285
38	0x3e31778a	0.17330757
39	0xbe0b1052	-0.13580444
40	0xbe38678b	-0.18008249
41	0xbde5012d	-0.11181865
42	0xbd3b5402	-0.045734413
43	0x3dcb3279	0.09921736
44	0x3d6764ad	0.056492496
45	0xbd8ee6cd	-0.069776155
46	0x3ccfb52e	0.025354948
47	0xbd9ccd2c	-0.07656321
48	0xbe130772	-0.14358309
49	0xbd8064e5	-0.06269244
50	0xba08a344	-0.0005212317
51	0x3d4ef172	0.05052323
52	0x3c76ceb5	0.015063931
53	0x3c8dccda	0.017309595
54	0x3dc5fe5a	0.09667654
55	0xbd2d91c1	-0.04237533
56	0x3dc8a01f	0.09796166
57	0x3d42148c	0.047382876
58	0x3d434ffe	0.04768371
59	0x3d0796b0	0.03310269
60	0xbd249442	-0.040180452
61	0x3d9d92f0	0.07694042
62	0x3c8c09bb	0.017094484
63	0xbd3136fe	-0.043265335
64	0xbe02600b	-0.1273195
65	0x3c949b30	0.018140405
66	0x3b01b81e	0.001979358
67	0xbcd16809	-0.025562303
68	0x3d853b04	0.06505397
69	0x3d32f9f0	0.04369539
70	0xbd8850a4	-0.06656006
71	0xbdcc549d	-0.09977076
72	0x3e1cc997	0.15311275
73	0xbd35ae69	-0.044355784
74	0x3d779eae	0.060454063
75	0x3d5e3630	0.054250896
76	0xbda9a948	-0.08284241
77	0x3e08e918	0.13370168
78	0xbd215862	-0.03939093
79	0x3de584d8	0.112069786
80	0x3d6a9b65	0.057277102
81	0xbb5b599f	-0.0033470166
82	0x3e62ee11	0.22161128
83	0x3d55d227	0.05220237
84	0x3d1ce588	0.038304836
85	0xbd3835d7	-0.04497322
86	0x3e151629	0.14559235
87	0xbc431a99	-0.011908197
88	0xbcab01ba	-0.020874847
89	0x3b43ad56	0.0029857955
90	0x3cd4d942	0.025982503
91	0x3c8eadfc	0.017416947
92	0x3df8f524	0.12156132
93	0x3d979c96	0.07402913
94	0x3de1e996	0.11030881
95	0x3c93d25a	0.01804464
96	0xbdf4b5ee	-0.11948763
97	0xbdda18a6	-0.106492326
98	0x3e184259	0.1486906
99	0x3dee2ecf	0.11630022
100	0x3b9d30cd	0.0047970773
101	0x3cc727b9	0.024310933
102	0x3d7624e5	0.06009378
103	0xbdf4128f	-0.11917602
104	0x3df8d48c	0.12149915
105	0x3d9af790	0.0756675
106	0x3dcfe33d	0.10150764
107	0xbda6acb7	-0.081384115
108	0x3d108cba	0.035290457
109	0xbd983443	-0.07431843
110	0x3e15f127	0.14642774
111	0x3e40a79e	0.18813941
112	0x3e3b0413	0.18263273
113	0x3d82dd84	0.06389907
114	0x3c1e9adc	0.009680476
115	0xbc505a3b	-0.012716825
116	0xba8ee5af	-0.0010902191
117	0xbd95791e	-0.07298492
118	0x3d802e54	0.062588364
119	0x3e121948	0.14267457
120	0x3dd12207	0.10211568
121	0x3de7de63	0.11321714
122	0x3ced9742	0.02900279
123	0xbc8ae7af	-0.016956178
124	0xbd80e28c	-0.062932104
125	0x3d7293d5	0.059223015
126	0x3df97308	0.121801436
127	0x3dfcfd64	0.12353018
128	0xbe1e56c7	-0.1546279
129	0x3d930eb5	0.071805395
130	0xbda1b5db	-0.07896014
131	0xbcf9d4e8	-0.03049703
132	0x3dc7a7ae	0.09748779
133	0x3d220cc9	0.039562974
134	0xbd99a9f3	-0.07503118
135	0xbe0ecb48	-0.13944733
136	0x3d94ea7d	0.072712876
137	0xbdcb30ce	-0.09921418
138	0x3db7012a	0.08935769
139	0xbdc55fed	-0.09637437
140	0xbd966e01	-0.073452
141	0x3c337bbd	0.0109547945
142	0x3dfb160d	0.12260065
143	0xbd13c905	-0.03608038
144	0x3c7f909a	0.015598441
145	0x3dc9bfcb	0.09851035
146	0x3ddfc561	0.10926319
147	0x3dcf89d9	0.10133714
148	0x3cd332c0	0.025781035
149	0x3e00f225	0.12592371
150	0xbc97a1c2	-0.01850975
151	0x3bd7cefe	0.0065859547
152	0x3ce31192	0.02771834
153	0xbdb46dff	-0.088100426
154	0xbdbf110e	-0.09329425
155	0x3d94569f	0.07243084
156	0xbd80c905	-0.062883414
157	0x3def883a	0.11695905
158	0xbd8eb175	-0.06967441
159	0x3d3e4af4	0.0464582
160	0x3dc79465	0.09745101
161	0x3d97f60c	0.074199766
162	0xbddf7f74	-0.10912982
163	0xbcded117	-0.027199311
164	0x3d3557f4	0.04427333
165	0xbd55b8e5	-0.052178282
166	0xbe10ce9c	-0.14141315
167	0xbc2e942b	-0.010655443
168	0x3d6a3322	0.05717767
169	0xbda3026c	-0.07959446
170	0xbd96a4a3	-0.07355621
171	0xbe036746	-0.12832364
172	0xbdf91ef9	-0.12164111
173	0x3c5b996a	0.013403276
174	0x3da6949d	0.081338145
175	0x3d32276c	0.043494627
176	0xbaa49dcc	-0.0012559234
177	0xbdc8fa8d	-0.09813414
178	0xbc3d74b6	-0.011563471
179	0x3daa54e5	0.083169736
180	0xbcfc68ac	-0.03081163
181	0x3d959b53	0.07305016
182	0x3daa2405	0.083076514
183	0xbd998e74	-0.07497874
184	0x3d1811ec	0.037126467
185	0x3de40c87	0.11135202
186	0x3d1ba74a	0.038001336
187	0xbc726f15	-0.014796992
188	0xbda3446e	-0.07972036
189	0x3d221dfa	0.03957937
190	0x3c5c9805	0.013463979
191	0xbdad4039	-0.08459515
192	0xbd84560d	-0.064617254
193	0xbd12318d	-0.035691787
194	0x3dadeeda	0.08492823
195	0xbd876847	-0.06611686
196	0x3e02b064	0.127626
197	0xbda2ae0c	-0.07943353
198	0xbc22d410	-0.009938255
199	0x3d4e5138	0.050370425
200	0xbcf1aeeb	-0.029502353
201	0x3d3fee8a	0.046858348
202	0xbc8ae68a	-0.016955633
203	0xbd840d70	-0.064478755
204	0xbd8680fc	-0.065675706
205	0x3dc32d29	0.09530098
206	0xbdb5a340	-0.08869028
207	0xbd75e873	-0.060036134
208	0xbd4f69d6	-0.050638042
209	0x3dd930cd	0.10605011
210	0x3c11e8f2	0.008905636
211	0xbd26f1a5	-0.040757794
212	0xbc98ce42	-0.018653039
213	0x3cdcf208	0.026970878
214	0xbcdc10d9	-0.026863502
215	0x3deb38ab	0.11485418
216	0xbde2f691	-0.11082185
217	0x3d417bf0	0.047237337
218	0x3baae5b2	0.00521537
219	0xbd9e487a	-0.077286676
220	0xbe03be1a	-0.12865487
221	0x3db6a2ca	0.08917768
222	0xbc07cd9c	-0.008288767
223	0x3b846fba	0.004041639
224	0x3d8b9020	0.06814599
225	0xbdd2bc1b	-0.102897845
226	0x3df34263	0.11877897
227	0x3d72b4a4	0.059254304
228	0x3b6a1480	0.0035717785
229	0x3c7b75f5	0.015347947
230	0x3e1f6cad	0.155688
231	0xbdc4dc5f	-0.09612345
232	0x3df2d366	0.11856727
233	0x3c6cd74c	0.014455628
234	0xbe133116	-0.14374194
235	0x3e23cdf3	0.15996532
236	0xbdbf40a2	-0.093384996
237	0xbd35e5c5	-0.04440858
238	0x3d2910ca	0.041275777
239	0x3d8e9448	0.06961876
240	0xbbead71a	-0.0071667554
241	0xbd72bb9c	-0.05926095
242	0x3dd1bdb9	0.10241265
243	0xbce3c55f	-0.027804075
244	0xbcbabad1	-0.02279416
245	0xbdf6f064	-0.120575696
246	0xbb90fddd	-0.004424794
247	0xbd88ff0e	-0.06689273
248	0xbd03a1a0	-0.03213656
249	0x3df98e2e	0.12185322
250	0xbd7e1034	-0.06202717
251	0x3e05a8f7	0.13052736
252	0x3da6267a	0.081128076
253	0xbd87933c	-0.066198796
254	0x3cdacf02	0.026710037
255	0x3cfc1168	0.030770019

bias_hh_l0 f4 [256]
0	0x3de1a75d	0.1101825
1	0x3d734c5c	0.059398994
2	0x3d2d099b	0.04224549
3	0x3dda24da	0.1065156
4	0x3df77a1d	0.12083838
5	0xbd828d29	-0.063745804
6	0x3c7ef8a6	0.015562212
7	0x3d9ed560	0.07755542
8	0x3dbc27f9	0.09187312
9	0xbd74876d	-0.059699465
10	0x3acf5db1	0.0015820769
11	0x3c0d5b84	0.008627776
12	0x3dc4dda4	0.09612587
13	0x3e2366c1	0.15957166
14	0xbdf002bc	-0.117192715
15	0x3ddfc6be	0.10926579
16	0xbc05bb84	-0.008162383
17	0xbd97b014	-0.07406631
18	0xbd9a848b	-0.07544812
19	0x3daf5855	0.0856177
20	0xbe05ff4f	-0.13085674
21	0xbdd77a33	-0.105213545
22	0xbe00b487	-0.12568866
23	0xbd7978f9	-0.060906384
24	0x3de762a6	0.112981126
25	0x3cbf1758	0.02332656
26	0x3d8f9e32	0.07012595
27	0xbcbbd1c9	-0.022927182
28	0xbdc67a0f	-0.096912496
29	0xbd60a9ca	-0.054849423
30	0x3dfa7c62	0.122307554
31	0xbda7b849	-0.081894465
32	0xbd23a9d0	-0.039956868
33	0xbde02459	-0.10944433
34	0x3d8ff5f3	0.07029333
35	0x3d5ccce4	0.053906336
36	0xbdba6af8	-0.09102434
37	0x3d508a5b	0.050913196
38	0x3d282294	0.0410486
39	0x3d91fe34	0.071285635
40	0xbd171c91	-0.036892477
41	0xbe12236a	-0.14271322
42	0x3d47ae58	0.04875025
43	0xbc988e37	-0.0186225
44	0x3d2e4c01	0.04255295
45	0xbdb1581d	-0.086593844
46	0x3d6d2bc3	0.057903063
47	0xbe23ac7e	-0.1598377
48	0xbe80b550	-0.2513833
49	0x3dc31281	0.09525014
50	0x3ccdf965	0.025143335
51	0xbdef832b	-0.1169494
52	0x3d174d4d	0.036938954
53	0xbdc88c8c	-0.09792432
54	0x3ceb5772	0.02872822
55	0xbc659b78	-0.014014117
56	0xbde89877	-0.11357205
57	0xbda2aca8	-0.07943088
58	0xbccc32a0	-0.024926484
59	0x3d5c7960	0.05382669
60	0xbc9f9c92	-0.019483838
61	0x3dccdcf3	0.1000308
62	0x3db873c8	0.090064585
63	0xbc8af195	-0.016960898
64	0x3d50281e	0.05081951
65	0x3d0a5d1b	0.0337802
66	0xbda1537f	-0.07877254
67	0x3c33dc2a	0.010977784
68	0xbb99a9f4	-0.0046894494
69	0x3cd347c3	0.025791055
70	0x3d8f7970	0.07005584
71	0xbd9fc96f	-0.07802092
72	0xbceb37e3	-0.028713172
73	0x3d44bd6f	0.04803222
74	0x3d8c1502	0.068399444
75	0xbd70eced	-0.0588197
76	0x3e0443aa	0.12916437
77	0x3e11aa21	0.14225055
78	0x3c35ff66	0.011108255
79	0xbdb320b8	-0.08746475
80	0xbc70ec6a	-0.014704803
81	0x3ded7530	0.11594617
82	0x3b52cbc3	0.0032164908
83	0xbca06aa7	-0.019582106
84	0x3db06321	0.08612657
85	0x3ca8bec5	0.020598779
86	0x3e029ec3	0.12755875
87	0x3d20effb	0.039291363
88	0xbdef1993	-0.116748
89	0xbd9b17a0	-0.075728655
90	0x3c818437	0.015810115
91	0x3e42b592	0.19014576
92	0x3d3d6151	0.046235386
93	0x3db9f010	0.090789914
94	0x3ddf3568	0.10898858
95	0x3dbf1ecf	0.09332048
96	0x3d810422	0.062996164
97	0xbc980195	-0.018555442
98	0x3e07313c	0.13202375
99	0x3e032258	0.1280607
100	0x3c3caeee	0.011516316
101	0x3d13f648	0.036123544
102	0x3d660d47	0.056165006
103	0xbdceca47	-0.10097175
104	0x3e055737	0.13021551
105	0xbe00c930	-0.12576747
106	0x3d9e5313	0.07730689
107	0x3dc0d5c1	0.0941577
108	0xbd49ca1a	-0.049265005
109	0xbe0cd8db	-0.13754599
110	0x3e025f69	0.12731709
111	0x3dba67f3	0.09101858
112	0x3cef98e1	0.029247703
113	0x3d562373	0.0522799
114	0x3de51c34	0.1118702
115	0xbd9f8aa1	-0.07790113
116	0xbdef9938	-0.11699146
117	0x3a48610c	0.00076438556
118	0x3b33dfc5	0.002744661
119	0x3e110525	0.14162119
120	0x3dc57197	0.09640806
121	0xbd5c4fe8	-0.053787142
122	0x3ceb4c50	0.028722912
123	0x3d9d87b7	0.07691901
124	0xbbfd0ef2	-0.007722729
125	0x3dcb51e5	0.099277295
126	0x3d985b00	0.07439232
127	0x3c2d9d9b	0.010596658
128	0x3d018e28	0.03162971
129	0x3bd258fe	0.0064193
130	0xbd80ded3	-0.062925
131	0xbd47741e	-0.048694722
132	0xbd5ece95	-0.05439623
133	0x3da2f77d	0.07957361
134	0xbd83e704	-0.06440547
135	0x3dac11d5	0.08401839
136	0x3daf1371	0.0854863
137	0xbd9f6f2a	-0.07784875
138	0xbbc17569	-0.005903889
139	0x3c5d8dcf	0.013522579
140	0xbdeab9b3	-0.114612006
141	0xbe070b4f	-0.13187908
142	0xbd81c023	-0.06335475
143	0xbce9c883	-0.028537994
144	0xbdf1b108	-0.11801344
145	0xbdbb3d3b	-0.09142538
146	0x3c28fd45	0.01031429
147	0xbd9d2f85	-0.07675079
148	0xbdd9492d	-0.1060966
149	0x3d253a4d	0.040338803
150	0xbd54fb12	-0.05199725
151	0x3d5a3dea	0.053281702
152	0x3c8caedf	0.017173229
153	0x3db0111d	0.08597014
154	0x3d264356	0.04059156
155	0x3dd2dd25	0.10296086
156	0xbcfb1576	-0.030649882
157	0x3d2a8c06	0.041637443
158	0x3d9b6edf	0.07589506
159	0xbda17b19	-0.07884807
160	0x3db42353	0.087958
161	0x3da8ebea	0.08248122
162	0xbde5dd2e	-0.11223827
163	0xbc492512	-0.012276905
164	0x3d2ffcd0	0.04296571
165	0x3d8647e2	0.06556679
166	0xbc87ffe5	-0.016601512
167	0x3cf38d50	0.029730469
168	0x3b5d8740	0.003380254
169	0xbda389c0	-0.07985258
170	0x3d714e6d	0.058912683
171	0x3c55c7ae	0.013048096
172	0x3d6c7248	0.057726175
173	0x3d9641e8	0.07336789
174	0x3dedf873	0.116196536
175	0x3ce5a1f6	0.02803133
176	0x3d1c5769	0.0381693
177	0xbd48dd05	-0.049038906
178	0x3dd9a913	0.106279515
179	0x3c1a44ed	0.009415847
180	0xbd80412f	-0.06262433
181	0x3db34241	0.08752871
182	0xbd8986e5	-0.06715182
183	0x3d81ba51	0.06334365
184	0xbcaaad79	-0.020834671
185	0x3a3471c4	0.00068834075
186	0xbdf23114	-0.11825767
187	0x3dc733dd	0.09726689
188	0xbd67078b	-0.056403678
189	0x3c8fff76	0.017577868
190	0x3e0a878d	0.13528271
191	0xbdb5c7e3	-0.08876016
192	0xbbba8801	-0.0056924825
193	0xbdda35bb	-0.106547795
194	0xbd40e3ba	-0.047092177
195	0xbdbd65ae	-0.092479095
196	0x3b80d6f8	0.0039318763
197	0x3d2c5bbd	0.042079676
198	0xbd251935	-0.040307242
199	0xbd4bc16a	-0.049745
200	0x3e1c7e52	0.15282562
201	0xbd69ed7e	-0.057111256
202	0x3d5b9c1b	0.05361567
203	0xbdc489bb	-0.095965825
204	0x3cc4289c	0.023945145
205	0xbd931ca5	-0.07183198
206	0x3dc7b608	0.097515166
207	0xbbd2711b	-0.0064221746
208	0x3de89b2b	0.11357721
209	0x3d9c9ee7	0.07647496
210	0xbd49801f	-0.04919445
211	0x3d48b657	0.049002018
212	0xbc807899	-0.015682505
213	0xbc85a6da	-0.016314913
214	0x3e0545a6	0.1301485
215	0xbdad042d	-0.08448062
216	0xbd90f037	-0.07077067
217	0xbd84adfa	-0.06478496
218	0x3dc3088a	0.09523113
219	0xbd90dd78	-0.07073492
220	0xbde0ad54	-0.1097056
221	0x3de40e1e	0.11135505
222	0xbd3bbb1c	-0.04583274
223	0x3d0d36a9	0.034475956
224	0xbd9d9816	-0.07695024
225	0xbdadc1bf	-0.0848422
226	0x3da72cfd	0.08162878
227	0xbca1566c	-0.01969453
228	0x3da60f89	0.08108432
229	0x3da076f5	0.07835189
230	0xbcbb6070	-0.022873133
231	0xbde52db9	-0.111903615
232	0xbc2a3f92	-0.010391133
233	0xbb5d19dd	-0.003373734
234	0xbd887d24	-0.06664494
235	0x3daaf176	0.08346836
236	0xbd941fa2	-0.07232596
237	0xbdf0c030	-0.11755407
238	0x3d71229a	0.05887089
239	0x3e2a8094	0.16650611
240	0xbc03ace9	-0.00803683
241	0x3d6164ca	0.05502776
242	0xba2b3cea	-0.0006532209
243	0xbd5be6f2	-0.053687043
244	0xbd8d3424	-0.06894711
245	0xbdbd973a	-0.0925736
246	0xbd5636de	-0.05229842
247	0xbd143398	-0.036182016
248	0x3d791b1e	0.060816877
249	0x3dc3d7fc	0.0956268
250	0x3d8b51ba	0.068026975
251	0xbdd4a048	-0.10382134
252	0x3de2912c	0.110628456
253	0xbbeafb21	-0.00717105
254	0x3dbe16b9	0.09281678
255	0xbd0da2ec	-0.034579203

weight_ih_l0_reverse f4 [256, 100]
0	0xbd118a00	-0.035531998
1	0xbd201685	-0.039083976
2	0xbd32716d	-0.043565203
3	0xbdbbaaec	-0.0916346
4	0x3dcaae8d	0.09896574
5	0x3dad4853	0.084610604
6	0x3df377e4	0.11888102
7	0xbd862a05	-0.06550983
8	0x3c820e5a	0.015875984
9	0xbcd56f97	-0.026054187
10	0x3dece55e	0.11567186
11	0xbe111e79	-0.1417178
12	0xbdf0da7c	-0.117604226
13	0x3d98e86a	0.074662045
14	0x3dd50be2	0.10402657
15	0x3e018578	0.1264857
16	0x3d97b152	0.07406868
17	0xbe339b5b	-0.17539732
18	0x3e2f1828	0.17099059
19	0x3dc44f66	0.095854566
20	0x3da9428a	0.082646444
21	0xbde447f2	-0.11146535
22	0x3cb33eba	0.021880496
23	0x3da2e605	0.07954029
24	0x3e077b89	0.13230719
25	0xbde64045	-0.11242727
26	0x3cbbdb64	0.022931762
27	0xbc40e09b	-0.0117723
28	0xbdd6aab7	-0.1048178
29	0x3e6c7ccf	0.23094486
30	0xbe86e356	-0.2634532
31	0x3cc364b2	0.023851726
32	0xbd09c5e2	-0.03363598
33	0xbd86f627	-0.065899186
34	0xbc1c95ac	-0.009557169
35	0x3dbad358	0.09122342
36	0xbc150188	-0.009094603
37	0xbba6a9c2	-0.0050861547
38	0xbcf4646f	-0.029833047
39	0x3b62d348	0.0034610797
40	0xbc2e7b3d	-0.0106494995
41	0xbd854721	-0.065077074
42	0xbde2d4c3	-0.11075737
43	0x3c833b0d	0.016019369
44	0x3e6fdae3	0.23423342
45	0xbd213442	-0.039356478
46	0xbd35fff2	-0.04443354
47	0xbb98e994	-0.0046665166
48	0x3e0284c7	0.12745963
49	0x3daca79a	0.08430405
50	0xbde8c698	-0.11366004
51	0xbe57dd2c	-0.21080464
52	0x3de584c5	0.112069644
53	0x3e12c67c	0.14333528
54	0x3d17423e	0.036928408
55	0x3cc4de91	0.02403191
56	0xbe0eb4e0	-0.13936186
57	0x3e004a99	0.12528457
58	0xba6f132e	-0.00091199845
59	0xbc607966	-0.013700819
60	0x3c005266	0.007832145
61	0x3d569384	0.052386776
62	0x3c036d87	0.008021719
63	0x3ded64fe	0.11591528
64	0xbd54ec29	-0.051983032
65	0xbd3f3272	-0.046678968
66	0x3cc3ce7e	0.023902174
67	0xbdcb87bd	-0.099379994
68	0x3d9e7755	0.077376045
69	0xbd3c3346	-0.045947336
70	0xbdfbcce1	-0.12294937
71	0x3e45a3a6	0.19300708
72	0x3df9e303	0.12201502
73	0xbd8a4233	-0.06750908
74	0x3d5299b9	0.051416133
75	0xbc3bd21b	-0.011463667
76	0x3de6012a	0.11230691
77	0x3d8cd44c	0.0687643
78	0x3ddafc7a	0.10692687
79	0xbd83a75c	-0.06428406
80	0xbd1a0bdd	-0.03760897
81	0x3a4987b0	0.00076877605
82	0x3c0e61c8	0.008690305
83	0x3d8ca5cb	0.0686756
84	0xbe04c601	-0.12966157
85	0xbba280a7	-0.004959184
86	0x3e2696eb	0.16268508
87	0x3d28aea0	0.04118216
88	0x3da1ba1a	0.07896824
89	0x3d9c986c	0.0764626
90	0x3e2c4347	0.1682254
91	0x3dd39ed1	0.10333026
92	0xbe0c220f	-0.13684867
93	0x3e23f2c9	0.16010584
94	0x3dbe32a8	0.09287006
95	0xbce0bdfd	-0.027434343
96	0xbce02fe3	-0.027366584
97	0xbcfb4977	-0.03067468
98	0xbda9c2a8	-0.08289081
99	0x3da5c302	0.080938354
100	0xbed9ff6b	-0.4257768
101	0x3e712446	0.23548993
102	0x3e0cb19f	0.13739632
103	0xbd888d9b	-0.06667634
104	0xbdf5288c	-0.11970624
105	0x3e9167af	0.28399417
106	0xbbedde79	-0.007259187
107	0xbdc2b2c3	-0.09506752
108	0xbdf8c79e	-0.12147449
109	0x3e97874f	0.2959542
110	0x3d51f5f4	0.05125995
111	0xbc29edaf	-0.01037161
112	0xbe3007f8	-0.1719054
113	0x3e17bce1	0.14818145
114	0xbe6726ba	-0.22573367
115	0x3d7fbd6c	0.062436506
116	0xbe9f3e86	-0.3110239
117	0xbe648bd4	-0.22318965
118	0x3da71366	0.08157997
119	0xbd2ad6e3	-0.04170884
120	0x3b2ba9c8	0.0026193727
121	0x3e7f672f	0.24941705
122	0x3e1da6b6	0.15395626
123	0x3d8e7261	0.0695541
124	0xbe779d4c	-0.24181098
125	0x3eba521a	0.36390764
126	0xbe73cf2d	-0.238095
127	0x3e343c05	0.1760102
128	0xbe2be093	-0.16784887
129	0x3d458eb3	0.04823179
130	0x3dfb067b	0.122570954
131	0xbde51a63	-0.111866735
132	0xbe0bf3bd	-0.13667198
133	0xbe71e9c5	-0.23624332
134	0xbe36ebcf	-0.17863391
135	0xbd02971c	-0.03188239
136	0xbdc90f76	-0.09817402
137	0xbd759436	-0.059955798
138	0xbe62f28d	-0.22162838
139	0xbd6bb683	-0.057547104
140	0x3e281d1c	0.16417354
141	0x3e026602	0.12734225
142	0xbce49deb	-0.027907332
143	0xbc922bba	-0.017843116
144	0x3dfa1ca5	0.12212495
145	0x3cc65533	0.024210548
146	0x3df39e01	0.11895371
147	0x3ed37101	0.41297153
148	0xbd9fd8e6	-0.07805042
149	0x3d5dee87	0.054182556
150	0x3dd631ae	0.104586944
151	0xbd351e76	-0.044218503
152	0xbdfabb3c	-0.122427434
153	0xbe1a8c8a	-0.15092674
154	0xbe3ca7b5	-0.1842335
155	0xbb51c170	-0.0032006167
156	0x3ec432e2	0.3832007
157	0x3dcd8b52	0.10036339
158	0x3d6864a0	0.05673659
159	0xbe52177c	-0.20516771
160	0xbcb538be	-0.022121783
161	0xbe778ea9	-0.24175514
162	0xbe1aa75b	-0.15102904
163	0x3e048db6	0.12944683
164	0x3d4b3fa5	0.049621243
165	0xbddce296	-0.10785405
166	0xbd0d004f	-0.034424122
167	0xbe00efc9	-0.12591471
168	0x3e08f4c2	0.13374618
169	0xbd9c3f56	-0.07629268
170	0x3e080b46	0.1328555
171	0xbcc658ae	-0.024212208
172	0x3e428a6a	0.18998113
173	0x3e1a1683	0.1504765
174	0xbe1648aa	-0.14676157
175	0x3d595c95	0.05306681
176	0xbd0ce853	-0.03440125
177	0x3c2680cf	0.010162546
178	0x3e38e834	0.18057328
179	0xbdd2ae31	-0.102871306
180	0x3dae2db4	0.08504811
181	0x3ec92143	0.3928319
182	0xbde749b2	-0.11293353
183	0xbe00386e	-0.12521526
184	0xbd838d77	-0.06423467
185	0x3d998177	0.074953966
186	0xbd59abcd	-0.053142358
187	0xbd922fa0	-0.0713799
188	0xbd9dd107	-0.077058844
189	0xbcd5d6dd	-0.026103431
190	0xbc90a6b0	-0.017657608
191	0xbdbbf4a7	-0.09177523
192	0xbdb494d3	-0.088174485
193	0x3e8578bf	0.26068684
194	0x3d911ee8	0.07085973
195	0xbd16f09e	-0.036850564
196	0xbc5a45f5	-0.013322343
197	0x3d4e3427	0.050342705
198	0x3b4bb684	0.003108413
199	0x3cd323d5	0.025773922
200	0x3cae0521	0.02124268
201	0x3e35c44f	0.17750667
202	0x3e142f2a	0.14471117
203	0x3e9a7e7e	0.3017463
204	0xbe31335e	-0.17304751
205	0xbe24676f	-0.16055082
206	0x3e2f384c	0.1711132
207	0x3e562614	0.20912963
208	0xbdc27e95	-0.094968
209	0x3e368317	0.17823444
210	0x3e3082fb	0.17237465
211	0x3e0d6d06	0.1381112
212	0xbe126b0d	-0.14298649
213	0x3c52fc9f	0.012877612
214	0xbbd6c9c5	-0.0065548145
215	0xbc684d6c	-0.014178615
216	0xbd73b137	-0.059495177
217	0x3d1e5f5f	0.03866517
218	0x3e21ab2a	0.1578795
219	0xbbe9b750	-0.0071324483
220	0x3e10102c	0.14068669
221	0x3d030ca6	0.031994484
222	0x3db40c7b	0.08791443
223	0x3df38ee0	0.118924856
224	0xbbec51f0	-0.007211916
225	0xbcacb7c6	-0.021083724
226	0x3c7dd75d	0.015493241
227	0x3e6742ed	0.22584124
228	0xbe240336	-0.1601685
229	0xbe044419	-0.12916602
230	0xbee3173f	-0.44353673
231	0xbdd9d90c	-0.106371015
232	0xbe1bf347	-0.15229522
233	0xbe22fd10	-0.15916848
234	0xbde084f4	-0.10962859
235	0x3d8a0ed6	0.06741111
236	0x3b880f1a	0.004152191
237	0xbd66ced0	-0.056349576
238	0xbc3e6eb1	-0.011623071
239	0x3daf241d	0.0855181
240	0x3e1c566a	0.1526734
241	0xbe7cf33c	-0.24702162
242	0x3d5a585a	0.053306915
243	0x3d50eeb5	0.0510089
244	0xbdbb8378	-0.09155935
245	0xbe2c39d4	-0.16818935
246	0x3df88a91	0.121358044
247	0x3d8a6bab	0.06758817
248	0xbd52b4ec	-0.05144207
249	0x3d125803	0.035728466
250	0x3dbcb657	0.09214466
251	0xbe6e92b6	-0.23298153
252	0xbdf090ae	-0.117463455
253	0xbd69021c	-0.056886777
254	0xbe2bf223	-0.16791587
255	0x3cfa8103	0.030579096

weight_hh_l0_reverse f4 [256, 64]
0	0x3d5ad80e	0.053428702
1	0x3dab21ab	0.08356031
2	0xbd9ed9e1	-0.07756401
3	0xbdff5370	-0.12467086
4	0x3db536d3	0.088483475
5	0xbe1fbbc0	-0.15598965
6	0x3e326760	0.17422247
7	0xbd0f4327	-0.03497615
8	0xbcae1521	-0.02125031
9	0xbc7f28b3	-0.015573668
10	0xbd9b9ad4	-0.075978905
11	0xbdbf6b3c	-0.09346625
12	0xbbb0a269	-0.0053904545
13	0xbd024529	-0.031804238
14	0x3da72909	0.08162124
15	0x3d3be242	0.045870073
16	0xba12d380	-0.0005600974
17	0x3cac019a	0.020996857
18	0x3cbf0851	0.023319395
19	0x3d3aa4b1	0.04556722
20	0x3d14a7b4	0.036292747
21	0x3da1b895	0.07896534
22	0xbd7bcd9a	-0.061475374
23	0xbd8eed1d	-0.069788195
24	0xbdc134da	-0.09433909
25	0x3d89f5eb	0.06736358
26	0x3de021e3	0.109439634
27	0xbd28abda	-0.041179515
28	0xbe2f4eb1	-0.17119862
29	0x3ce80293	0.02832154
30	0x3d9bf651	0.076153405
31	0xbe092972	-0.13394716
32	0xbdffa063	-0.12481763
33	0xbcd8f39b	-0.026483348
34	0xbd82e21f	-0.063907854
35	0x3d858006	0.06518559
36	0xbd3fb07c	-0.046799168
37	0xbe1abed1	-0.15111853
38	0xbcae06a8	-0.021243408
39	0xbdb6c0c8	-0.08923489
40	0x3de7649c	0.112984866
41	0x3d131279	0.03590629
42	0x3b1d33ee	0.0023987251
43	0xbdb132f3	-0.08652296
44	0xbdae44e8	-0.085092366
45	0x3db35b71	0.087576754
46	0xbdcedb3d	-0.1010041
47	0xbdedd8f4	-0.11613646
48	0xbd81fd4c	-0.06347141
49	0xbe086a00	-0.13321686
50	0xbe0e05ce	-0.13869402
51	0xbd4bef83	-0.049788963
52	0x3d3d1e11	0.04617125
53	0x3d855042	0.065094486
54	0xbd5d5e8a	-0.054045238
55	0x3d796929	0.060891304
56	0x3d0dfcbc	0.034664854
57	0x3d840862	0.064469114
58	0x3cf5c238	0.029999837
59	0xbe0579fe	-0.13034818
60	0x3d8cc59a	0.06873627
61	0xbcbd159f	-0.023081599
62	0x3d7ed801	0.062217716
63	0xbb1e7087	-0.0024175958
64	0x3da87c42	0.08226825
65	0xbe20dbc7	-0.15708838
66	0x3d80c8da	0.062883094
67	0x3d0d323b	0.03447173
68	0x3d8dee93	0.0693027
69	0xbde9d110	-0.11416829
70	0xbd80b6cf	-0.06284868
71	0x3e2f56f1	0.1712301
72	0x3c216248	0.009850092
73	0x3d25526c	0.040361807
74	0x3e01e9c6	0.12686834
75	0x3d8c1ad1	0.06841052
76	0xbd3bb1f1	-0.045823995
77	0x3e40d8dc	0.18832725
78	0xbdc1c15b	-0.09460708
79	0xbd233411	-0.039844576
80	0x3dc91086	0.09817605
81	0xbe00d7b0	-0.12582278
82	0xbd06436e	-0.03277915
83	0x3d3386a7	0.043829586
84	0x3d0b27f1	0.033973638
85	0x3deae9a5	0.114703454
86	0x3d05c982	0.032662876
87	0xbd7fb40d	-0.06242757
88	0xbd2b0f84	-0.041762844
89	0x3d86b8e2	0.06578232
90	0xbdc7c136	-0.09753649
91	0xbd712b19	-0.05887899
92	0xbdb980fe	-0.090578064
93	0x3d75d9a8	0.060022026
94	0x3db26eff	0.08712577
95	0xbc1e03f9	-0.009644502
96	0x3d0834be	0.033253424
97	0x3d37555b	0.044759136
98	0x3d027a29	0.031854782
99	0x3bc1639d	0.0059017674
100	0x3c6a3b98	0.014296435
101	0x3b09b7de	0.0021014134
102	0xbc0340ba	-0.0080110375
103	0x3e374d8f	0.1790068
104	0x3d723d97	0.059140768
105	0xbd1bbe70	-0.038023412
106	0x3dd32f93	0.103118084
107	0x3e6b9897	0.23007427
108	0xbd78172c	-0.060568973
109	0x3d153d10	0.036435187
110	0xbdc486da	-0.095960334
111	0x3d9a4952	0.07533516
112	0xbdeb169c	-0.11478922
113	0x3e5136d9	0.20431079
114	0x3cd7955a	0.026316334
115	0xbddc30ab	-0.1075147
116	0xbe07623d	-0.13221069
117	0x3caf9574	0.02143357
118	0x3af7def3	0.0018911049
119	0x3e06a730	0.13149714
120	0xbde3802d	-0.11108432
121	0xbdb28a14	-0.087177426
122	0xbdb5f915	-0.08885399
123	0x3c81a77f	0.015826939
124	0xbdcad075	-0.09903041
125	0x3d856a3c	0.06514403
126	0x3d065fba	0.032806136
127	0xbccc3293	-0.02492646
128	0xbd268fb5	-0.040664393
129	0xbd12421f	-0.03570759
130	0xbe766162	-0.24060586
131	0xbcc3328a	-0.02382781
132	0xbdf615f8	-0.12015909
133	0x3dc3634f	0.09540426
134	0x3e204ec3	0.15655045
135	0xba826791	-0.0009949078
136	0xbda259c9	-0.079272814
137	0x3d5dede5	0.054181952
138	0x3b52fc8c	0.0032193987
139	0x3e10821f	0.14112137
140	0x3cb63c2e	0.022245493
141	0x3c3df576	0.011594167
142	0xbd872b6d	-0.0660008
143	0x3dc6350c	0.09678087
144	0x3d5e59cb	0.054284852
145	0xbdd2d195	-0.10293881
146	0x3d567d75	0.05236574
147	0xbdf0003e	-0.11718796
148	0xbe178011	-0.14794947
149	0x3e821d40	0.2541294
150	0xbd21e857	-0.039528217
151	0x3d3965f3	0.045263242
152	0xbe0ac732	-0.1355255
153	0xbd02a675	-0.031897027
154	0x3e0e0ed9	0.13872851
155	0x3e15c773	0.14626865
156	0xbda6a358	-0.08136624
157	0xbd7fece7	-0.062481787
158	0x3dc76814	0.09736648
159	0x3afd9ea8	0.0019349651
160	0xbde030f5	-0.10946838
161	0x3dafae4a	0.08578165
162	0x3cadbbc5	0.0212077
163	0xbe0f587e	-0.13998601
164	0x3dcc38ae	0.09971748
165	0xbe0750b1	-0.13214375
166	0xbda4d5aa	-0.08048566
167	0xbd3e8865	-0.046516795
168	0xbddb57b9	-0.10710091
169	0x3db34ab1	0.08754481
170	0xbbf3976d	-0.007433823
171	0xbde09370	-0.109656215
172	0x3d7afa35	0.061273772
173	0x3c7d89f5	0.015474786
174	0xbdc66cd4	-0.09688726
175	0x3e11404a	0.1418468
176	0xbe231ecc	-0.15929717
177	0xbcd18dc4	-0.025580294
178	0x3da73545	0.08164457
179	0x3cff0e78	0.031134829
180	0xbd9f5c10	-0.077812314
181	0xbde5e1aa	-0.11224683
182	0xbda0b892	-0.07847704
183	0xbdc3d1f3	-0.09561529
184	0x3dcdaf7e	0.10043238
185	0xbde14107	-0.10998731
186	0x3dca2166	0.098696515
187	0xbddbc061	-0.10730053
188	0xbd9753cc	-0.0738903
189	0x3e39d7de	0.18148753
190	0xbd050838	-0.03247854
191	0xbde45d26	-0.11150579
192	0xbd1acf0b	-0.037795108
193	0xbe43ab8c	-0.19108409
194	0x3e17d74d	0.14828224
195	0xbd53e12a	-0.051728405
196	0xbcec8fb7	-0.028877122
197	0x3dff29bb	0.12459131
198	0x3da20adf	0.0791223
199	0x3e03ab1e	0.12858245
200	0xbce2ba0f	-0.02767661
201	0xbce6d7d6	-0.02817909
202	0xbbbd4f5a	-0.0057772817
203	0xbcadf091	-0.021232875
204	0xbcfd575b	-0.030925443
205	0x3c9f76e9	0.01946588
206	0xbd996047	-0.074890666
207	0xbdbf8551	-0.093516
208	0x3e134ac7	0.14383994
209	0xbe100bee	-0.14067051
210	0xbdd1177a	-0.10209556
211	0xbdfd25a3	-0.12360694
212	0x3c58fd9b	0.013244058
213	0x3d064cc1	0.032788042
214	0xbe2b380e	-0.16720602
215	0xbd5faa97	-0.054606047
216	0xbcba7bf9	-0.022764193
217	0xbd179e48	-0.037016183
218	0x3d79ffe7	0.061035063
219	0x3d4f1c2a	0.05056397
220	0xbd8048cd	-0.06263886
221	0x3c9a67e6	0.01884837
222	0x3e298d5a	0.16557828
223	0x3aadcf6b	0.0013260668
224	0x3ce18c83	0.027532822
225	0x3e02f6d4	0.1278947
226	0xbdad41df	-0.084598295
227	0xbda810cb	-0.08206328
228	0xbdd88052	-0.1057135
229	0x3d618e1e	0.055067174
230	0x3d0d0fc8	0.03443888
231	0x3cf6e41d	0.03013807
232	0xbd26f9a8	-0.040765435
233	0x3d5279dd	0.05138575
234	0x3dbd9f3f	0.092588894
235	0x3e795d11	0.24351908
236	0x3a55a1af	0.0008149398
237	0xbc2eb4c1	-0.010663212
238	0x3c381486	0.011235362
239	0xbd693c4d	-0.056942273
240	0xbc2401e3	-0.010010215
241	0x3e3b0481	0.18263437
242	0xbd859a02	-0.06523515
243	0xbe40fc58	-0.18846262
244	0x3d775ba7	0.06039014
245	0xbe1a0419	-0.15040626
246	0x3a6255f0	0.00086340215
247	0x3dbf419e	0.09338687
248	0xbd80f3f8	-0.06296533
249	0xbd315dd5	-0.043302376
250	0xbd8a175f	-0.06742739
251	0x3e09c800	0.134552
252	0x3c07f101	0.008297206
253	0x3d8a6cd7	0.06759041
254	0xbd442e18	-0.04789552
255	0xbdb023cf	-0.0860058

bias_ih_l0_reverse f4 [256]
0	0x3dd21da5	0.102595605
1	0x3cebae81	0.028769733
2	0xbc853102	-0.01625872
3	0x3b8813e4	0.004152762
4	0xbd155f4a	-0.036467828
5	0x3c5ae945	0.01336128
6	0xbc3e06e7	-0.011598325
7	0x3e1703da	0.14747563
8	0xbca55f70	-0.02018711
9	0x3d0548e3	0.032540213
10	0xbd1c45e2	-0.038152583
11	0xbbfb9726	-0.0076779304
12	0x3d9febe2	0.07808663
13	0xbd6b22a4	-0.057406083
14	0xbd5c5844	-0.053795114
15	0xbd5696c7	-0.052389886
16	0x3dd26415	0.102729954
17	0xbe1a3cf7	-0.15062319
18	0xbdd9b749	-0.10630662
19	0xbd04b3bc	-0.03239797
20	0xbd8a8c8e	-0.0676509
21	0x3d39cd5b	0.045361858
22	0xbd4eda48	-0.050501138
23	0x3d5fb9c4	0.05462052
24	0xbcc22987	-0.023701442
25	0x3dba26ba	0.09089418
26	0xbdbc7fa1	-0.09204031
27	0xbd17671b	-0.036963563
28	0xbd52414e	-0.05133181
29	0x3d1811bc	0.037126288
30	0xbd31af05	-0.043379802
31	0x3c1ffe66	0.009765243
32	0xbd305d6d	-0.043057848
33	0x3da50bd0	0.08058894
34	0x3db5c3dd	0.088752486
35	0xbc087682	-0.008329036
36	0x3dca323f	0.09872865
37	0xbc8e4c75	-0.017370442
38	0x3ca65c86	0.02030779
39	0x3db2b823	0.087265275
40	0xbe0d99f3	-0.13828258
41	0xbdc44c88	-0.0958491
42	0x3d8950cf	0.06704866
43	0x3cba3c43	0.022733813
44	0xbd57f439	-0.052723143
45	0x3e03aebe	0.12859628
46	0xbdc08f36	-0.09402315
47	0x3dc6e5f2	0.09711827
48	0x3d23137b	0.0398135
49	0xbdb48784	-0.0881491
50	0x3e005c33	0.12535171
51	0x3cbbd15b	0.022926977
52	0xbdbe153b	-0.09281393
53	0xbd9b10a7	-0.075715356
54	0x3d83f19e	0.06442569
55	0xbdf02770	-0.11726272
56	0x3d97befd	0.07409475
57	0x3d6c4e03	0.057691585
58	0x3d8c7df6	0.06859963
59	0x3e106085	0.1409932
60	0x3dc0a312	0.09406103
61	0x3daf8cfb	0.08571812
62	0x3dd655d4	0.10465589
63	0xbd9898e8	-0.074510396
64	0xbcfca407	-0.030839933
65	0xbdd8b236	-0.10580866
66	0x3c0e3267	0.008679009
67	0xbd28461e	-0.041082494
68	0xbdfa53a6	-0.12222986
69	0x3e051231	0.1299522
70	0x3c41a3fd	0.011818883
71	0x3a35f05a	0.0006940417
72	0x3e031bf4	0.12803632
73	0x3c21fc6a	0.00988684
74	0x3dd7d1f0	0.10538089
75	0x3c91b0d8	0.017784521
76	0x3cc5748e	0.02410343
77	0x3e3fc1ed	0.1872632
78	0xbe03357c	-0.12813371
79	0xbd339aa6	-0.043848656
80	0x3d91c1c5	0.07117037
81	0xbd000303	-0.031252872
82	0xbd84734a	-0.06467302
83	0x3d459af2	0.04824347
84	0x3e30caf5	0.17264922
85	0xbdb28eae	-0.0871862
86	0xbd5df7ff	-0.054191586
87	0xbd8d4d97	-0.06899565
88	0xbd8a2fb8	-0.06747383
89	0xbc8269fa	-0.015919674
90	0x3c27903b	0.010227258
91	0xbd7c6205	-0.061616916
92	0x3d3f8818	0.04676065
93	0xba717e19	-0.00092122104
94	0xbdc9dcc9	-0.098565646
95	0x3ddb8af2	0.10719861
96	0x3d1903f8	0.0373573
97	0xbc14088a	-0.009035239
98	0xbd7b9502	-0.0614214
99	0xbc292fa7	-0.010326303
100	0x3d8946f9	0.0670299
101	0x3aaf8ea8	0.0013393955
102	0xbd2c5676	-0.042074643
103	0xbb998860	-0.0046854466
104	0x3d374fe8	0.04475394
105	0x3cb8f236	0.022576433
106	0x3c2b7a61	0.010466189
107	0xbdb30535	-0.087412275
108	0xbd836e29	-0.06417496
109	0x3da3a180	0.07989788
110	0xbdd716d3	-0.105024
111	0x3d8d0e99	0.0688755
112	0x3d2c6262	0.042086013
113	0x3da2c1b4	0.07947102
114	0x3c930935	0.017948726
115	0x3dc47d94	0.095942646
116	0xbdb47a4e	-0.0881239
117	0x3da2411d	0.079225756
118	0xbd4e435b	-0.050357204
119	0x3e0bfe82	0.13671306
120	0x3d88dd69	0.06682856
121	0x3dff03d4	0.12451902
122	0x3e002107	0.12512599
123	0xbcacfc1c	-0.021116309
124	0xbd50baa6	-0.05095925
125	0x3d3cd284	0.0460992
126	0x3c7688c2	0.015047254
127	0xbc8ce808	-0.017200485
128	0x39d1ba4d	0.0004000239
129	0xbd9b7d9d	-0.07592318
130	0x3d095a1c	0.0335332
131	0x3d991281	0.074742325
132	0x3d19dfc5	0.03756692
133	0xbdd7e044	-0.10540822
134	0x3db30fd0	0.0874325
135	0xbd3e6db3	-0.046491336
136	0xbd693c0a	-0.056942023
137	0x3df10f24	0.11770466
138	0xbd3d5e8d	-0.04623275
139	0xbca20921	-0.019779744
140	0x3e057324	0.13032204
141	0x3e1f7d16	0.1557506
142	0x3d0c41d1	0.034242455
143	0x3ad6b0d8	0.0016379608
144	0xbd9e327e	-0.07724474
145	0xbdf7d172	-0.121004954
146	0xbd00aacc	-0.031412885
147	0xbc5571df	-0.013027637
148	0x3d591ec3	0.053007852
149	0xbd172f0a	-0.036910094
150	0x3d970503	0.07374003
151	0xbc8ec0af	-0.017425863
152	0x3ca2d80c	0.01987841
153	0xbd163213	-0.03666885
154	0xbd389d07	-0.045071628
155	0xbdcfcfaa	-0.10147031
156	0x3d9a2dde	0.0752828
157	0x3d0cb6fa	0.034354188
158	0xbadc3987	-0.0016801812
159	0xbcb68626	-0.022280764
160	0x3c77a749	0.0151155675
161	0x3d8a7c05	0.06761936
162	0x3db6123a	0.08890195
163	0x3cb6d9fd	0.022320742
164	0x3cf19956	0.029492062
165	0x3b950239	0.004547384
166	0xbc3dfce7	-0.011595941
167	0x3db3a926	0.08772497
168	0x3d949e6b	0.07256778
169	0x3dcc63b7	0.099799566
170	0xbdc95264	-0.09830168
171	0xbd1eeedf	-0.038802024
172	0x3d168ddd	0.036756385
173	0xbd6166e5	-0.05502977
174	0xbe004342	-0.12525657
175	0xbd28a9f4	-0.041177705
176	0xbdf984fa	-0.121835664
177	0xbd0dc0f0	-0.034607828
178	0xbdb6aa76	-0.089192316
179	0xbd699af1	-0.05703253
180	0xbdb45c58	-0.08806676
181	0xbc95d4dd	-0.018289978
182	0xbc50b59b	-0.012738611
183	0x3db5d433	0.088783644
184	0xbd40bef5	-0.04705711
185	0x3c273fd9	0.010208094
186	0xbd6a0029	-0.05712906
187	0x3db11efc	0.08648488
188	0x3d867799	0.0656578
189	0xbd96ac7e	-0.07357119
190	0xbd163a2d	-0.036676574
191	0x3dddc8dc	0.108293265
192	0x3e0c0712	0.13674572
193	0x3d8b811b	0.06811734
194	0xbbc9526e	-0.0061438596
195	0x3c2dd42f	0.010609671
196	0x3c8a4dd2	0.01688281
197	0x3d8c3a95	0.06847111
198	0x3a978c04	0.0011562114
199	0x3e09d1f8	0.13459003
200	0x3dbd23db	0.092353545
201	0x3dba4d26	0.09096746
202	0xbbc84b40	-0.006112486
203	0xbd3733c9	-0.04472712
204	0xbcf90b3d	-0.030400867
205	0x3db65d64	0.089045316
206	0xbda9d33b	-0.08292242
207	0xbd05fb91	-0.032710616
208	0x3d8ddf0c	0.069273084
209	0xbdd113a5	-0.10208825
210	0xbe0c0fb0	-0.1367786
211	0xbdec834e	-0.11548482
212	0x3d601693	0.05470903
213	0x3cc9b908	0.024624363
214	0x3dea3c23	0.114372514
215	0x3c7f75bd	0.015592036
216	0xbd201b1d	-0.039088357
217	0xbc87c792	-0.016574655
218	0x39b91cc3	0.0003530738
219	0xbd624856	-0.055244766
220	0x3d278892	0.040901728
221	0xbcb7b5a0	-0.022425473
222	0x3d5bc8bb	0.05365823
223	0xbd3c0d57	-0.04591116
224	0x3dcbabb6	0.09944861
225	0xbdd742a4	-0.105107576
226	0xbcef44dd	-0.029207641
227	0xbd3d4c52	-0.046215363
228	0xbdbf956a	-0.0935467
229	0x3ca236c2	0.019801501
230	0xbcba6c17	-0.02275662
231	0xbe057f01	-0.1303673
232	0xbc934a52	-0.017979775
233	0x3d3a39c3	0.045465242
234	0x3d5faf5d	0.0546106
235	0xbca5b990	-0.020230085
236	0x3d16f7ef	0.03685754
237	0xbdd87c8f	-0.10570633
238	0xbe057fa5	-0.13036974
239	0xbd6101f3	-0.0549335
240	0xbd0992c0	-0.033587217
241	0x3e19e8f8	0.15030277
242	0xbcc3a1c0	-0.02388084
243	0x3d871e3c	0.065975636
244	0xbde52092	-0.11187853
245	0xbde86371	-0.11347092
246	0xbde2107f	-0.11038303
247	0x3d2bdc91	0.041958395
248	0x3d9a5df4	0.075374514
249	0x3cb564d2	0.022142801
250	0xbc1adb2e	-0.009451671
251	0xbd102c70	-0.03519863
252	0x3b1467d2	0.002264489
253	0xbcc39d7c	-0.023878805
254	0xbd4b8698	-0.049688905
255	0x3d4a910f	0.049454745
