exercises/best_model.pt (torch, 126564 bytes, 7 tensors)

weight f4 [32, 100, 3]
0	0x3d6b3ea6	0.057432793
1	0xbba7f326	-0.005125421
2	0xbd9f0b75	-0.07765857
3	0xbd0ae7d0	-0.03391248
4	0xbc26a341	-0.010170759
5	0xbd873c1b	-0.06603261
6	0xbd28278f	-0.04105335
7	0xbe16c360	-0.14722967
8	0x3dafc0b8	0.0858168
9	0xbac66ed0	-0.0015139226
10	0xbc454bdc	-0.012042012
11	0x3c4a1a46	0.012335366
12	0x3d14da5c	0.036341056
13	0xbd55d51e	-0.052205198
14	0xbdc784ec	-0.0974215
15	0x3d82dfa4	0.06390312
16	0x3d787378	0.060656995
17	0x3cb82e83	0.022483116
18	0xbdb6eda8	-0.08932048
19	0x3d669346	0.056292795
20	0xbd21b750	-0.03948146
21	0xbd2fef18	-0.042952627
22	0xb90b93ce	-0.00013311135
23	0xbd5d7efc	-0.05407618
24	0x3d8704a6	0.065926835
25	0xbbe4c7ce	-0.0069818264
26	0x3ded4c8d	0.115868665
27	0x3e05c926	0.13065013
28	0xbd219efa	-0.039458252
29	0x3d7a5306	0.061114334
30	0xbddd708f	-0.108124845
31	0x3dd3439a	0.10315628
32	0xbdd20323	-0.102545045
33	0x3d3554c8	0.044270307
34	0x3da038b8	0.07823318
35	0x3ce6bb99	0.028165625
36	0x3c5c0a29	0.013430157
37	0xbdab1165	-0.08352927
38	0x3d84377c	0.06455895
39	0x3d8343ed	0.0640944
40	0xbdb33260	-0.08749843
41	0x3ca86398	0.020555303
42	0x3be68b25	0.0070356303
43	0x3d64f242	0.055895098
44	0xbd55b246	-0.052171968
45	0x3da0c51e	0.07850097
46	0x3de1f92b	0.11033853
47	0xbcba2697	-0.02272348
48	0xbd131939	-0.035912726
49	0xba252bb5	-0.00063007633
50	0x3d9a9dee	0.07549654
51	0x3dc6b51d	0.09702513
52	0x3dc4cae6	0.09609012
53	0xbdad6889	-0.08467204
54	0xbdc3d1d2	-0.095615044
55	0x3c9430e1	0.018089714
56	0x3cccd40b	0.025003454
57	0x3de04277	0.10950177
58	0x3d740271	0.05957264
59	0xbd25f49a	-0.040516473
60	0xbdbba987	-0.09163194
61	0xbd3d6a4e	-0.04624396
62	0x3dd09d09	0.10186202
63	0xbd6414d7	-0.055683937
64	0x3db3d13c	0.08780143
65	0xbdc1b733	-0.094587706
66	0x3d18d3bc	0.0373113
67	0xbabb0d76	-0.001427098
68	0x3cfb0e80	0.030646563
69	0x3d9377e9	0.072006054
70	0x3d3b63de	0.045749538
71	0xbd5238d9	-0.051323745
72	0x3d0369c5	0.03208329
73	0xbd5a8e35	-0.053358275
74	0xbca2a20d	-0.019852662
75	0x3ccdc5dd	0.025118763
76	0x3dfe783c	0.12425277
77	0xbe016041	-0.12634374
78	0x3da08560	0.07837939
79	0x3e0ba6f8	0.13637912
80	0xbdde1910	-0.10844624
81	0x3d4ce910	0.050026953
82	0xbd90b06a	-0.07064898
83	0x3db80eb0	0.089871764
84	0x3de3c991	0.1112243
85	0x3dbdd42d	0.09268985
86	0x3d2ac183	0.041688453
87	0xbae6af90	-0.0017599929
88	0x3c8140c1	0.015777947
89	0xbdac8bf2	-0.0842513
90	0xbd8b68a6	-0.068070695
91	0x3ca737cb	0.020412346
92	0x3d8294bb	0.06376024
93	0xbde1e958	-0.11030835
94	0x3c84cb0a	0.016210098
95	0xbc5785e7	-0.013154483
96	0xbcd2c1a6	-0.025727104
97	0xbb91fa5f	-0.0044548954
98	0xbc4e84cf	-0.012604906
99	0x3ded2af0	0.11580455
100	0xbd1cb8f2	-0.038262315
101	0xbcfa75d7	-0.030573769
102	0xbc90db55	-0.01768271
103	0xbd85c792	-0.06532206
104	0xbb274830	-0.0025525205
105	0xbdfbc533	-0.12293472
106	0xbcdc798d	-0.026913429
107	0x3c991a77	0.018689377
108	0xbbb1a12f	-0.005420826
109	0x3dac5724	0.08415058
110	0xbd8b2334	-0.06793824
111	0x3d548f32	0.051894374
112	0x3bfce420	0.0077176243
113	0x3c7e6a44	0.015528265
114	0x3d5d1700	0.053977013
115	0x3ce05a16	0.027386706
116	0xbd248bd8	-0.040172428
117	0x3d34d2d3	0.04414637
118	0xbd667187	-0.05626061
119	0xbdb396f6	-0.08769028
120	0x3d974634	0.07386437
121	0xbd9012a3	-0.07034805
122	0xbd6aba1e	-0.0573064
123	0x3daefb53	0.0854403
124	0x3d8e33ba	0.0694346
125	0x3d83f6ac	0.06443533
126	0x3d663c3b	0.056209784
127	0xbd2a267c	-0.041540608
128	0x3df02c23	0.117271684
129	0x3c19b063	0.009380433
130	0x3d247888	0.04015401
131	0xbd93c9e5	-0.07216243
132	0xbc16f26a	-0.009213069
133	0xbc840c9a	-0.01611929
134	0x3c02e20e	0.007988466
135	0x3dbe6eb4	0.09298459
136	0x3d6ddcd8	0.05807194
137	0xbd86487c	-0.06556794
138	0xbc125015	-0.008930226
139	0x3d64239c	0.055698022
140	0xbc3edf5c	-0.011649933
141	0x3ce9ec10	0.028554946
142	0x3cf4a678	0.029864535
143	0xbc8f3bd5	-0.017484585
144	0xbdb61987	-0.08891588
145	0x3d9a5719	0.07536144
146	0x3cd4ac53	0.025961077
147	0xbcb635ad	-0.022242391
148	0xbccbf91b	-0.024899056
149	0x3da3e536	0.08002703
150	0x3d4d20e4	0.050080195
151	0xbe34560b	-0.17610948
152	0x3d308e51	0.043104474
153	0x3d059d87	0.032620933
154	0x3d924485	0.07141975
155	0x3cc921a4	0.024552174
156	0x3ddb26a9	0.10700733
157	0xbd195e50	-0.03744346
158	0x3cd3d317	0.025857491
159	0x3bcb918b	0.0062124184
160	0x3df21222	0.11819865
161	0xbd244145	-0.04010131
162	0x3da021b3	0.078189276
163	0xbdb8f2a7	-0.09030657
164	0xbc75f34b	-0.015011619
165	0x3d23a514	0.039952353
166	0xbe48cb31	-0.19608761
167	0x3d66645d	0.056248058
168	0xbd9db931	-0.07701338
169	0x3ca931b0	0.020653576
170	0x3d17e6fd	0.037085522
171	0xbdeb0bd8	-0.114768684
172	0xbdf482e5	-0.11939029
173	0x3c460ca7	0.0120879775
174	0xbc21d23f	-0.009876787
175	0x3d814077	0.06311124
176	0xbcc079df	-0.023495613
177	0xbc88a725	-0.016681263
178	0xbe0784f5	-0.13234313
179	0xbd3291bc	-0.043596014
180	0xb8a5c0fd	-7.90376e-05
181	0x3d0b5e7d	0.034025658
182	0x3dce157d	0.10062692
183	0xbcf7eba0	-0.030263722
184	0x3cd993bf	0.026559709
185	0xbd01d44c	-0.031696603
186	0x3d91f359	0.07126493
187	0xbe039052	-0.12848023
188	0x3ca96027	0.020675732
189	0xbdb24169	-0.08703882
190	0x3cc6ff86	0.024291765
191	0xbd857001	-0.06515504
192	0x3d8fa962	0.07014729
193	0x3d2c10e4	0.042008296
194	0xbd64f790	-0.055900156
195	0xbd84bfec	-0.06481919
196	0xbd257f19	-0.040404413
197	0xbc0b5ed9	-0.0085065
198	0xbd93fe31	-0.072262175
199	0x3d87ed6f	0.06637084
200	0x3c1b93bf	0.009495675
201	0xbd56745d	-0.052357066
202	0xbd872df3	-0.06600561
203	0x3d2716f3	0.04079337
204	0x3d960755	0.07325617
205	0x3cad1fe6	0.021133374
206	0xbb8141c1	-0.003944606
207	0xbd5cab97	-0.05387458
208	0xbc820282	-0.015870336
209	0x3c6b8ef0	0.014377341
210	0x3de2349b	0.1104519
211	0xbd46c32e	-0.04852598
212	0x3c56cc04	0.013110165
213	0xbd14adde	-0.036298625
214	0x3d2e50e5	0.042557616
215	0xbd2c8bfa	-0.04212568
216	0xbdaf04b8	-0.08545822
217	0xbdd889ef	-0.10573184
218	0x3d10424e	0.035219483
219	0x3cdcd250	0.026955754
220	0x3d9cb448	0.076515734
221	0xbc14fccd	-0.0090934755
222	0xbda81cb1	-0.082085975
223	0xbcf03ce3	-0.029325908
224	0x3d327427	0.043567803
225	0xbdead0bd	-0.11465595
226	0xbd2fa56c	-0.042882368
227	0x3cf62f27	0.03005178
228	0x3c7dd1d3	0.0154919205
229	0xbe5f16fc	-0.21786112
230	0xba24ce8a	-0.000628688
231	0x3c568156	0.0130923595
232	0xbcd2e9d5	-0.025746265
233	0x3d1859b5	0.037194926
234	0xbaa9aec7	-0.0012945764
235	0xbd44ecaf	-0.04807728
236	0xbd33e2cd	-0.043917466
237	0x3b712375	0.0036794816
238	0xbd96f18a	-0.07370289
239	0x3d232542	0.039830454
240	0xbc6206ee	-0.0137955975
241	0x3e03b53d	0.12862106
242	0xbd80d033	-0.06289711
243	0xbd652943	-0.055947553
244	0x3db2ac74	0.08724299
245	0xbc8bf714	-0.01708559
246	0x3d646af9	0.05576608
247	0xbd0fdccb	-0.035122674
248	0xbcf9dc7e	-0.030500647
249	0xbd55b71f	-0.05217659
250	0x3c3ab222	0.011395009
251	0x3d903c65	0.07042769
252	0xbd3d222c	-0.046175167
253	0xbb912f1b	-0.0044306642
254	0x3db1458d	0.08655844
255	0x3dadbe7b	0.08483597

bias f4 [32]
0	0xbc33cfa3	-0.010974797
1	0xbd57a8eb	-0.052651327
2	0x3bcbff55	0.0062255063
3	0xbac2d0f3	-0.0014863297
4	0xbb09de9b	-0.0021037224
5	0xbd802f11	-0.06258977
6	0x3c789931	0.015173242
7	0xbced4d92	-0.028967652
8	0xbafd1761	-0.0019309336
9	0x3d7cedf7	0.06175038
10	0xbd9cfc49	-0.07665307
11	0xbd9915bd	-0.074748494
12	0xbba0e474	-0.0049100462
13	0x3d35f45b	0.04442249
14	0xbd7d3be6	-0.0618247
15	0xbd645aeb	-0.05575077
16	0x3d8711ce	0.06595193
17	0xbc4f6b57	-0.012659869
18	0x3cbf15f5	0.0233259
19	0xbd7bf8f0	-0.061516702
20	0xbd64b215	-0.055833895
21	0xbd8be704	-0.06831172
22	0x3d3a1b77	0.04543635
23	0xbcd39dcb	-0.025832077
24	0xbc659566	-0.01401267
25	0x3ccffb56	0.025388401
26	0x3c823555	0.015894571
27	0xbc8520c7	-0.016250981
28	0x3d3d39b7	0.04619762
29	0xbbc31b2e	-0.005954168
30	0xbba7b691	-0.005118199
31	0x3d0d6ac9	0.034525666

weight f4 [16, 32, 3]
0	0xbde82d82	-0.11336805
1	0x3d4c535f	0.049884196
2	0x3e14ba43	0.14524178
3	0xbe070f66	-0.13189468
4	0xbba7a8a0	-0.005116537
5	0xbd8a1979	-0.0674314
6	0x3bcb5683	0.0062053814
7	0xbe44b529	-0.19209732
8	0xbe06138b	-0.13093393
9	0x3d125233	0.035722923
10	0xbde2c1a9	-0.11072094
11	0x3de530ef	0.11190974
12	0xbe000edc	-0.12505668
13	0xbdc528b7	-0.09626906
14	0x3e032470	0.12806869
15	0xbd43fead	-0.0478503
16	0xbe5b8524	-0.21437508
17	0xbe040d2f	-0.12895654
18	0xbd9abceb	-0.075555645
19	0xbd08097b	-0.033212166
20	0x3ca8d49c	0.020609193
21	0x3d0d254d	0.0344594
22	0xbdcdfb29	-0.100576706
23	0x3db6c5c9	0.08924443
24	0x3d42f667	0.04759827
25	0x3d7f6cab	0.062359493
26	0xbd8bfd57	-0.0683543
27	0xbc27a4fb	-0.0102322055
28	0xbd917088	-0.07101542
29	0x3e0fa4e8	0.1402775
30	0xbca61b4c	-0.020276688
31	0xbd2b8322	-0.041873105
32	0x3dd994d2	0.10624088
33	0x3d4d1581	0.050069336
34	0x3d995c38	0.074882925
35	0x3df59e95	0.11993138
36	0x3dbb8517	0.09156244
37	0xbc139464	-0.009007547
38	0xbcc42ede	-0.02394813
39	0xbdd12a1d	-0.102131106
40	0x3c9f3171	0.019432755
41	0x3d2a8548	0.041631013
42	0xbc3c056c	-0.011475902
43	0xbd6efab6	-0.058344565
44	0x3d13e493	0.036106657
45	0x3bf8d081	0.007593215
46	0x3da04945	0.07826475
47	0xbd86a46c	-0.0657433
48	0xbd268b37	-0.04066011
49	0x3d16a9f9	0.036783192
50	0x3d318255	0.043337185
51	0xbc9baff1	-0.019004794
52	0xbd34f6ec	-0.044180796
53	0xbc6461b7	-0.013939313
54	0xbd88be2a	-0.06676896
55	0xbe0bbc5f	-0.13646077
56	0x3d79ff90	0.06103474
57	0xbc960308	-0.018311992
58	0x3b301afa	0.0026871548
59	0x3d02cf42	0.031935938
60	0xbda28491	-0.07935441
61	0xbd0afd9b	-0.033933263
62	0xbc9a80eb	-0.018860301
63	0xbc2d715e	-0.010586111
64	0xbd928ecc	-0.071561426
65	0xbd0552f0	-0.0325498
66	0xbdc2c483	-0.09510138
67	0xbe15c5a2	-0.14626172
68	0xbd692a07	-0.056924846
69	0xbe1f84b4	-0.15577966
70	0xbe3e246e	-0.18568584
71	0x3de32cb5	0.110925116
72	0x3dc2c5a0	0.0951035
73	0x3c4033d6	0.011731109
74	0x3d93a0b1	0.07208384
75	0x3c2477a7	0.010038293
76	0x3db19eb6	0.0867285
77	0xbe2ed035	-0.17071612
78	0x3d48f54e	0.049062066
79	0x3c5cd11a	0.013477588
80	0xbd903a5d	-0.07042382
81	0xbe438cd7	-0.19096695
82	0x3d98489b	0.074357234
83	0x3d6b79db	0.057489257
84	0xbd95ed44	-0.073206455
85	0xbe2b3810	-0.16720605
86	0xbd674651	-0.056463543
87	0xbc08e538	-0.008355431
88	0xbc01c426	-0.007920301
89	0x3b6717a9	0.0035261905
90	0x3d0eddb9	0.03487942
91	0x3d2cbbc3	0.04217125
92	0x3df37029	0.11886627
93	0xbd9966b4	-0.07490292
94	0x3dcbfc35	0.09960214
95	0xbc2e4c5f	-0.0106383255
96	0x3c4655eb	0.012105445
97	0xbd5aa579	-0.053380463
98	0x3db5f351	0.088842995
99	0x3d8e81a9	0.069583245
100	0x3de41550	0.111368775
101	0x3e21e249	0.15808977
102	0x3d265239	0.040605757
103	0x3e2b3e30	0.16722941
104	0x3dc51a64	0.09624174
105	0x3cfc02b5	0.03076301
106	0x3c0277c0	0.007963121
107	0x3caeeb1d	0.021352345
108	0x3db967ea	0.09053023
109	0x3daed7f0	0.085372806
110	0xbd8cf20d	-0.06882105
111	0xbd3e84c9	-0.046513353
112	0x3dc5cf23	0.09658649
113	0xbd858b35	-0.06520692
114	0x3dcca4ba	0.099923566
115	0x3d7a24dd	0.06107031
116	0x3da42503	0.08014872
117	0xbde41f0e	-0.11138736
118	0xbe044fd4	-0.12921077
119	0xbdb1d20a	-0.0868264
120	0xbd95961c	-0.07304022
121	0xbda378f9	-0.07982058
122	0x3d85581a	0.06510945
123	0x3df07b05	0.11742214
124	0x3d3064e3	0.043064963
125	0x3b639273	0.0034724742
126	0x3b1c3d36	0.0023840195
127	0xbd49fa6c	-0.049311087
128	0xbdbc3120	-0.09189057
129	0xbdcbbb9b	-0.09947892
130	0xbda339b8	-0.07969993
131	0xbdaf5da3	-0.08562782
132	0xbd880ecc	-0.06643447
133	0xbdb35211	-0.08755887
134	0x3db79419	0.08963794
135	0x3d440846	0.047859453
136	0x3dab2dfb	0.083583795
137	0x3e13ca37	0.14432608
138	0x3cd7b3ad	0.026330793
139	0x3cf557dc	0.029949121
140	0xbdf4a812	-0.11946119
141	0xbda1390f	-0.07872211
142	0xbcaf464c	-0.021395825
143	0x3b195c15	0.0023400832
144	0xbdb7f7c6	-0.08982806
145	0xbd047007	-0.0323334
146	0x3ca410c9	0.020027535
147	0xbd6df80e	-0.05809789
148	0xbd583006	-0.052780174
149	0x3de7ff68	0.11328012
150	0xbc6a1183	-0.014286402
151	0xbcc0a852	-0.023517761
152	0xbcdc08a0	-0.026859581
153	0xbe0562ad	-0.13025923
154	0xbc0fe6f4	-0.008783091
155	0xbae85c6b	-0.0017727738
156	0x3dd10d6b	0.102076374
157	0x3d0cb84b	0.034355443
158	0x3db96b93	0.09053721
159	0x3cf09f78	0.029372916
160	0xbd7774b5	-0.060414035
161	0x3d28f842	0.041252382
162	0xbd153ee4	-0.03643693
163	0x3e19c74a	0.15017429
164	0xbd414205	-0.0471821
165	0x3dd1f7cf	0.10252344
166	0xbd02c0bd	-0.03192209
167	0x3db02116	0.08600061
168	0xbdaa0032	-0.083008185
169	0x3dfb7946	0.122789904
170	0x3cfb55fd	0.03068065
171	0xbd02e101	-0.03195286
172	0xbca6c026	-0.020355295
173	0x3d26d58d	0.040731
174	0xbd9348a7	-0.07191592
175	0xbdf46f99	-0.11935348
176	0xbe0e3f5b	-0.13891356
177	0xbd218ed5	-0.039442856
178	0x3de540a6	0.11193971
179	0x3e1676f0	0.14693809
180	0x3ccad5b9	0.024760114
181	0xbc624c58	-0.013812147
182	0x3dcb835e	0.09937166
183	0xbc94283f	-0.018085597
184	0x3e058d8c	0.13042277
185	0x3e31ea45	0.17374523
186	0x3c0d337d	0.008618233
187	0x3c28c4f8	0.010300867
188	0x3c79ad73	0.015239107
189	0xbe05ec2c	-0.13078374
190	0xbccce593	-0.025011813
191	0xbe067a26	-0.13132533
192	0xbdb620db	-0.088929854
193	0xbd85e7e6	-0.06538372
194	0xbd884cf5	-0.066553034
195	0x3db34542	0.08753444
196	0x3d8fd712	0.07023443
197	0xbd64fcdb	-0.055905204
198	0x3e005c67	0.12535249
199	0x3da9023b	0.082523786
200	0xbc2ccd6a	-0.010547021
201	0x3dd654ae	0.1046537
202	0xbd98f1fa	-0.07468028
203	0x3d90690d	0.07051287
204	0x3da0e217	0.07855623
205	0xbd920bf1	-0.07131184
206	0xbc2ab7f2	-0.010419833
207	0x3d0e0ddb	0.034681182
208	0x3d61d4b6	0.055134498
209	0xbdc68f8b	-0.096953474
210	0x3d0fef91	0.035140578
211	0xbd979b13	-0.07402625
212	0x3b9f06bd	0.004853098
213	0xbdb57b67	-0.08861428
214	0x3da9e45c	0.08295509
215	0xbc8be514	-0.017077006
216	0xbdb50598	-0.088389575
217	0xbd09e2f3	-0.0336637
218	0x3db3c7c0	0.08778334
219	0xbddf2a56	-0.10896747
220	0xbe19a48a	-0.15004173
221	0x3db1aeae	0.08675896
222	0xbd84d2d1	-0.064855225
223	0x3c977fc5	0.018493542
224	0xbdf01acd	-0.11723862
225	0xbded1187	-0.11575609
226	0xbe22a5b4	-0.15883523
227	0xbd82463b	-0.06361052
228	0x3d9d278e	0.0767356
229	0xb8fbc409	-0.00012005127
230	0x3d1bdb2b	0.03805081
231	0x3d560bd8	0.05225739
232	0xbdaca00c	-0.08428964
233	0x3d034442	0.032047518
234	0xbdf13579	-0.11777777
235	0xbde96142	-0.113955036
236	0xbe200f53	-0.15630846
237	0xbc83a60d	-0.01607039
238	0xbe310fdc	-0.17291206
239	0xbda01615	-0.07816712
240	0x3bef01b4	0.007293904
241	0x3d185291	0.037188116
242	0xbd0d0f77	-0.034438577
243	0x3d9fa5e3	0.07795312
244	0x3d1d7735	0.038443763
245	0x3c5e5818	0.013570808
246	0xbce9e8a4	-0.028553315
247	0x3ce2089b	0.027591994
248	0xbdec1182	-0.11526777
249	0x3d089740	0.03334737
250	0x3dc64887	0.09681802
251	0xbd01faca	-0.03173331
252	0x3caab688	0.02083899
253	0xbdec1a71	-0.11528481
254	0xbde7b3d8	-0.11313599
255	0xbdb6a250	-0.089176774

bias f4 [16]
0	0xbd9f4bda	-0.077781394
1	0xbcf05f57	-0.029342337
2	0xbc6bba89	-0.014387735
3	0x3e15795d	0.14597078
4	0xbd8976b2	-0.067120925
5	0x3d9f0538	0.07764667
6	0x3d580aa7	0.052744534
7	0xbd893d74	-0.067011744
8	0x3dbab1bb	0.09115931
9	0x3cbb9647	0.022898806
10	0x3da02260	0.078190565
11	0x3dacf06a	0.08444293
12	0x3c417915	0.011808653
13	0xbcd8089d	-0.026371295
14	0x3da5c351	0.08093894
15	0x3d9f2609	0.077709265

weight f4 [32, 576]
0	0x3d2296fa	0.039694764
1	0xbc6d2e3b	-0.014476354
2	0x3e3d0a0e	0.18460867
3	0xbd4fc0de	-0.05072104
4	0xbd400345	-0.046878118
5	0x3d8297eb	0.06376632
6	0x3b4f19be	0.0031601037
7	0x3cbb806a	0.022888381
8	0xbc0e1bbf	-0.008673607
9	0xbd9fc776	-0.07801716
10	0x3d5807f5	0.052741963
11	0x3cf38d15	0.02973036
12	0x3d3ce6ef	0.046118673
13	0xbd054910	-0.03254038
14	0xbd344c8c	-0.044018313
15	0xbd06c721	-0.032904748
16	0xbd2fa535	-0.042882163
17	0x3d66d7fb	0.05635832
18	0xbd16323f	-0.036669012
19	0x3a3519ba	0.00069084356
20	0xbdb0ff30	-0.08642423
21	0xbcd5f276	-0.026116591
22	0x3aa9d892	0.001295822
23	0xbd39216b	-0.045197885
24	0xbda6e454	-0.08149019
25	0xbc7c94b1	-0.01541631
26	0xbd3a9a74	-0.045557454
27	0xbd3a9836	-0.045555316
28	0xbcce401b	-0.025177052
29	0x3dd1e115	0.10248009
30	0xbd40ddb9	-0.04708645
31	0x3dca6f73	0.098845385
32	0x3d15813b	0.036500197
33	0x3e16191f	0.1465802
34	0xbe1a46ed	-0.15066119
35	0x3c83d45c	0.016092472
36	0xbd9858dc	-0.074388236
37	0xbc8af869	-0.016964154
38	0xbd97208b	-0.07379254
39	0xbce1f87f	-0.027584312
40	0xbcafb451	-0.021448286
41	0xbd4ffe0b	-0.050779384
42	0xbd00574f	-0.031333264
43	0xbd87c832	-0.06629981
44	0xbca56c19	-0.020193147
45	0x3d3cab96	0.046062075
46	0x3c91b27b	0.017785301
47	0xbc0880c0	-0.008331478
48	0xbc5949ee	-0.013262255
49	0xbda1137b	-0.07865044
50	0xbd59a55f	-0.053136226
51	0xbdb63093	-0.088959835
52	0xbd94d7db	-0.07267734
53	0xbcc13e88	-0.023589388
54	0x3d0296e8	0.031882197
55	0xbd0e1601	-0.034688953
56	0xbc308bbd	-0.010775504
57	0xbc0981c7	-0.008392758
58	0xbd970daa	-0.07375653
59	0xbdfc063e	-0.12305878
60	0xbd98085a	-0.07423468
61	0xbdb97943	-0.09056332
62	0xbd31e53a	-0.043431498
63	0xbc8e8c2c	-0.017400824
64	0xbdaa08eb	-0.08302482
65	0xbdddeebd	-0.10836551
66	0x3a9f2c2d	0.0012143903
67	0x3c9e89a5	0.019352743
68	0xbd5f0715	-0.054450113
69	0xbdd98f85	-0.10623077
70	0xbd94b2eb	-0.072606884
71	0xbd4ae411	-0.049533907
72	0xbdd8a07b	-0.10577484
73	0x3c1d22a6	0.00959078
74	0xbde1ec8a	-0.11031444
75	0x3da49afe	0.08037375
76	0xbc861261	-0.016366186
77	0xbd9a023c	-0.075199574
78	0xbe0fbf3a	-0.14037791
79	0x3d93d973	0.072192095
80	0x3d81c4ab	0.063363396
81	0xbdda49c6	-0.106586024
82	0x3d5cd363	0.05391253
83	0xbe39b58b	-0.1813566
84	0x3daea6c6	0.08527903
85	0xbcfdb295	-0.030968944
86	0x3d410d5e	0.04713189
87	0xbb9db0f1	-0.004812353
88	0xbdb7584e	-0.0895239
89	0x3b2f927b	0.002679019
90	0x3af7e8cc	0.0018913983
91	0x3db23c46	0.087029025
92	0xbc6412a1	-0.013920457
93	0x3b51974c	0.003198105
94	0xbe16a2e3	-0.14710574
95	0x3d190908	0.03736213
96	0xbdebfb24	-0.11522511
97	0x3da3ce34	0.079983145
98	0x389d4469	7.499086e-05
99	0x3db50104	0.08838084
100	0x3c03c18c	0.008041751
101	0x3cab65c5	0.020922551
102	0xbde330e5	-0.1109331
103	0x3b895771	0.004191332
104	0xbd80719b	-0.062716685
105	0xbd9dc30d	-0.077032186
106	0xbd2a26c3	-0.041540872
107	0x3cb6f95c	0.0223357
108	0xbdfbaa95	-0.12288395
109	0xbdda0a45	-0.1064649
110	0xbda45d75	-0.08025638
111	0xbc03dc92	-0.0080481935
112	0x3c078dc8	0.008273549
113	0xbc9b5603	-0.018961912
114	0x3d8ac667	0.067761235
115	0x3d350baf	0.044200595
116	0xbc1c94ea	-0.009556988
117	0x3d69d422	0.05708707
118	0x3dcadbc0	0.09905195
119	0x3e010dc0	0.12602901
120	0x3d74e8c9	0.059792314
121	0x3d8a5940	0.06755304
122	0x3d284544	0.04108168
123	0x3d52af8c	0.051436946
124	0x3dacc095	0.084351696
125	0x3dc0c713	0.094129704
126	0x3d84edb4	0.06490651
127	0x3cda1b26	0.026624274
128	0x3d75559a	0.05989609
129	0x3d0dc6a9	0.034613285
130	0x3da2c5cc	0.07947883
131	0x3d0c584f	0.034263905
132	0x3d1bdb04	0.038050666
133	0x3cd8629d	0.02641421
134	0x3d647513	0.055775713
135	0x3d3e3af3	0.046442937
136	0x3bb239c7	0.0054390165
137	0x3c924715	0.01785616
138	0x3c2ad471	0.010426627
139	0x3cca33a5	0.02468283
140	0xb85c8b18	-5.258163e-05
141	0xbc3ee404	-0.011651043
142	0xbc2f9ee2	-0.010719033
143	0xbbe63978	-0.007025894
144	0xbdabf510	-0.08396351
145	0xbc1541d8	-0.009109937
146	0xbdb5075d	-0.08839295
147	0xbd058e49	-0.032606397
148	0x3d59bc32	0.053157993
149	0xbda2c986	-0.07948594
150	0x3d8290d7	0.06375282
151	0x3d91c0f4	0.07116881
152	0xbd2ef5d6	-0.042714916
153	0x3d3f5e4b	0.046720784
154	0x3d1b95ff	0.037984844
155	0xbd97ca5b	-0.07411643
156	0xbb6a2879	-0.003572969
157	0xbdc94b0d	-0.09828768
158	0x3d87574d	0.06608448
159	0xbd2bc1b5	-0.04193278
160	0xbe08959f	-0.13338326
161	0xbd5f1cf8	-0.054470986
162	0xbd9bf757	-0.07615536
163	0xbc0f1611	-0.008733288
164	0x3bfa03d5	0.0076298513
165	0xbbf5f372	-0.0075058276
166	0xbd6dbe11	-0.05804259
167	0xbd3b660c	-0.045751616
168	0xbd233927	-0.039849427
169	0xbc953774	-0.018214919
170	0x3c8a94a5	0.016916582
171	0xbbee0f32	-0.007264995
172	0xbddaab39	-0.106771894
173	0x3cebe7ef	0.028797118
174	0xba3d01af	-0.00072100287
175	0xbd680d40	-0.05665326
176	0x3be55b56	0.0069994135
177	0xbd5892c2	-0.052874334
178	0x3cc2f745	0.023799548
179	0xbb05d03d	-0.002041831
180	0x3e19e039	0.1502694
181	0x3dc4ed15	0.09615532
182	0x3bc11552	0.005892434
183	0x3db4de1b	0.08831426
184	0x3cc9537a	0.024575938
185	0xbb9d5918	-0.0048018806
186	0x3cfe3ced	0.031034911
187	0x3de39c6f	0.11113822
188	0x3adfe644	0.0017082174
189	0x3d7fbadf	0.062434074
190	0x3dd5706d	0.10421834
191	0x3d0d7fdb	0.03454576
192	0x3d4a0ff5	0.049331624
193	0x3d1e438e	0.038638644
194	0x3e04cdce	0.12969133
195	0x3a93f66a	0.0011288647
196	0x3d55ba59	0.052179668
197	0x3c78de3a	0.015189702
198	0x3d4de6c9	0.050268922
199	0x3ca49e78	0.020095095
200	0x3daac077	0.08337491
201	0x3cd10d4d	0.025519038
202	0x3d2865e0	0.04111278
203	0x3d989132	0.07449569
204	0x3d790d7d	0.06080388
205	0x3d917547	0.07102447
206	0x3dd07827	0.10179167
207	0xbc0f3271	-0.0087400535
208	0x3bccb4ed	0.006247154
209	0xbc5f04da	-0.013611997
210	0xbd147b84	-0.036250606
211	0x3d362cf7	0.044476476
212	0x3d33f334	0.04393311
213	0x3d215ace	0.03939324
214	0x3db17446	0.086647555
215	0xbcc0db25	-0.023541996
216	0x3dc38df6	0.09548561
217	0x3dbc778f	0.092024915
218	0x3d53ed70	0.05174011
219	0xb9c7e3d8	-0.00038125995
220	0x3cbdd897	0.023174567
221	0x3d0e5e1b	0.034757715
222	0x3a4d53df	0.0007832627
223	0x3d27f54b	0.041005414
224	0x3c877af3	0.016538119
225	0x3d45b25f	0.04826581
226	0x3d74f644	0.05980517
227	0x3b1250ee	0.002232607
228	0x3d02b488	0.03191045
229	0x3ccf9341	0.02533877
230	0x3d461f66	0.048369788
231	0x3d49faae	0.049311332
232	0x3d5215a7	0.05129018
233	0x3df8f452	0.121559754
234	0x3cf17913	0.029476678
235	0x3b85e9d9	0.0040867147
236	0x3d8aeead	0.06783805
237	0x3ce91d30	0.0284563
238	0x3d85c0b3	0.06530895
239	0x3e0daea9	0.13836159
240	0x3d943ff9	0.07238764
241	0x3d68198f	0.056665
242	0x3dc4eccc	0.09615478
243	0xbbfd9541	-0.0077387397
244	0x3cf02663	0.02931518
245	0x3c626038	0.013816886
246	0x3d2d82dd	0.04236113
247	0x3d9b9052	0.07595886
248	0x3cc5bc81	0.024137737
249	0x3df18e27	0.117946915
250	0x3d63d092	0.05561883
251	0x3dc2f7ce	0.09519921
252	0x3e198200	0.14990997
253	0x3d80bf39	0.06286473
254	0x3d3ceca6	0.046124123
255	0x3c6d1b3e	0.014471827

bias f4 [32]
0	0x3d4fae49	0.05070332
1	0xbbfcdd29	-0.007716794
2	0xbd00c72d	-0.03143995
3	0x3d69f138	0.05711481
4	0x3d10a603	0.03531457
5	0xbd53380c	-0.051567122
6	0xbd4aef4f	-0.04954463
7	0xbd1ab950	-0.037774384
8	0xbd8b8b8e	-0.06813727
9	0xbb5a4c71	-0.0033309723
10	0x3d340ce0	0.04395759
11	0xbd01c1e8	-0.031679064
12	0x3d141f5e	0.036162727
13	0x3cba1a1f	0.022717534
14	0x3a917542	0.0011097568
15	0xbb537f14	-0.003227179
16	0x3c9f7e58	0.019469425
17	0x3d958c94	0.07302204
18	0x3d746ce0	0.059674144
19	0xbc5bca09	-0.013414868
20	0x3d159f4a	0.036528863
21	0xbd5bb79d	-0.053641904
22	0xbc4ea4fa	-0.012612576
23	0x3c176587	0.009240515
24	0x3d0d1144	0.034440294
25	0x3d190957	0.037362423
26	0xbd1fe07f	-0.039032456
27	0x3cae21a0	0.021256268
28	0x3d14ef44	0.036360994
29	0x3c88808b	0.016662857
30	0x3d26c359	0.04071364
31	0xbd1c3d60	-0.03814447

weight f4 [1, 32]
0	0x3ddaf9e2	0.106921926
1	0xbe45acf6	-0.1930426
2	0xbc9fb938	-0.019497499
3	0x3e1c2e04	0.15251929
4	0xbe2f7d91	-0.17137744
5	0xbe47d3e0	-0.19514418
6	0x3b90c4a9	0.004417975
7	0xbd2df993	-0.04247434
8	0xbc563e76	-0.013076415
9	0x3cc7e3ce	0.024400618
10	0xbda239cf	-0.07921182
11	0xbd4654bf	-0.048420664
12	0x3dedb37d	0.116065
13	0xbe04af8b	-0.1295759
14	0x3e14c33d	0.14527602
15	0xbe12f39e	-0.14350745
16	0x3e618bd7	0.22026001
17	0x3e38cf90	0.18047929
18	0xbe6af581	-0.22945215
19	0xbdcdafad	-0.10043273
20	0x3dfc3b87	0.123160414
21	0xbced56a2	-0.028971974
22	0xbe3e0d01	-0.18559648
23	0xbdeeac7a	-0.11653991
24	0xbdaffbf7	-0.0859298
25	0xbdf3e435	-0.119087614
26	0xbcc1f27b	-0.023675194
27	0xbc5b0f7f	-0.013370394
28	0x3e108ff9	0.14117421
29	0xbdaa13ce	-0.08304559
30	0x3e146410	0.14491296
31	0xbd539dda	-0.05166421
