exercises/best_model.pt (torch, 304740 bytes, 7 tensors)

weight f4 [32, 100, 3]
0.013074414 0.019581057 -0.005159409 0.013175047 0.014474289 -0.031431805 -0.028329983 -0.0055432664
-0.07657835 -0.10872051 0.112533376 -0.07392579 -0.049212404 -0.26105282 -0.052486718 0.004195352
-0.042181116 0.062155336 -0.007905741 -0.030065918 -0.0023073338 -0.023200288 0.019932937 0.027601192
0.012719195 -0.006460155 -0.031713843 -0.09014766 0.062389314 0.004351229 0.007997117 -0.072256304
-0.008404862 0.040399507 -0.05850066 0.026313836 -0.044384435 -0.08340967 -0.07615138 -0.014307638
0.0315705 0.048424117 0.024593703 -0.027301017 -0.0038842955 0.009455723 0.020514943 0.021247556
0.12561385 -0.0776551 0.022496454 -0.029715672 0.10087999 0.10370357 -0.07296633 -0.12686582
0.0011068865 -0.037212618 -0.00933567 -0.051719047 -0.056568872 0.025635585 -0.06345 0.11838562
-0.0175506 0.003792856 -0.123113185 -0.21903268 -0.07904832 -0.010396606 0.07297756 -0.029327113
-0.01591112 -0.013893226 -0.11055788 -0.11764612 0.07774412 0.006695183 0.08750976 -0.10260984
-0.096417196 -0.07226916 -0.13062556 0.04549843 0.030614272 -0.04244306 -0.0052368953 -0.05503745
-0.10504097 0.0048748762 -0.056339603 -0.11742651 0.022963839 0.044421423 0.13675763 0.036501832
-0.0926173 -0.14057058 0.058177803 -0.02257927 0.09258198 0.0030351984 -0.065385975 -0.04862528
0.023285162 -0.059128247 0.07731913 -0.0392609 0.05514431 0.0689576 0.059651237 -0.020050883
0.16034238 0.035823125 0.0059492714 0.25041673 0.022447983 -0.0075163 0.052281477 0.03756712
-0.019952733 -0.021886276 0.06613865 0.035916828 -0.03858176 0.016846243 -0.051107123 -0.067262486
-0.022582803 0.060740594 -0.10468795 0.020701353 0.018154282 -0.101601705 -0.016023096 0.03587222
-0.036904257 -0.0141497655 0.039203897 6.86117e-05 -0.053264905 0.09516906 0.052877888 0.014179444
0.028852038 0.05833568 0.0027471983 0.00020549924 -0.04919368 -0.06501468 -0.11171723 -0.1667774
-0.14355035 -0.047443293 0.1421109 0.040438168 0.093257554 0.120814264 0.098145485 0.12486162
-0.0637238 0.039753266 -0.07544828 -0.085554846 0.0011597117 0.018671727 0.061899964 0.07767105
0.008024348 -0.006159031 0.020492813 -0.12774196 -0.2609452 -0.063097544 0.10957322 0.08709916
0.113743916 -0.06216817 -0.12528504 0.02570913 -0.059579857 -0.3169831 -0.049072314 -0.021152556
0.06601152 -0.045561653 0.05772353 -0.20839332 0.11972955 -0.10132692 -0.0067877984 0.095106326
0.059932362 0.21397352 0.04023801 0.032248672 -0.15262225 0.046007313 -0.05384637 -0.008112883
-0.025855994 -0.008177337 -0.08504995 0.034647312 0.009510117 0.035095416 -0.014792391 -0.09261907
-0.10844535 0.02825305 0.17285 0.1636101 0.113549344 0.029143766 0.02162089 0.043778487
0.04851854 -0.056516312 0.050174657 0.067086644 0.15313031 -0.0066977493 0.05860012 -0.042597797
-0.01712251 0.028621528 0.05541809 0.030562975 -0.023554215 0.023046546 0.120965935 -0.028499264
-0.28112984 -0.08132997 -0.04369421 0.15333901 0.029352145 -0.035482183 0.14965886 0.041205652
-0.068193436 -0.066518486 0.017711492 -0.042575732 -0.13557062 -0.072794504 0.119805835 0.17175457
0.01571855 -0.16974819 -0.19485483 0.021439904 0.08298596 0.19048242 0.05401364 0.055398706
00000000: 1136 563c 7468 a03c 4210 a9bb 27dc 573c
00000010: 9125 6d3c a3be 00bd 4814 e8bc 4aa4 b5bb
00000020: 1cd5 9cbd dca8 debd e677 e63d 6866 97bd
00000030: f292 49bd b7a8 85be 50fc 56bd 2a79 893b
00000040: 1bc6 2cbd 9896 7e3d 1587 01bc cd4c f6bc
00000050: a336 17bb 880e bebc 664a a33c e51b e23c
00000060: 2c64 503c b5af d3bb 60e6 01bd 569f b8bd
00000070: f08b 7f3d c194 8e3b 5706 033c 1dfb 93bd
00000080: 8cb4 09bc f479 253d 639e 6fbd 1d90 d73c
00000090: 74cc 35bd b0d2 aabd 41f5 9bbd 956a 6abc
000000a0: 1250 013d 5e58 463d bc78 c93c 62a6 dfbc
000000b0: aa8f 7ebb 2dec 1a3c f40e a83c 5b0f ae3c
000000c0: eba0 003e a309 9fbd 7c4a b83c 486e f3bc
000000d0: 2b9a ce3d 8a62 d43d 5f6f 95bd 1de9 01be
000000e0: f314 913a 426c 18bd a3f4 18bc 5ad7 53bd
000000f0: c3b4 67bd b801 d23c 13f2 81bd 2974 f23d
00000100: 47c6 8fbc 9091 783b c422 fcbd 1a4a 60be
00000110: 16e4 a1bd 8756 2abc 4275 953d 6a3f f0bc
00000120: 0a58 82bc 6aa0 63bc 2b6c e2bd 73f0 f0bd
00000130: 4f38 9f3d 4463 db3b 5138 b33d 1c25 d2bd
00000140: 6176 c5bd da01 94bd b5c2 05be 905c 3a3d
00000150: c8ca fa3c c6d8 2dbd 439a abbb f36e 61bd
00000160: b81f d7bd 6dbd 9f3b 5bc4 66bd 4f7d f0bd
00000170: a91e bc3c 3df3 353d 310a 0c3e f282 153d
00000180: 24ae bdbd bcf1 0fbe d94b 6e3d 29f8 b8bc
00000190: 9f9b bd3d 2eea 463b 15e9 85bd 4d2b 47bd
000001a0: 86c0 be3c 7630 72bd 7e59 9e3d 0ad0 20bd
000001b0: 00df 613d a439 8d3d db54 743d c041 a4bc
000001c0: cb30 243e 45bb 123d 1bf2 c23b 9f36 803e
000001d0: d5e4 b73c 4b4b f6bb 1a25 563d fbdf 193d
000001e0: ea73 a3bc d94a b3bc b373 873d 861d 133d
000001f0: e807 1ebd 2201 8a3c b455 51bd eac0 89bd
00000200: 92ff b8bc 21cb 783d a366 d6bd e295 a93c
00000210: 4ab8 943c 8e14 d0bd de42 83bc c0ee 123d
00000220: eb28 17bd 6bd4 67bc 4494 203d a0e3 8f38
00000230: 4d2c 5abd ffe7 c23d 7c96 583d e650 683c
00000240: 1c5b ec3c 65f1 6e3d 570a 343b 487b 5739
00000250: 507f 49bd 6b26 85bd 01cc e4bd b2c7 2abe
00000260: ddfe 12be e653 42bd 8585 113e 7ea2 253d
00000270: d1fd be3d 786d f73d 8000 c93d 73b7 ff3d
00000280: a081 82bd 52d4 223d a184 9abd 6137 afbd
00000290: 7801 983a 73f5 983c d18a 7d3d 0012 9f3d
000002a0: 8e78 033c b2d1 c9bb 8be0 a73c cace 02be
000002b0: 9c9a 85be 4939 81bd ed67 e03d 0b61 b23d
000002c0: 92f2 e83d 0da4 7ebd b94a 00be f49b d23c
000002d0: 020a 74bd 9c4b a2be 0d00 49bd 2048 adbc
000002e0: 0c31 873d db9e 3abd 826f 6c3d 0f65 55be
000002f0: c434 f53d 7d84 cfbd 2e6c debb 1bc7 c23d
00000300: a37b 753d e01b 5b3e 9dd0 243d 2f17 043d
00000310: 0249 1cbe 2a72 3c3d 038e 5cbd e6eb 04bc
00000320: f3cf d3bc 3dfa 05bc ab2e aebd 57ea 0d3d
00000330: 52d0 1b3c 36c0 0f3d c95b 72bc 11af bdbd
00000340: 9818 debd f172 e73c 97ff 303e 6889 273e
00000350: 8f8c e83d e8be ee3c 4b1e b13c 1251 333d
00000360: 60bb 463d a67d 67bd f183 4d3d b964 893d
00000370: 31ce 1c3e cb78 dbbb ae06 703d 077b 2ebd
00000380: 8244 8cbc b277 ea3c 14fe 623d 345f fa3c
00000390: c5f4 c0bc 1ccc bc3c fdbc f73d 4a77 e9bc
000003a0: 40f0 8fbe 5490 a6bd b3f8 32bd e704 1d3e
000003b0: e973 f03c c455 11bd 2c40 193e 42c7 283d
000003c0: 00a9 8bbd d83a 88bd b117 913c e463 2ebd
000003d0: 06d3 0abe 4915 95bd c35c f53d 6ee0 2f3e
000003e0: 30c4 803c 78d2 2dbe 0688 47be bda2 af3c
000003f0: 8bf4 a93d d30d 433e 683d 5d3d c1e9 623d

bias f4 [32]
-0.08280975 0.001431976 -0.002525974 -0.0029949127 -0.009314867 0.03333009 -0.028865684 -0.048690323
0.04393244 -0.0021014113 -0.057170644 -0.046249248 0.01819774 -0.030951938 -0.047730677 -0.04959443
-0.00071844575 -0.026856028 0.015740095 -0.075877614 -0.0044337045 -0.009234792 -0.03985877 -0.00831602
-0.014795404 -0.062533796 -0.0050270446 -0.001170808 -0.047887277 -0.0077425595 0.02328083 -0.027803428
00000000: 2998 a9bd 24b1 bb3a d08a 25bb 4c46 44bb
00000010: 629d 18bc 2285 083d ba77 ecbc 816f 47bd
00000020: 81f2 333d d5b7 09bb c42b 6abd da6f 3dbd
00000030: 6d13 953c eb8e fdbc 3e81 43bd 8723 4bbd
00000040: 1456 3cba 2c01 dcbc 5ff1 803c b965 9bbd
00000050: 9c48 91bb 864d 17bc f342 23bd ea3f 08bc
00000060: 6c68 72bc b811 80bd e8b9 a4bb cc75 99ba
00000070: 7325 44bd 4cb5 fdbb 70b7 be3c 04c4 e3bc

weight f4 [16, 32, 3]
0.018009808 -0.10418379 -0.06258843 0.069636635 -0.003664329 -0.12662202 0.07650436 -0.049901675
-0.07375074 0.12355357 0.06749128 -0.12059727 -0.14151359 -0.013554444 -0.1236244 -0.16865705
0.031757522 -0.06029518 0.18595 0.18623032 0.107412666 -0.10130828 -0.027949704 -0.008904141
-0.18823814 0.05854533 0.00967289 -0.21587698 -0.18439145 0.03624972 -0.0060924594 -0.0093621
-0.031662326 -0.035310484 -0.08699706 -0.10534052 -0.054963525 -0.022895673 -0.07602164 -0.011111024
0.16488059 -0.11155606 0.16088195 0.048176125 0.13342728 -0.03219457 0.04032825 0.03480672
0.11523495 -0.026835803 -0.026681123 -0.05412753 -0.041059434 0.06890556 0.14443801 -0.069948085
-0.014421959 -0.06454013 -0.09286444 -0.07798415 0.12032603 0.023519898 0.0117498655 0.13202074
0.04954368 -0.021608798 -0.056003656 0.0004353916 -0.09044472 -0.10175784 0.010532323 0.09347092
-0.06291895 0.040588584 0.0052472507 -0.038074613 -0.06587741 -0.05795635 0.09782453 -0.102310866
-0.12655702 -0.09794088 0.007749361 -0.030742254 -0.032593198 -0.003215694 -0.027611125 -0.09243447
0.02459699 0.030717297 0.026208702 -0.086542815 0.17116895 0.0828871 0.11426365 -0.08306622
-0.014048355 0.2158131 0.021233177 0.04869005 0.059080735 0.0013465255 -0.07811293 -0.0812808
0.036470905 0.050543413 0.0828281 0.0774995 0.0910251 0.018646285 0.09250834 0.024828108
0.062193148 0.014988535 -0.047992796 -0.003777484 0.056303363 0.08276805 0.19151902 0.0507632
0.011574019 0.086896256 0.035823423 -0.12406923 -0.039176278 0.022719694 -0.055089746 0.11000545
-0.060225282 0.12688954 -0.040592983 -0.053678736 0.028166646 -0.102222495 -0.08134493 -0.15436906
-0.1070102 -0.2138127 -0.17280044 -0.11156926 0.03005319 -0.053783778 -0.052251276 -0.10001109
-0.12845005 -0.00020393557 0.046707395 -0.09534054 -0.052125465 -0.053629987 -0.046960644 -0.054628707
-0.111366384 0.05287218 -0.032074288 0.13360488 -0.11555099 0.03552711 -0.07738223 0.07134623
0.050980605 0.0007319605 0.03693005 -0.08405539 -0.09646167 -0.08542078 -0.12106114 0.013843957
-0.0624095 0.020481018 -0.06458225 0.021025876 -0.0018984149 0.04247375 -0.033725996 0.04074973
0.13173367 -0.08431851 0.011729554 0.06446271 0.0534742 0.08109963 -0.050324444 0.052046265
0.10035363 0.07508363 0.0671825 -0.067367725 0.12895806 -0.014494 0.076251164 -0.023780992
-0.04819483 -0.14624065 0.01733165 -0.0852023 -0.057079062 -0.03880565 -0.13061944 0.04165276
-0.024616072 -0.072529115 0.02931918 -0.077373676 0.061722696 0.08736123 -0.040591102 -0.044887222
0.028893197 0.07014584 -0.0040287254 -0.010251636 0.008472578 0.16244057 0.09825106 -0.04196079
0.065185174 0.07255662 0.08721033 -0.068501286 -0.048117407 -0.14090347 0.03424309 0.09349051
0.028717015 -0.011167292 0.08151416 -0.0767935 0.030601026 0.038526576 -0.105662756 0.0023782752
-0.13176233 -0.032077387 -0.04386205 -0.11649224 -0.14432669 0.081467345 0.08828163 -0.0015219171
-0.11701751 -0.05992824 -0.01764484 -0.020322321 -0.09141145 -0.03765226 -0.08255214 0.03066271
0.048721544 0.061688866 0.054213773 0.098874286 -0.025612168 0.027136305 -0.012479359 0.034514856
00000000: 4e89 933c 505e d5bd 5d2e 80bd a79d 8e3d
00000010: 3d25 70bb 34a9 01be 51ae 9c3d b365 4cbd
00000020: a10a 97bd a709 fd3d de38 8a3d b4fb f6bd
00000030: f0e8 10be 7513 5ebc ca2e fdbd 6fb4 2cbe
00000040: 2d14 023d 14f8 76bd ad69 3e3e 29b3 3e3e
00000050: 2cfb db3d b77a cfbd c7f6 e4bc ade2 11bc
00000060: 80c1 40be 3acd 6f3d 0b7b 1e3c db0e 5dbe
00000070: 1dd1 3cbe 967a 143d 41a3 c7bb 7e63 19bc
00000080: 5bb0 01bd baa1 10bd 842b b2bd c5bc d7bd
00000090: 6f21 61bd b58f bbbc 3cb1 9bbd 030b 36bc
000000a0: 75d6 283e 8177 e4bd 3dbe 243e 5454 453d
000000b0: 29a1 083e 74de 03bd 3c2f 253d 7e91 0e3d
000000c0: 4d00 ec3d c2d6 dbbc 5f92 dabc d4b4 5dbd
000000d0: f02d 28bd 5c1e 8d3d 8fe7 133e f140 8fbd
000000e0: 154a 6cbc 9e2d 84bd b62f bebd 27b6 9fbd
000000f0: 7e6d f63d cdac c03c 8282 403c 7230 073e
00000100: 50ee 4a3d ef04 b1bc 1764 65bd 4545 e439
00000110: 153b b9bd 6a66 d0bd c48f 2c3c af6d bf3d
00000120: a7db 80bd 3740 263d 21f1 ab3b 20f4 1bbd
00000130: bcea 86bd a363 6dbd 3a58 c83d 5c88 d1bd
00000140: 2a98 01be 3a95 c8bd 5aee fd3b 2ed7 fbbc
00000150: 7280 05bd 65be 52bb ba30 e2bc 494e bdbd
00000160: a07f c93c d7a2 fb3c a2b3 d63c 5c3d b1bd
00000170: ea46 2f3e b6c0 a93d 0f03 ea3d 9f1e aabd
00000180: 122b 66bc 1cfe 5c3e 33f1 ad3c 386f 473d
00000190: a4fe 713d e67d b03a acf9 9fbd 8c76 a6bd
000001a0: 8462 153d 9c06 4f3d c7a1 a93d 0fb8 9e3d
000001b0: 5e6b ba3d 18c0 983c 0375 bd3d 5164 cb3c
000001c0: 3ebe 7e3d 7992 753c 1894 44bd aa8f 77bb
000001d0: 5b9e 663d 4c82 a93d 901d 443e 13ed 4f3d
000001e0: f4a0 3d3c aaf6 b13d 95bb 123d 0218 febd
000001f0: 4e77 20bd a71e ba3c c9a5 61bd 8a4a e13d
00000200: c9ae 76bd 55ef 013e d444 26bd 3cde 5bbd
00000210: bdbd e63c 075a d1bd 2c98 a6bd ec12 1ebe
00000220: 2a28 dbbd b7f1 5abe 99f2 30be 6d7e e4bd
00000230: 1c32 f63c 614c 5cbd 6f05 56bd 9dd2 ccbd
00000240: 6988 03be 8ad7 55b9 4150 3f3d e741 c3bd
00000250: 8381 55bd 1eab 5bbd ce59 40bd 5ac2 5fbd
00000260: 0f14 e4bd 8090 583d 5460 03bd b8cf 083e
00000270: ffa5 ecbd e084 113d 937a 9ebd f91d 923d
00000280: 0ad1 503d 0ae1 3f3a f743 173d 3b25 acbd
00000290: b28d c5bd 17f1 aebd e7ee f7bd c4d1 623c
000002a0: 1ba1 7fbd cfc7 a73c b343 84bd 753e ac3c
000002b0: 3cd4 f8ba f4f8 2d3d 4524 0abd 30e9 263d
000002c0: 31e5 063e 2faf acbd 512d 403c 0605 843d
000002d0: c307 5b3d 9017 a63d 0121 4ebd 772e 553d
000002e0: 3486 cd3d 72c5 993d fb96 893d 17f8 89bd
000002f0: 950d 043e 3e78 6dbc 9229 9c3d 5bd0 c2bc
00000300: f167 45bd 1cc0 15be 1bfb 8d3c 8b7e aebd
00000310: bccb 69bd acf2 1ebd 1ac1 05be 169c 2a3d
00000320: a5a7 c9bc 258a 94bd c72e f03c 1776 9ebd
00000330: f0d0 7c3d 72ea b23d db42 26bd aadb 37bd
00000340: 6db1 ec3c 9fa8 8f3d 6603 84bb 7af6 27bc
00000350: 91d0 0a3c d256 263e da37 c93d 14df 2bbd
00000360: ce7f 853d 9198 943d 549b b23d 674a 8cbd
00000370: c216 45bd 0049 10be 7b42 0c3d f477 bf3d
00000380: f23f eb3c 04f7 36bc e5f0 a63d e945 9dbd
00000390: 01af fa3c 0bce 1d3d b765 d8bd d6dc 1b3b
000003a0: b4ec 06be 9463 03bd b1a8 33bd 7c93 eebd
000003b0: 60ca 13be 5ad8 a63d 00cd b43d 107b c7ba
000003c0: e0a6 efbd 5077 75bd e98b 90bc ff7a a6bc
000003d0: ed35 bbbd 4239 1abd 1911 a9bd 5d30 fb3c
000003e0: 3e90 473d 77ad 7c3d 430f 5e3d 9a7e ca3d
000003f0: 9cd0 d1bc f54c de3c 3a76 4cbc 735f 0d3d

bias f4 [16]
0.0059004403 -0.0776624 0.074936196 -0.07914778 0.027361011 -0.0024917456 0.0007942709 -0.01041041
-0.04998724 0.059144925 -0.038502384 0.00035744812 -0.043264583 -0.08798257 0.014243215 -0.09264297
00000000: 7b58 c13b 770d 9fbd 2678 993d 3b18 a2bd
00000010: 3324 e03c 8e4c 23bb 9e36 503a 6d90 2abc
00000020: 6cbf 4cbd f341 723d adb4 1dbd e067 bb39
00000030: 3436 31bd 3530 b4bd 605c 693c 99bb bdbd

weight f4 [32, 1968]
-0.10256026 0.06384748 -0.014534062 0.094817646 -0.011336035 -0.020384703 -0.02246508 -0.02735902
-0.027161561 -0.027760694 -0.03980236 0.06568934 -0.04040785 -0.014197797 0.0006123138 -0.10523841
0.02137066 -0.03142001 -0.07248971 -0.10418525 0.019659294 -0.14597093 -0.008757166 -0.06727993
-0.08195012 -0.048876014 -0.038989525 -0.015573491 -0.08162617 -0.058605447 -0.024248078 0.03006452
-0.0047485474 0.0248563 -0.08026522 -0.052695196 -0.10058479 -0.021047795 -0.011980747 0.119668335
-0.061246667 -0.017590372 -0.032446064 0.04026205 -0.022365572 0.020068599 0.04598329 -0.05689526
-0.08950021 -0.023647526 -0.076257534 -0.06015949 -0.10593372 -0.033634886 0.014269949 -0.015554119
-0.0055104946 -0.10213312 -0.03458953 -0.015099924 -0.06384922 -0.023640282 0.05831503 -0.11509216
-0.12984687 -0.023526732 -0.0034929963 0.030845422 0.033808384 -0.013957906 -0.0037854505 0.023720263
-0.09979186 -0.0075175515 -0.05469443 0.001451565 0.033481054 0.05365481 0.011838379 0.06267252
-0.05929621 0.059604503 0.06507251 -0.031185074 -0.031575475 -0.092857786 -0.06146099 -0.088857815
-0.09723265 0.017213184 0.015792964 -0.01346796 -0.09692537 -0.031039257 -0.0273418 -0.045744393
-0.07275907 -0.031772386 0.09360806 -0.059841245 -0.05084649 0.026884647 -0.024110114 -0.016717428
0.07630851 -0.052066565 -0.03349005 -0.03770209 -0.03086854 0.013067511 -0.06718327 0.016392827
0.07159948 -0.05983499 0.072359346 0.045230158 0.026890302 0.026408166 -0.12355252 -0.08082897
0.020945324 -0.042707685 -0.03442322 0.029160101 0.035394404 0.028480554 0.01439377 0.05082698
0.064376086 0.04108849 0.014923171 0.018845737 -0.039286446 0.030919835 0.04364732 0.051833965
0.050735172 0.027015302 0.028171249 0.038929828 0.0217786 0.11391028 0.052038897 0.015254542
0.046604306 0.0688754 0.043373782 0.032237254 0.020640021 0.010102835 -0.007936322 -0.009120858
-0.035291795 0.027543643 0.06157729 -0.014482951 0.08152679 -0.039733224 -0.032277443 -0.03153847
0.046429574 0.013747198 0.078767404 -0.0093796095 0.033862494 0.020457411 0.06604057 0.022775406
-0.013876577 0.021895695 0.039111435 0.067734264 0.01541198 0.102584034 0.030716836 0.02023714
0.0749862 0.008182134 -0.012385193 0.013435891 0.03570463 0.030785713 -0.0062831333 0.07356902
0.090852946 -0.010567568 0.03713162 0.041009802 0.075692326 0.031275574 -0.017982766 0.03158563
0.05905319 0.045823578 0.008827356 0.060762778 0.058212597 0.043554276 0.04211694 -0.0022354382
0.0037181631 -0.06958254 -0.028965013 0.018579517 0.034165278 0.025474397 0.07370814 0.025580661
0.09144097 0.09929629 0.03642335 0.011057929 0.0068717203 0.012274203 0.030505277 0.013426195
0.06861431 0.043992277 -0.00814396 0.09880914 0.041048627 0.02241702 -0.033435047 0.043460935
0.03947123 0.057432335 0.06199715 0.011961036 -0.05506435 0.06429352 0.050883304 0.057702143
0.01656252 0.061967865 0.013047099 -0.03925497 -0.052644443 -0.044673577 -0.058923174 -0.06504602
-0.014635683 0.056203697 -0.067489445 -0.013935174 0.015210773 -0.025074763 0.03710789 0.016126929
0.02396013 0.0003363547 0.036779154 -0.0060683386 -0.018238708 0.011209324 0.0118253445 -0.019103294
00000000: 1d0b d2bd 78c2 823d 4620 6ebc c12f c23d
00000010: c7ba 39bc d2fd a6bc b008 b8bc 0620 e0bc
00000020: ec81 debc 656a e3bc cd07 23bd 2288 863d
00000030: b482 25bd e09d 68bc af83 203a 3c87 d7bd
00000040: 8611 af3c 45b2 00bd 7c75 94bd 145f d5bd
00000050: 870c a13c 6779 15be 377a 0fbc 0fca 89bd
00000060: 77d5 a7bd 3732 48bd 7bb3 1fbd f527 7fbc
00000070: 9f2b a7bd 440c 70bd e8a3 c6bc de49 f63c
00000080: b499 9bbb 709f cb3c 1762 a4bd ebd6 57bd
00000090: 66ff cdbd 6d6c acbc e54a 44bc ac14 f53d
000000a0: c9dd 7abd af19 90bc 2ae6 04bd d2e9 243d
000000b0: 0138 b7bc e766 a43c f958 3c3d 010b 69bd
000000c0: e34b b7bd 75b8 c1bc e92c 9cbd cc69 76bd
000000d0: c7f3 d8bd bcc4 09bd 81cc 693c b4d6 7ebc
000000e0: 6191 b4bb 2b2b d1bd c0ad 0dbd ac65 77bc
000000f0: 61c3 82bd 44a9 c1bc bedb 6e3d 70b5 ebbd
00000100: 94f6 04be 22bb c0bc c1ea 64bb 8aaf fc3c
00000110: a97a 0a3d b3af 64bc 5215 78bb ff50 c23c
00000120: ad5f ccbd cb55 f6bb 4407 60bd 7042 be3a
00000130: 6e23 093d 25c5 5b3d c3f5 413c 735a 803d
00000140: 95e0 72bd da23 743d bc44 853d d777 ffbc
00000150: 4955 01bd 392c bebd 85be 7bbd 16fb b5bd
00000160: e921 c7bd aa02 8d3c 3f60 813c b8a8 5cbc
00000170: cf80 c6bd 0a46 febc e9fb dfbc 795e 3bbd
00000180: b502 95bd c323 02bd 95b5 bf3d 181c 75bd
00000190: 6944 50bd 313d dc3c 9382 c5bc fdf2 88bc
000001a0: a347 9c3d c043 55bd dd2c 09bd 826d 1abd
000001b0: 05e0 fcbc 1d19 563c 6297 89bd 404a 863c
000001c0: c0a2 923d 8915 75bd 2331 943d 4243 393d
000001d0: 0d49 dc3c f055 d83c 1b09 fdbd a989 a5bd
000001e0: 8795 ab3c 41ee 2ebd 5dff 0cbd 2ae1 ee3c
000001f0: b9f9 103d 0d50 e93c d9d3 6b3c f42f 503d
00000200: 9cd7 833d 684c 283d 5180 743c 6062 9a3c
00000210: d3ea 20bd 984b fd3c 88c7 323d da4f 543d
00000220: afcf 4f3d 324f dd3c 64c7 e63c e274 1f3d
00000230: 0969 b23c cb49 e93d bd26 553d 30ee 793c
00000240: 28e4 3e3d 8c0e 8d3d b5a8 313d 360b 043d
00000250: 4315 a93c 5c86 253c 5907 02bc a76f 15bc
00000260: 218e 10bd 35a3 e13c 7838 7c3d e649 6dbc
00000270: 85f7 a63d 4ebf 22bd 5a35 04bd 7c2e 01bd
00000280: f02c 3e3d ed3b 613c ce50 a13d efac 19bc
00000290: 66b3 0a3d 4d96 a73c 4740 873d 7d93 ba3c
000002a0: 955a 63bc 9a5e b33c 5033 203d 43b8 8a3d
000002b0: 8882 7c3c 9417 d23d e0a1 fb3c 5cc8 a53c
000002c0: 5d92 993d 5b0e 063c 44eb 4abc 3622 5c3c
000002d0: 053f 123d 5232 fc3c bee2 cdbb 5bab 963d
000002e0: 1c11 ba3d 9823 2dbc 5317 183d e5f9 273d
000002f0: 9404 9b3d d11a 003d 9850 93bc ef5f 013d
00000300: c2e1 713d 81b1 3b3d 9da0 103c 64e2 783d
00000310: 5570 6e3d f865 323d d082 2c3d 6e80 12bb
00000320: 6dac 733b 4a81 8ebd 0948 edbc 1234 983c
00000330: e4f0 0b3d afaf d03c 4bf4 963d 898e d13c
00000340: 6745 bb3d da5b cb3d a730 153d 512c 353c
00000350: 2b2c e13b bd19 493c 34e6 f93c 8bf9 5b3c
00000360: a985 8c3d 3f31 343d 3e6e 05bc 725c ca3d
00000370: 9b22 283d e6a3 b73c 30f3 08bd 1804 323d
00000380: 96ac 213d 2b3e 6b3d b9f0 7d3d 39f8 433c
00000390: 288b 61bd 52ac 833d 036b 503d 1559 6c3d
000003a0: 1fae 873c 04d2 7d3d 80c3 553c d2c9 20bd
000003b0: b3a1 57bd a4fb 36bd 6d59 71bd d936 85bd
000003c0: 81ca 6fbc d935 663d e837 8abd 5b50 64bc
000003d0: 9b36 793c 9769 cdbc 71fe 173d 9f1c 843c
000003e0: 0948 c43c c358 b039 bda5 163d ead8 c6bb
000003f0: 5869 95bc 50a7 373c 17bf 413c 837e 9cbc

bias f4 [32]
0.043851543 0.011158669 0.039224666 -0.00719698 0.053086556 0.03570484 -0.007612534 -0.017241223
0.032826696 0.061756667 0.03728987 0.0060013975 0.048387595 -0.020210091 0.049957298 -0.0033858805
0.013868699 0.005542454 0.02147351 0.024238331 -0.026431771 0.029854288 -0.017993202 0.0549734
-0.005098204 -0.0051642866 0.03537294 0.03729546 -0.0005497289 0.013035864 0.027479077 0.018948
00000000: ad9d 333d dad2 363c 0baa 203d a5d4 ebbb
00000010: 4a71 593d 3d3f 123d 9072 f9bb 773d 8dbc
00000020: 4975 063d 8ff4 7c3d 43bd 183d 5fa7 c43b
00000030: 1232 463d a28f a5bc 06a0 4c3d a6e5 5dbb
00000040: 8a39 633c 799d b53b 37e9 af3c 778f c63c
00000050: 7187 d8bc fb90 f43c 7b66 93bc ca2b 613d
00000060: d60e a7bb 2d39 a9bb 37e3 103d 20c3 183d
00000070: af1b 10ba 6094 553c cd1b e13c d638 9b3c

weight f4 [1, 32]
0.15546915 -0.0009725254 0.1979762 -0.07598435 0.167345 -0.13547294 -0.11656301 -0.16425711
-0.18606263 0.15445691 0.16913503 -0.17647594 0.20947276 -0.017677896 0.14179163 -0.036434747
0.1771058 -0.16406903 0.22236644 0.08190229 -0.0904813 -0.15234356 -0.15199322 0.082732596
0.06684166 0.06284382 -0.14081848 -0.21228929 -0.12203023 -0.11299473 -0.08075205 -0.1711917
00000000: 4e33 1f3e 13f1 7eba 46ba 4a3e af9d 9bbd
00000010: 7d5c 2b3e 6bb9 0abe 96b8 eebd 0433 28be
00000020: 3487 3ebe f429 1e3e bc31 2d3e 1cb6 34be
00000030: 0780 563e 3cd1 90bc d331 113e 9a3c 15bd
00000040: 395b 353e b601 28be 07b4 633e 63bc a73d
00000050: 434e b9bd f3ff 1bbe 1ca4 1bbe b56f a93d
00000060: 48e4 883d 43b4 803d b832 10be 5d62 59be
00000070: fcea f9bd c869 e7bd 5561 a5bd e14c 2fbe
