exercises/checkpoint.pt (torch, 777186 bytes, 19 tensors)

lstm.weight_ih_l0 f4 [256, 100]
-0.13008726 -0.12490042 0.07245424 0.06631884 -0.12600203 0.058569375 -0.0150939915 0.056338068
-0.038314193 0.028798955 -0.14895554 0.025745483 -0.08556903 -0.08439742 -0.040985387 0.13121863
0.094585374 -0.01834517 0.050337553 0.010189186 -0.011041662 -0.049281433 -0.15904418 0.012093136
-0.010177336 0.037675377 -0.098322384 0.08851329 -0.060130473 0.058696743 -0.084323026 -0.090479106
0.021419087 -0.11099251 0.04798634 -0.017623726 -0.017781762 0.008427258 -0.07781726 -0.13859138
0.19981216 -0.11107999 0.11505365 -0.0018926031 0.010548233 0.061717264 -0.007833228 0.096494034
0.06974959 0.1293023 0.046219245 -0.021204954 -0.14302544 0.019287515 0.071229935 -0.025235772
0.15676335 -0.12479403 0.041143123 -0.13572304 -0.13449034 -0.12810627 0.0097067235 0.0770989
0.07796074 0.033104032 -0.057782277 -0.021554355 -0.0004403791 -0.20914169 -0.081611656 -0.082845
-0.014663704 0.055428054 -0.06951656 -0.066282466 -0.007047951 -0.08012989 0.021205662 0.18644266
0.072763935 0.18305397 0.045282416 -0.046726443 0.04584953 0.040111527 0.034253627 -0.006702511
-0.059449695 0.11588001 -0.00052957336 0.122086585 0.131126 0.07741395 -0.122813344 -0.08957026
-0.03413549 0.07738248 -0.09737604 0.017492678 0.07754602 -0.02826632 -0.052274395 -0.10735071
-0.15149614 0.028415693 -0.057296857 0.02984297 0.051280614 0.13420019 -0.0042277747 -0.027464772
-0.15247753 -0.07725171 0.08020119 0.10022531 -0.01183844 -0.01876846 -0.020549757 0.052964512
-0.0059077623 0.039778646 -0.031130297 0.14836466 -0.03966536 0.08273506 -0.09672734 0.0048918333
-0.101494655 -0.06430895 0.11372647 -0.079692446 0.07234457 -0.1327413 -0.025301121 -0.056345813
-0.07563553 0.0006586185 0.09904685 0.11648995 -0.09043372 0.09502424 -0.077625394 0.048597362
0.16272347 0.18046321 0.09114568 0.15580972 -0.035251606 0.09325484 -0.1416396 -0.13458738
0.09290835 -0.07487378 -0.157956 0.18715054 0.18187247 -0.07713502 0.055218026 -0.1294861
-0.11416244 -0.11640877 -0.10117107 0.046791628 -0.102720164 -0.097641565 0.03408971 -0.20935401
0.12592894 -0.10103803 -0.08539262 -0.077659786 0.076175705 -0.07175055 -0.10540265 0.019585215
0.079977036 0.1454218 0.026067015 0.08414417 0.030227274 -0.03594604 0.17051512 -0.05504472
-0.014206462 0.06934536 0.004065486 -0.042370368 -0.10722959 -0.012748717 -0.07284643 0.096577935
-0.01314147 0.052156195 0.023161236 -0.08260428 0.020057535 0.02549601 -0.17669691 -0.15751351
0.0034707705 -0.10817699 0.07452522 -0.008588712 -0.12594742 0.03602701 0.06511789 0.013961977
0.07460669 0.058668815 0.044336744 -0.063402206 0.033425994 -0.076373205 0.026898887 -0.10204218
-0.014884519 -0.14732608 -0.020405002 0.09549788 0.017222047 0.1655373 0.0027560005 -0.08941588
0.038151525 -0.07047087 -0.0079416465 0.10373472 0.006976652 0.17401646 0.050409503 -0.063786715
0.12056073 0.011936216 -0.09701413 -0.06303221 0.061099548 -0.1874596 -0.067749366 -0.06224384
-0.042627074 0.04316193 -0.1338611 -0.06287134 -0.08765388 0.13441946 0.11886226 0.08533801
-0.022327492 -0.10298268 -0.0011614314 0.051697563 -0.045783035 -0.05236396 -0.0026973023 -0.028885178
00000000: 9835 05be cbcb ffbd e362 943d 2cd2 873d
00000010: ad06 01be 71e6 6f3d ca4c 77bc bfc2 663d
00000020: 58ef 1cbd c9eb eb3c cd87 18be 31e8 d23c
00000030: d13e afbd 8ed8 acbd 4be0 27bd 2d5e 063e
00000040: fab5 c13d 9c48 96bc c02e 4e3d 8bf0 263c
00000050: 16e8 34bc 54db 49bd 7adc 22be 4a22 463c
00000060: d7be 26bc 7f51 1a3d 3f5d c9bd 7546 b53d
00000070: 5f4b 76bd ff6b 703d 8db1 acbd 1c4d b9bd
00000080: 1577 af3c 0b50 e3bd 538d 443d a25f 90bc
00000090: 0fab 91bc 7b12 0a3c a85e 9fbd e6ea 0dbe
000000a0: 8f9b 4c3e e87d e3bd 40a1 eb3d 3911 f8ba
000000b0: 7fd2 2c3c 3ecb 7c3d f156 00bc aa9e c53d
000000c0: dfd8 8e3d d267 043e 6450 3d3d 03b6 adbc
000000d0: 4375 12be da00 9e3c 00e1 913d 40bb cebc
000000e0: 9286 203e 0394 ffbd b185 283d fbfa 0abe
000000f0: d6b7 09be 4a2e 03be f308 1f3c 07e6 9d3d
00000100: e1a9 9f3d 1898 073d 1cad 6cbd c292 b0bc
00000110: afe2 e6b9 3d29 56be 0324 a7bd a4aa a9bd
00000120: 0840 70bc 8708 633d b35e 8ebd 1abf 87bd
00000130: 80f2 e6bb 241b a4bd 7fb7 ad3c d3ea 3e3e
00000140: 4205 953d 8072 3b3e 0e7a 393d 3a64 3fbd
00000150: b7cc 3b3d fc4b 243d 884d 0c3d bda0 dbbb
00000160: 8681 73bd 8052 ed3d 11d3 0aba 8808 fa3d
00000170: e545 063e 348b 9e3d 9085 fbbd 9d70 b7bd
00000180: a8d1 0bbd b57a 9e3d 176d c7bd ce4c 8f3c
00000190: 73d0 9e3d c58e e7bc ad1d 56bd b0da dbbd
000001a0: ce21 1bbe 07c8 e83c 1cb0 6abd 3f79 f43c
000001b0: 9f0b 523d c66b 093e 2589 8abb cdfd e0bc
000001c0: 1223 1cbe 2536 9ebd 8640 a43d ed42 cd3d
000001d0: 04f6 41bc 50c0 99bc f757 a8bc 51f1 583d
000001e0: e795 c1bb efee 223d f704 ffbc e8ec 173e
000001f0: 2578 22bd 0071 a93d fc18 c6bd ac4b a03b
00000200: 6edc cfbd 69b4 83bd 6ce9 e83d cb35 a3bd
00000210: 6429 943d 56ed 07be 4c44 cfbc deca 66bd
00000220: cde6 9abd 24a7 2c3a 13d9 ca3d 4892 ee3d
00000230: 5035 b9bd 129c c23d 10fa 9ebd 070e 473d
00000240: fba0 263e 59cb 383e 96aa ba3d 958c 1f3e
00000250: fd63 10bd 65fc be3d f909 11be 46d1 09be
00000260: bc46 be3d 6d57 99bd 38bf 21be 64a4 3f3e
00000270: c73c 3a3e f7f8 9dbd 4c2c 623d 0198 04be
00000280: ffcd e9bd b967 eebd c732 cfbd 94a8 3f3d
00000290: f35e d2bd 4df8 c7bd a7a1 0b3d e660 56be
000002a0: 84f3 003e 07ed cebd 53e2 aebd 180c 9fbd
000002b0: 0202 9c3d f4f1 92bd 58dd d7bd 2c71 a03c
000002c0: 00cb a33d 74e9 143e 7e8a d53c c753 ac3d
000002d0: 309f f73c 283c 13bd 849b 2e3e 9376 61bd
000002e0: 38c2 68bc f104 8e3d c537 853b 8d8c 2dbd
000002f0: 309b dbbd ffdf 50bc 8230 95bd a7ca c53d
00000300: 524f 57bc bca1 553d a2bc bd3c 6f2c a9bd
00000310: b34f a43c 02dd d03c 09f0 34be 394b 21be
00000320: de75 633b e68b ddbd aea0 983d abb7 0cbc
00000330: 5cf8 00be 0f91 133d 875c 853d c7c0 643c
00000340: 64cb 983d b64e 703d 729a 353d 04d9 81bd
00000350: b2e9 083d 8e69 9cbd 0e5b dc3c 7efb d0bd
00000360: 33de 73bc a6dc 16be 6428 a7bc 6494 c33d
00000370: 4015 8d3c 9c82 293e 049e 343b ac1f b7bd
00000380: c644 1c3d 0853 90bd ae1d 02bc de72 d43d
00000390: 669c e43b 5f31 323e 327a 4e3d 9ca2 82bd
000003a0: 8be8 f63d 1e90 433c 58af c6bd 0817 81bd
000003b0: 8543 7a3d 69f5 3fbe 2ec0 8abd 66f3 7ebd
000003c0: ba99 2ebd 90ca 303d e212 09be b0c2 80bd
000003d0: e183 b3bd 41a5 093e 0e6e f33d b2c5 ae3d
000003e0: 25e8 b6bc 95e8 d2bd 2c3b 98ba d3c0 533d
000003f0: fe86 3bbd 977b 56bd 39c5 30bb 9ca0 ecbc

lstm.weight_hh_l0 f4 [256, 64]
-0.09596085 0.014514987 -0.08338906 -0.062532894 -0.0076165567 -0.06055879 0.035814263 0.014916278
0.111274414 0.081485756 0.061755396 -0.083590776 0.005313013 -0.044788145 -0.1086386 0.020246414
-0.038266577 0.036137618 0.15380065 -0.11918633 -0.078003004 -0.035938006 -0.102608226 0.05479099
-0.18602137 -0.035614148 -0.080255404 0.17734961 0.09181032 -0.1234186 0.017999165 -0.064698495
-0.18162975 -0.113170534 -0.02780246 -0.012228494 -0.030590123 0.099001616 0.047915164 0.118495725
0.015546113 0.06770298 -0.0743834 -0.04981694 0.009444212 0.020528244 0.029279543 -0.0030885262
0.082840845 -0.05619159 0.01707793 0.068818435 0.0052933353 0.05544848 -0.0014122379 0.12288651
-0.056850035 -0.06584076 -0.13018784 -0.075529486 0.06296493 0.04900068 0.010231106 -0.022256434
-0.038626634 0.07880648 0.03472036 0.03090494 0.104715765 -0.07971791 0.14461403 -0.12883407
0.041637585 0.019691562 0.02869138 -0.0879781 0.105163336 0.048094776 0.001525561 0.0898772
0.12959552 0.02481578 -0.024384437 0.078794956 -0.0044694105 0.14697784 -0.051461715 -0.04831277
0.037692647 0.19416383 -0.043138407 0.07582672 -0.049204823 0.077169575 0.08952502 0.058810838
0.057992082 -0.07154754 0.018994866 0.04494013 -0.02080592 0.069535226 -0.027988588 -0.033374146
0.08178804 0.0061692707 0.0049116076 -0.034183696 -0.0061885584 0.012666179 -0.13583112 -0.100543275
-0.03961725 -0.07974736 0.09574461 -0.1022633 0.10081838 -0.05909558 0.022048768 0.08507353
-0.122821644 -0.1085657 -0.055976335 0.004306886 -0.043425582 -0.14932348 -0.098695375 0.06704032
-0.021486044 0.042265046 -0.011316831 0.06079477 -0.033623926 0.102609575 -0.028434712 -0.0867963
0.021097306 -0.02772707 0.081095494 0.1470957 -0.0072482317 -0.09397497 0.041530512 -0.09994308
-0.031220213 0.07605232 -0.10145513 0.11714167 -0.073914945 0.05587686 -0.106545515 0.045414235
-0.06081893 -0.04818903 -0.083678685 -0.02343274 -0.04550812 0.00051414646 -0.061580744 0.025625374
-0.05321402 0.074337654 0.03709049 0.013930562 0.02307629 0.038594574 0.17214401 -0.073212996
-0.06130534 0.13408491 0.09315557 0.16508265 -0.0056659533 0.029313574 -0.12850103 -0.052349508
0.11926851 -0.08287559 -0.08129908 0.07348664 -0.03498186 -0.06118248 0.07190384 -0.010215483
-0.05179493 -0.07846233 -0.08934651 -0.0801323 0.11537943 0.0738956 0.12732966 -0.060235124
0.05301715 0.115581535 -0.07108598 0.029705433 0.10855469 0.01368649 -0.018121554 -0.07284067
0.042864103 0.050343193 -0.03570599 -0.028819913 -0.113446295 -0.00538052 0.11783381 0.030623406
0.06105281 -0.12489013 0.0032675148 -0.0312187 -0.081243366 -0.046847254 0.069591135 0.032638337
-0.13404527 0.010591195 0.02872452 -0.088451356 -0.111642465 0.012816076 0.07620669 -0.11954131
-0.045941327 -0.026218053 -0.08168151 -0.011978773 0.13319604 0.06781396 -0.016732454 0.07312083
-0.017388513 -0.025481673 -0.024442066 -0.09159973 -0.04040337 -0.1202209 0.11443018 0.07676213
0.15279002 -0.037653033 -0.01279561 -0.037044317 0.112559386 -0.005794507 -0.021215178 0.0019020058
-0.064060025 0.11522569 -0.108615294 0.037484247 -0.019329002 -0.0063501135 0.086186364 0.0045885174
00000000: 1f87 c4bd 45d0 6d3c e2c7 aabd 3f11 80bd
00000010: 4f94 f9bb 7e0c 78bd fab1 123d 6863 743c
00000020: d7e3 e33d 01e2 a63d 3af3 7c3d a431 abbd
00000030: c918 ae3b c673 37bd ea7d debd cfdb a53c
00000040: 6abd 1cbd 0a05 143d eb7d 1d3e f617 f4bd
00000050: 0ac0 9fbd bb33 13bd 4324 d2bd 846c 603d
00000060: 637c 3ebe 24e0 11bd f25c a4bd 239b 353e
00000070: 0d07 bc3d e4c2 fcbd fc72 933c a580 84bd
00000080: 26fd 39be f4c5 e7bd fcc1 e3bc 055a 48bc
00000090: 2398 fabc 5cc1 ca3d b142 443d e3ad f23d
000000a0: 20b5 7e3c dca7 8a3d 5356 98bd d90c 4cbd
000000b0: e5bb 1a3c d92a a83c a7db ef3c df68 4abb
000000c0: 76a8 a93d 2729 66bd 04e7 8b3c aef0 8c3d
000000d0: b773 ad3b f21d 633d d71a b9ba ecab fb3d
000000e0: 95db 68bd 85d7 86bd f64f 05be 34af 9abd
000000f0: c2f3 803d f0b4 483d 5ea0 273c 2053 b6bc
00000100: f636 1ebd 4b65 a13d f036 0e3d 5b2c fd3c
00000110: 3875 d63d 2543 a3bd b315 143e 14ed 03be
00000120: 2c8c 2a3d 3350 a13c 2f0a eb3c dd2d b4bd
00000130: e05f d73d 07ff 443d 55f5 c73a 8a11 b83d
00000140: b0b4 043e 764a cb3c dfc1 c7bc 405f a13d
00000150: 2274 92bb 5c81 163e 85c9 52bd 9ce3 45bd
00000160: 9b63 1a3d e2d2 463e e6b1 30bd 0a4b 9b3d
00000170: ff8a 49bd 150b 9e3d e558 b73d a2e3 703d
00000180: 1b89 6d3d 8487 92bd 1f9b 9b3c 2413 383d
00000190: 2d71 aabc 7c68 8e3d 5348 e5bc 54b3 08bd
000001a0: 7d80 a73d 9827 ca3b 8df1 a03b 3404 0cbd
000001b0: 64c9 cabb ce85 4f3c 5017 0bbe a2e9 cdbd
000001c0: b345 22bd 9552 a3bd c015 c43d 6c6f d1bd
000001d0: de79 ce3d 350e 72bd 9e9f b43c 083b ae3d
000001e0: ea89 fbbd b257 debd 7147 65bd c720 8d3b
000001f0: 06df 31bd 41e8 18be cd20 cabd 6f4c 893d
00000200: 8003 b0bc 1d1e 2d3d 3b6a 39bc f003 793d
00000210: 3eb9 09bd f824 d23d eaef e8bc 42c2 b1bd
00000220: 42d4 ac3c e123 e3bc 6515 a63d 41a0 163e
00000230: 9382 edbb f375 c0bd e61b 2a3d f5ae ccbd
00000240: 88c1 ffbc 52c1 9b3d b5c7 cfbd f9e7 ef3d
00000250: b860 97bd 22df 643d 8934 dabd 4704 3a3d
00000260: 451d 79bd dc61 45bd bb5f abbd 04f6 bfbc
00000270: b966 3abd c9c7 063a 173c 7cbd 4eec d13c
00000280: f2f6 59bd 573e 983d 33ec 173d 033d 643c
00000290: 7d0a bd3c 5815 1e3d 8546 303e b2f0 95bd
000002a0: 4f1b 7bbd 8e4d 093e 59c8 be3d 6d0b 293e
000002b0: 76a9 b9bb 0523 f03c c695 03be 706c 56bd
000002c0: 0c43 f43d adba a9bd 2280 a6bd 2a80 963d
000002d0: 2449 0fbd 7b9a 7abd 5242 933d d75e 27bc
000002e0: ec26 54bd dcb0 a0bd 4efb b6bd 671c a4bd
000002f0: 0d4c ec3d 9456 973d b562 023e 1bb9 76bd
00000300: 8328 593d 03b6 ec3d 8795 91bd cf58 f33c
00000310: ec51 de3d 4d3d 603c a773 94bc 7d2d 95bd
00000320: 4592 2f3d aa34 4e3d 7240 12bd bd17 ecbc
00000330: 8856 e8bd 134f b0bb da52 f13d f0dd fa3c
00000340: 8312 7a3d 65c6 ffbd cd23 563b 5cbe ffbc
00000350: ec62 a6bd e8e2 3fbd cc85 8e3d c7af 053d
00000360: 2a43 09be b186 2d3c af4f eb3c fc25 b5bd
00000370: cea4 e4bd 85fa 513c 4112 9c3d 13d2 f4bd
00000380: f92c 3cbd 3ec7 d6bc a348 a7bd 9e42 44bc
00000390: 8b64 083e 0ce2 8a3d 8012 89bc 60c0 953d
000003a0: 5b72 8ebc f1be d0bc ba3a c8bc a498 bbbd
000003b0: 017e 25bd 6036 f6bd 5f5a ea3d 7735 9d3d
000003c0: fd74 1c3e 113a 1abd aea4 51bc c8bb 17bd
000003d0: 8985 e63d d9df bdbb 74cb adbc b94c f93a
000003e0: e731 83bd 72fb eb3d b271 debd 1589 193d
000003f0: db57 9ebc 9d14 d0bb 7a82 b03d 465b 963b

lstm.bias_ih_l0 f4 [256]
-0.110233106 0.07953625 -0.11601959 0.038258374 0.032315034 0.03117773 -0.013175047 0.05093979
-0.10619186 -0.090261914 -0.022028295 -0.046026032 -0.028479148 -0.14636923 0.052401233 0.07610733
0.025679609 -0.020514622 -0.080740646 -0.02810842 -0.025959563 -0.06700833 -0.072418116 -0.03620628
-0.13507266 0.06826838 -0.13542262 -0.10373423 0.004066018 -0.11008042 0.01600102 -0.027178802
-0.17677006 0.058049787 0.016374115 0.009853501 0.009310656 0.0022564142 0.06827974 -0.05543698
-0.10603699 -0.023198228 0.023124883 0.064375326 -0.03616595 0.069630526 0.022121428 0.044427477
0.11606278 -0.037719358 0.01651716 -0.103277005 -0.13452724 -0.07844862 -0.10837503 -0.09899984
-0.14702196 -0.0961649 -0.08300412 -0.05866208 0.00061616674 -0.018314427 -0.17465524 0.02171667
-0.096082285 0.004770021 -0.094556175 -0.032950547 0.054228526 -0.12585473 -0.0020561428 0.015985746
0.08726552 0.093914144 -0.047158413 0.1655972 0.06538532 0.04066924 -0.13572785 -0.08430015
0.002059814 0.10975155 -0.04299538 0.08224705 0.066433884 -0.0014423528 0.038688704 0.14545302
0.08089054 -0.09182435 -0.1012253 0.07832916 -0.04885618 -0.02932526 -0.10829543 0.033955473
0.20654649 -0.06370469 0.00193934 0.16469286 0.1045754 0.05468713 -0.0058653075 -0.10764132
-0.04135942 -0.027228596 -0.09976721 -0.012352086 0.020686783 0.046687722 -0.12789622 -0.07841955
0.123474166 0.00441041 -0.008938308 0.041721962 0.022105454 -0.06712643 0.06345754 -0.08139224
0.01941864 0.0887608 0.0772424 -0.11115386 -0.0348772 -0.07146404 0.06471117 0.13783795
-0.12418767 0.04951989 -0.14935747 0.014183826 0.10050773 0.0864474 0.009419392 -0.11234712
-0.0014754491 0.046826087 0.09045758 0.046976756 -0.06562637 0.09474676 0.053098705 0.02930916
0.06186104 -0.013641498 0.07243667 0.07224916 -0.0074984645 0.051928032 -0.026895093 0.024031078
0.07655325 0.036433537 -0.022399504 -0.06687331 0.09861924 -0.08758293 -0.06911541 0.093965925
0.11591518 -0.0913356 0.016819973 -0.10099276 0.039147496 0.008136959 0.13840844 -0.10359977
-0.04908542 0.073732466 -0.06280957 -0.021037607 -0.06883951 -0.14133243 -0.11183251 0.10992832
0.0357069 -0.050790474 0.0457916 -0.023232847 -0.06028662 -0.04039989 0.06331461 0.09807259
-0.012011402 0.101876944 -0.07693659 -0.065576546 0.06966547 -0.002345486 0.10210076 -0.043869134
-0.10951831 0.049412314 0.13288653 -0.032785293 -0.088747844 -0.019599538 -0.12830664 0.1098332
0.08826304 0.029507473 0.12557964 0.13465145 0.121097825 -0.048295774 -0.14143553 0.0411498
-0.056511972 0.02267351 0.041961662 -0.026833246 0.019724896 -0.0107499 -0.051486865 -0.061830245
-0.043565385 -0.103729494 -0.07129838 -0.081105605 0.0846964 0.07447934 -0.073395684 -0.09596994
0.17605942 -0.14754176 0.04282455 0.09419866 0.0834791 0.019200368 0.07417878 0.08551208
0.003525963 -0.13571309 0.052986138 -0.012108379 0.0879282 0.07393585 -0.095947675 -0.022212366
-0.08592697 -0.1099144 0.037154254 -0.09509791 0.097747155 -0.17169984 -0.0382763 -0.06791429
-0.121079646 0.025378242 0.020316876 -0.057765473 0.1127249 0.0034954173 0.100002006 0.08763838
00000000: e5c1 e1bd e7e3 a23d ae9b edbd d0b4 1c3d
00000010: c55c 043d 7068 ff3c 27dc 57bc 3ea6 503d
00000020: 1e7b d9bd 3ddb b8bd af74 b4bc cb85 3cbd
00000030: 1a4d e9bc d1e1 15be ada2 563d 29de 9b3d
00000040: 0b5e d23c 480e a8bc 5a5b a5bd a143 e6bc
00000050: 26a9 d4bc aa3b 89bd f34f 94bd 094d 14bd
00000060: 7d50 0abe 4bd0 8b3d 3aac 0abe 9d72 d4bd
00000070: 3b3c 853b d871 e1bd 9214 833c 14a6 debc
00000080: 3603 35be 9dc5 6d3d 0223 863c 9470 213c
00000090: b98b 183c 59e0 133b 40d6 8b3d e311 63bd
000000a0: ec29 d9bd 360a bebc 6570 bd3c 36d7 833d
000000b0: bf22 14bd 739a 8e3d ff37 b53c 96f9 353d
000000c0: 53b2 ed3d 9d7f 1abd ff4e 873c e582 d3bd
000000d0: 82c1 09be aca9 a0bd baf3 ddbd 6ec0 cabd
000000e0: ed8c 16be 1af2 c4bd 10fe a9bd a647 70bd
000000f0: 4086 213a 2308 96bc d3d8 32be 28e7 b13c
00000100: cac6 c4bd d64d 9c3b aba6 c1bd 27f7 06bd
00000110: bb1e 5e3d 10e0 00be 5ac0 06bb 8af4 823c
00000120: 44b8 b23d 0f56 c03d 2e29 41bd 5092 293e
00000130: bde8 853d ca94 263d 3efc 0abe 8fa5 acbd
00000140: f2fd 063b 6cc5 e03d ec1b 30bd 2471 a83d
00000150: 7d0e 883d 540d bdba 0c78 1e3d a3f1 143e
00000160: f0a9 a53d 680e bcbd 364f cfbd 0a6b a03d
00000170: 6b1d 48bd 873b f0bc ffc9 ddbd e514 0b3d
00000180: ec80 533e 9b77 82bd 7431 fe3a 3fa5 283e
00000190: a12b d63d 9dff 5f3d c431 c0bb 0d73 dcbd
000001a0: 7f68 29bd 810e dfbc c052 ccbd 6760 4abc
000001b0: 5477 a93c a03b 3f3d 3af7 02be 6e9a a0bd
000001c0: 06e0 fc3d 3385 903b fb71 12bc a6e4 2a3d
000001d0: 7f16 b53c 9579 89bd 07f6 813d fab0 a6bd
000001e0: d713 9f3c 39c8 b53d 4331 9e3d a3a4 e3bd
000001f0: 65db 0ebd bd5b 92bd 4a87 843d 6425 0d3e
00000200: 1b56 febd 5ed5 4a3d 2af1 18be 4763 683c
00000210: ffd6 cd3d 560b b13d cb53 1a3c 3f16 e6bd
00000220: db63 c1ba b6cc 3f3d d341 b93d b36a 403d
00000230: 1e67 86bd 970a c23d 077e 593d c319 f03c
00000240: 0062 7d3d 9780 5fbc ad59 943d 5ef7 933d
00000250: aeb5 f5bb 7db2 543d 1953 dcbc d3dc c43c
00000260: f3c7 9c3d 553b 153d 2a7f b7bc e0f4 88bd
00000270: e2f8 c93d ae5e b3bd 618c 8dbd 3571 c03d
00000280: f064 ed3d 290e bbbd 0aca 893c 4bd5 cebd
00000290: 2059 203d e150 053c f1ba 0d3e 1e2c d4bd
000002a0: cb0d 49bd 0c01 973d 4ea2 80bd 0f57 acbc
000002b0: bbfb 8cbd 73b9 10be 7108 e5bd 1922 e13d
000002c0: 6641 123d ac09 50bd f98f 3b3d d052 bebc
000002d0: 1aef 76bd 5b7a 25bd 17ab 813d 48da c83d
000002e0: 79cb 44bc dca4 d03d ee90 9dbd ff4c 86bd
000002f0: c5ac 8e3d bab6 19bb 341a d13d 1fb0 33bd
00000300: 234b e0bd 9164 4a3d 6813 083e df49 06bd
00000310: 6ec1 b5bd 368f a0bc d162 03be 3bf0 e03d
00000320: 41c3 b43d a8b9 f13c f397 003e 12e2 093e
00000330: 2302 f83d cad1 45bd 7ad4 10be b18c 283d
00000340: 1979 67bd ccbd b93c fedf 2b3d 65d1 dbbc
00000350: 1b96 a13c 5920 30bc e4e3 52bd b641 7dbd
00000360: 9e71 32bd 2170 d4bd e304 92bd b21a a6bd
00000370: 4e75 ad3d a088 983d 7a50 96bd e38b c4bd
00000380: ec48 343e 3015 17be cc68 2f3d 3aeb c03d
00000390: 17f7 aa3d 174a 9d3c 0beb 973d f520 af3d
000003a0: d813 673b 5ff8 0abe fe07 593d 3962 46bc
000003b0: b313 b43d ae6b 973d 3780 c4bd b5f6 b5bc
000003c0: 7bfa afbd cd1a e1bd 0f2f 183d b1c2 c2bd
000003d0: a92f c83d 15d2 2fbe 9cc7 1cbd a616 8bbd
000003e0: 9bf8 f7bd 08e6 cf3c 946f a63c 7d9b 6cbd
000003f0: 50dc e63d 5f13 653b dacd cc3d c07b b33d

lstm.bias_hh_l0 f4 [256]
0.07250551 0.06627362 0.09655772 -0.03276419 -0.1773276 -0.08449873 0.06758171 0.056200862
0.019730674 0.057935778 0.059418157 -0.043684285 0.0032475586 -0.074594 0.02639755 0.08173064
0.03369669 -0.11765953 -0.076788396 0.05651698 -0.099081464 0.07178091 0.057981733 -0.07846475
0.077650346 -0.01770903 0.0869437 0.01166567 -0.10195364 0.08638059 0.073172614 -0.024299107
-0.18688351 0.027875401 0.04571167 -0.16231224 0.063440666 -0.06010406 0.050047863 -0.020493507
0.11029774 0.04229306 -0.05665006 -0.09621607 -0.02084875 0.04026762 0.0582944 -0.0011873606
-0.011255187 0.0172135 0.02297408 0.012673853 -0.10314769 -0.19105086 -0.0028575347 -0.07349408
-0.025916645 0.040812325 -0.027439607 -0.031949613 -0.013045621 -0.060431823 -0.08526573 0.011837002
0.0898945 -0.099824145 0.010660157 0.060506847 0.006494877 -0.0648895 -0.04165142 0.10660349
-0.07702804 0.043276023 0.08984754 -0.051831856 0.03757904 0.0051602894 -0.0635266 0.13468313
0.062259167 0.13043992 0.13248068 0.089494556 0.12206163 -0.09937467 -0.031609003 -0.07339868
0.06722815 0.053260695 0.084692195 -0.0037328934 0.11235124 0.118800916 -0.10037091 -0.050495513
0.28303415 0.03059266 -0.00823185 0.076697916 -0.09252047 -0.081034504 0.017857067 0.08666027
-0.025615005 -0.06321373 -0.10171753 -0.003641987 0.0032084698 -0.10831986 -0.13797763 -0.021576237
-0.017410798 0.06464694 -0.05939475 -0.028542075 0.03960046 -0.11776871 0.046527408 -0.010723066
0.055362653 0.02297474 0.054915 0.026657369 -0.032568946 -0.07442699 0.0023369095 -0.087512925
-0.04063956 -0.09353483 -0.061934195 -0.09780252 -0.0012286139 0.12840687 -0.037821792 -0.011950348
0.0083703045 0.04620184 0.086452566 -0.016298613 -0.11879581 0.06749194 0.0314128 -0.019901099
-0.11949566 -0.041938916 0.009843006 0.0800789 -0.07626873 -0.11522018 0.030903835 -0.041806668
-0.0028882078 -0.015738761 -0.013567317 0.07479107 0.06379769 -0.060490355 0.068182364 0.017362727
0.04748035 0.06665206 0.11969577 0.10245659 -0.11921952 -0.112294056 0.05272026 0.10043426
-0.021535104 0.044294048 0.06351034 0.11091992 -0.007340944 0.08445794 0.10532599 -0.03145215
0.082841925 -0.09184141 0.009379842 -0.03139872 0.07039167 0.016893221 -0.067530505 0.031213498
0.10676018 -0.04781603 0.10381636 -0.035691977 -0.100317396 -0.06564005 0.09722 -0.11229057
0.037226178 0.07907996 -0.07715525 -0.025493214 0.010568031 -0.024747767 -0.09662132 0.06119559
0.13153706 0.042236906 0.06857643 0.11861396 -0.017524622 0.063891135 0.038382422 -0.028263992
-0.020854231 -0.053837154 0.07377908 0.06297036 0.11146126 -0.086828604 -0.01996323 -0.031461094
-0.060598463 -0.010204356 0.01734836 -0.14042908 -0.05250895 -0.05339551 -0.052707262 0.031867508
0.06536826 0.008151219 -0.017241595 0.044377413 -0.09375473 -0.079427406 -0.101800844 0.06781617
0.022515258 -0.10351029 0.017596276 -0.05231104 -0.03918086 -0.07931702 -0.0034503536 0.013226753
-0.054476816 -0.026990706 -0.07935049 -0.08982224 -0.0069648298 0.0034386795 0.05878982 -0.011118644
0.06467501 -0.11730286 -0.014362227 0.07794001 0.04781572 0.016585745 -0.03771399 -0.009024422
00000000: c57d 943d 77ba 873d 0ec0 c53d be33 06bd
00000010: 5e95 35be ac0d adbd 4868 8a3d e032 663d
00000020: 39a2 a13c 114e 6d3d 7460 733d 4bee 32bd
00000030: fed4 543b bdc4 98bd ad3f d83c 6562 a73d
00000040: 8a05 0a3d 7bf7 f0bd 3c43 9dbd 597e 673d
00000050: 39eb cabd df01 933d 417e 6d3d 20b2 a0bd
00000060: 2507 9f3d 8712 91bc 8a0f b23d 5e21 3f3c
00000070: 12cd d0bd 4fe8 b03d 86db 953d ec0e c7bc
00000080: 645e 3fbe f45a e43c 293c 3b3d 2e35 26be
00000090: 2eed 813d ad2f 76bd fdfe 4c3d 00e2 a7bc
000000a0: c8e3 e13d 7d3b 2d3d e509 68bd ee0c c5bd
000000b0: ffca aabc a9ef 243d 1cc6 6e3d 36a1 9bba
000000c0: ad67 38bc 5303 8d3c 2334 bc3c fea5 4f3c
000000d0: 193f d3bd d6a2 43be 7a45 3bbb 1084 96bd
000000e0: 254f d4bc d32a 273d 07c9 e0bc 99dd 02bd
000000f0: 4dbd 55bc 5c87 77bd cd9f aebd fcef 413c
00000100: 9c1a b83d 9a70 ccbd f0a7 2e3c 07d6 773d
00000110: fad2 d43b c9e4 84bd ae9a 2abd ee52 da3d
00000120: e1c0 9dbd 3342 313d fd01 b83d a44d 54bd
00000130: 7bec 193d a517 a93b 3c1a 82bd 60ea 093e
00000140: 7803 7f3d 0b92 053e 04a9 073e ec48 b73d
00000150: 73fb f93d f284 cbbd 7178 01bd 0c52 96bd
00000160: eaae 893d e327 5a3d 1a73 ad3d 8fa3 74bb
00000170: 6818 e63d e54d f33d 438f cdbd 62d4 4ebd
00000180: dae9 903e 759d fa3c e2de 06bc cc13 9d3d
00000190: 5f7b bdbd 6bf5 a5bd fc48 923c f17a b13d
000001a0: 8fd6 d1bc 3376 81bd 4851 d0bd 67ae 6ebb
000001b0: 3145 523b ced6 ddbd 024a 0dbe a6c0 b0bc
000001c0: 17a1 8ebc 9d65 843d e947 73bd 12d1 e9bc
000001d0: 1834 223d b930 f1bd 8693 3e3d ccaf 2fbc
000001e0: f3c3 623d 8635 bc3c 8dee 603d 8e60 da3c
000001f0: 0467 05bd 2d6d 98bd d626 193b fa39 b3bd
00000200: ab75 26bd 308f bfbd b6ae 7dbd b04c c8bd
00000210: 7109 a1ba 177d 033e 06eb 1abd 64cb 43bc
00000220: 9a23 093c 243e 3d3d 0b0e b13d ab84 85bc
00000230: 384b f3bd 3739 8a3d b5aa 003d a107 a3bc
00000240: 24ba f4bd 24c8 2bbd 8f44 213c 6800 a43d
00000250: c832 9cbd 8ff8 ebbd 0a2a fd3c 783d 2bbd
00000260: 1648 3dbb 93ee 80bc 7449 5ebc 0f2c 993d
00000270: 5da8 823d bcc4 77bd 32a3 8b3d 473c 8e3c
00000280: c17a 423d e080 883d 0e23 f53d c3d4 d13d
00000290: 5d29 f4bd 6dfa e5bd 33f1 573d 7ab0 cd3d
000002a0: 636a b0bc ad6d 353d b611 823d fc29 e33d
000002b0: 4d8c f0bb 49f8 ac3d 27b5 d73d f8d3 00bd
000002c0: 07a9 a93d 5917 bcbd e9ad 193c f29b 00bd
000002d0: 8229 903d a763 8a3c 6f4d 8abd 73b3 ff3c
000002e0: 15a5 da3d beda 43bd ac9d d43d c031 12bd
000002f0: 3573 cdbd 4a6e 86bd 481b c73d 99f8 e5bd
00000300: 7a7a 183d adf4 a13d 9203 9ebd 25d7 d0bc
00000310: 8925 2d3c d4bb cabc 66e1 c5bd 3aa8 7a3d
00000320: a7b1 063e 9b00 2d3d cd71 8c3d e0eb f23d
00000330: cc8f 8fbc 5bd9 823d e336 1d3d e389 e7bc
00000340: 7ed6 aabc 5984 5cbd 7c19 973d 9bf6 803d
00000350: cd45 e43d 32d3 b1bd ed89 a3bc 59dd 00bd
00000360: 1836 78bd 2c30 27bc 261e 8e3c a4cc 0fbe
00000370: a013 57bd 40b5 5abd 92e3 57bd 8187 023d
00000380: cbdf 853d b18c 053c 3f3e 8dbc 17c5 353d
00000390: 7b02 c0bd d6aa a2bd f67c d0bd 34e3 8a3d
000003a0: eb71 b83c 34fd d3bd 1126 903c 1a44 56bd
000003b0: 1c7c 20bd f670 a2bd 541f 62bb 06b5 583c
000003c0: 1523 5fbd 9d1b ddbc 8282 a2bd b9f4 b7bd
000003d0: 3a39 e4bb 785b 613b 98cd 703d f92a 36bc
000003e0: 5574 843d 7b3c f0bd 8c4f 6bbc 039f 9f3d
000003f0: 6bda 433d d4de 873c fc79 1abd 2bdb 13bc

lstm.weight_ih_l0_reverse f4 [256, 100]
0.08665709 0.060199346 -0.0062739337 0.15145603 -0.098510526 0.055104274 -0.0113448305 0.05395311
-0.08192676 0.048076525 -0.011576879 0.14458123 -0.16763613 0.003518257 0.101959474 -0.2974877
-0.06392199 0.03797291 0.095108666 -0.076495335 -0.036023993 0.06768179 0.12756968 -0.038177647
-0.036506467 0.1547745 0.23126487 0.0035450272 0.1083371 -0.17210938 -0.041227944 0.07885292
0.04006729 0.016306 -0.027916107 0.2090757 -0.029193396 0.15442608 -0.10605434 0.06457414
0.097796455 -0.07682059 0.14376771 0.109451115 -0.07553165 0.07764759 -0.11772464 -0.0049080043
0.027932836 0.099574074 -0.039735653 0.086438954 0.024116285 0.094437666 -0.062997706 0.038176235
0.0030434432 -0.24258381 -0.012090607 -0.043744158 0.14924757 -0.0711004 -0.046927806 0.17038696
0.03948797 -0.0132743055 0.09164216 0.010082431 0.016515736 -0.053104874 0.07223318 0.07246764
0.08011109 -0.07087054 0.14479764 -0.0051994054 0.15175126 0.12318935 0.11088105 0.085305035
-0.1330963 -0.1153713 0.10456628 0.07737749 0.1755381 -0.054915424 0.02892117 -0.18408087
0.13609453 0.09845768 0.0085196905 -0.048748534 0.092501394 0.021320831 0.04194181 -0.0065670754
0.022857133 -0.12467115 0.0911728 0.016473934 -0.0619983 0.057481676 -0.09720649 -0.10639277
-0.06962174 0.17430049 -0.16508166 0.007373855 -0.09748681 0.1429012 0.07254841 -0.085581906
-0.10304375 -0.005011231 -0.07931979 0.13964777 -0.100295275 0.065835975 0.13671175 0.062250946
0.066542216 0.04556063 0.035979718 -0.028888568 -0.13823614 0.0140845515 -0.15592794 0.20381744
-0.060878437 -0.04180009 -0.04323871 -0.018638706 -0.067195 -0.050225265 -0.11072672 0.048322238
-0.10180582 0.05732814 -0.19284478 0.029262139 0.12916325 -0.0500644 0.02277975 -0.07036431
-0.013349883 -0.085736595 -0.026601167 0.12050296 0.0030140511 0.07705884 0.15530527 0.040327948
0.020982357 0.06527146 -0.048052847 0.039248113 0.07656968 0.109001264 -0.119163126 -0.06910469
-0.11215467 -0.10483451 -0.016104799 -0.10712436 -0.03722819 -0.16484629 -0.0568231 0.0039104205
0.050188433 -0.2352196 -0.0067825904 0.0045177094 0.11826586 0.16580546 0.1197786 0.09119705
0.0016607489 -0.019619724 0.039038576 0.03226628 -0.09040232 0.03241721 0.025871621 0.08335932
-0.012381248 0.2118927 -0.14880723 0.024972407 -0.07815286 0.09948227 0.028886752 -0.02126759
-0.004946568 -0.021397945 0.14566804 -0.020315021 0.14265348 -0.14023772 -0.0011724157 0.015837334
-0.10695529 -0.10766218 0.040250786 0.010185472 0.020069558 -0.020185553 -0.03683695 0.07348102
0.041581385 0.13256353 0.21756682 -0.026015796 -0.0658266 0.15440732 0.07069449 -0.0626981
0.06064568 -0.023954453 0.05344095 -0.02094151 -0.121912844 0.05767065 -0.008293836 -0.074780665
0.1261321 -0.13290556 -0.05502127 0.09298088 -0.029077068 -0.048095275 -0.11602305 0.027933938
0.06562212 0.10079047 -0.07245874 0.050475966 -0.18832897 0.062015243 -0.006529104 0.019181622
0.032863233 -0.09412247 0.004284622 -0.13507605 -0.076637596 -0.07507138 -0.009446766 -0.094694346
-0.11037063 -0.067856126 -0.11393076 -0.0024945452 0.14830159 -0.003325156 0.034878053 -0.15708347
00000000: 4679 b13d 9793 763d 9295 cdbb 4a17 1b3e
00000010: e3bf c9bd 05b5 613d abdf 39bc f0fd 5c3d
00000020: 38c9 a7bd e4eb 443d f3ac 3dbc 1a0d 143e
00000030: cea8 2bbe 8f92 663b 21d0 d03d 4f50 98be
00000040: 88e9 82bd 7b89 1b3d 55c8 c23d 96a9 9cbd
00000050: e58d 13bd c09c 8a3d a0a1 023e 2a60 1cbd
00000060: ce87 15bd 357d 1e3e b3d0 6c3e b053 683b
00000070: d7df dd3d 713d 30be a2de 28bd a47d a13d
00000080: 991d 243d 2994 853c 52b0 e4bc f117 563e
00000090: fd26 efbc df21 1e3e 0533 d9bd 723f 843d
000000a0: 8249 c83d 1d54 9dbd d837 133e e827 e03d
000000b0: 56b0 9abd b305 9f3d 9e19 f1bd 53d3 a0bb
000000c0: 67d3 e43c 7eed cb3d dac1 22bd e806 b13d
000000d0: 848f c53c 8968 c13d f104 81bd af5e 1c3d
000000e0: 8174 473b e467 78be ae17 46bc 132d 33bd
000000f0: 5bd4 183e 169d 91bd 5f37 40bd eb79 2e3e
00000100: 23be 213d 797c 59bc e3ae bb3d c830 253c
00000110: 024c 873c 7f84 59bd fdee 933d ea69 943d
00000120: 4811 a43d 9324 91bd d545 143e c65f aabb
00000130: af64 1b3e b34a fc3d 9b15 e33d 68b4 ae3d
00000140: 654a 08be ca47 ecbd d926 d63d 1778 9e3d
00000150: 42c0 333e ffee 60bd 17ec ec3c b27f 3cbe
00000160: 5d5c 0b3e 2ea4 c93d 2c96 0b3c 8bac 47bd
00000170: 5f71 bd3d 06a9 ae3c 2dcb 2b3d 9f30 d7bb
00000180: e23e bb3c 9753 ffbd ceb8 ba3d 58f4 863c
00000190: eef1 7dbd e871 6b3d 3214 c7bd 74e4 d9bd
000001a0: d895 8ebd d47b 323e 2b0b 29be 61a0 f13b
000001b0: 2aa7 c7bd b154 123e 4394 943d 9145 afbd
000001c0: 9a08 d3bd 4135 a4bb 6a72 a2bd d3ff 0e3e
000001d0: 9c67 cdbd 03d5 863d 2afe 0b3e d9fa 7e3d
000001e0: 4947 883d c89d 3a3d 785f 133d b8a7 ecbc
000001f0: c68d 0dbe e4c2 663c 93ab 1fbe 85b5 503e
00000200: ab5b 79bd 9236 2bbd 131b 31bd 33b0 98bc
00000210: 889d 89bd 02b9 4dbd b1c4 e2bd 8aed 453d
00000220: 927f d0bd e9d0 6a3d 1a79 45be 27b7 ef3c
00000230: 5f43 043e 5410 4dbd 999c ba3c 2a1b 90bd
00000240: 78b9 5abc ab96 afbd b1ea d9bc 42ca f63d
00000250: 6387 453b 06d1 9d3d 5808 1f3e eb2e 253d
00000260: 31e3 ab3c 0bad 853d 10d3 44bd a1c2 203d
00000270: 90d0 9c3d 0e3c df3d cc0b f4bd c286 8dbd
00000280: 59b1 e5bd 7ab3 d6bd 36ee 83bc 0464 dbbd
00000290: 967c 18bd 77cd 28be 57bf 68bd fc22 803b
000002a0: 6392 4d3d 68dd 70be 7e40 debb 4b09 943b
000002b0: 5f35 f23d e8c8 293e 7c4e f53d 85c5 ba3d
000002c0: 7cad d93a 8bb9 a0bc eae6 1f3d a629 043d
000002d0: da24 b9bd e9c7 043d b9f0 d33c 4bb8 aa3d
000002e0: b8da 4abc 66fa 583e ec60 18be ef92 cc3c
000002f0: 9b0e a0bd 5cbd cb3d e9a3 ec3c 5e39 aebc
00000300: d216 a2bb be4a afbc 012a 153e b06b a6bc
00000310: c113 123e 7a9a 0fbe beab 99ba 4cbd 813c
00000320: 600b dbbd fd7d dcbd 02de 243d f7e0 263c
00000330: ea68 a43c 2c5c a5bc 57e2 16bd 387d 963d
00000340: 3e51 2a3d bcbe 073e d6c9 5e3e 141f d5bc
00000350: 19d0 86bd f41c 1e3e 46c8 903d dd67 80bd
00000360: 9b67 783d 213c c4bc e6e4 5a3d 888d abbc
00000370: 71ad f9bd 0f38 6c3d dfe2 07bc 9b26 99bd
00000380: c628 013e 6518 08be fc5d 61bd c26c be3d
00000390: 0833 eebc 8dff 44bd 7e9d edbd b7d5 e43c
000003a0: e464 863d 3c6b ce3d 3f65 94bd e3bf 4e3d
000003b0: 4fd9 40be b203 7e3d 18f2 d5bb c722 9d3c
000003c0: 999b 063d 48c3 c0bd 0466 8c3b 6051 0abe
000003d0: 2cf4 9cbd 06bf 99bd 9cc6 1abc 1cef c1bd
000003e0: ff09 e2bd 27f8 8abd 8854 e9bd 867b 23bb
000003f0: 5fdc 173e dcea 59bb 4adc 0e3d 7dda 20be

lstm.weight_hh_l0_reverse f4 [256, 64]
0.051259756 -0.00500744 -0.19834825 0.09875561 -0.027619492 0.055524364 -0.06863656 -0.1159579
0.0054614414 0.036131423 -0.0020930879 -0.036345042 -0.11279545 0.060163826 0.013124305 0.007895565
-0.14716037 -0.08405181 -0.105307095 0.095531024 -0.07363862 -0.096013054 0.07995435 0.058897257
-0.039865177 0.05610978 0.0027677196 0.039212942 0.18794316 -0.04132347 -0.04598373 0.086273745
-0.010407098 0.0064175744 0.06960344 0.093718305 -0.088961326 -0.121633254 -0.010343337 0.0013979282
0.106097706 -0.007812692 -0.036505964 0.03561093 0.04064723 -0.023774507 0.13307713 -0.036459826
0.037917566 0.0024253947 0.19232364 0.08311176 0.09298519 0.07754077 -0.17420536 0.09860817
-0.13540308 0.09831283 -0.031346448 -0.008693499 0.028689248 -0.14075138 -0.03717769 0.07090218
-0.0014165689 -0.085956015 -0.07383953 0.06387094 -0.024148302 -0.094453 0.048816025 -0.020327471
-0.120676406 0.018678298 -0.019877335 -0.027984906 -0.18486658 -0.107153445 -0.037924837 0.054532748
0.07708529 -0.016070023 0.10049285 0.0915881 0.0520651 -0.010056766 -0.049934436 0.09603839
0.012314534 -0.024266532 -0.054267444 -0.091172025 0.03717295 0.03921057 0.089511104 -0.004865646
-0.019443117 -0.10333547 -0.11598029 -0.07758588 -0.07074857 0.060071204 -0.029312402 0.044997904
0.0809317 0.041446287 0.060345743 0.12123789 0.03398006 0.06559212 -0.1229373 0.14041178
-0.073705986 0.0389826 -0.062168226 -0.0077098785 0.042622168 -0.0763051 0.049015597 -0.027686518
-0.016042825 -0.02282108 0.021487352 -0.051719513 0.009664217 -0.05599478 0.013748796 -0.024262581
-0.101372406 0.03226487 0.018241433 -0.14511663 -0.06461088 0.09790855 -0.073433734 0.0787744
-0.123788305 0.10473704 -0.056180097 0.073742725 0.032148574 -0.11075766 -0.045378067 -0.1123749
-0.09820632 0.09001284 0.041640542 -0.06498726 -0.17418773 0.12563224 -0.16651796 -0.023493616
-0.012347526 0.057872076 0.05554402 0.02944217 -0.028215798 0.054040194 -0.05216922 -0.013565111
-0.16488957 0.20285365 0.055711698 -0.08733138 -0.19128162 0.045289937 -0.013716944 0.015868034
-0.04235903 0.00021375399 0.06184164 -0.040837735 -0.05555199 0.11350342 -0.14455616 0.112288475
0.16748941 -0.032478962 -0.022350753 -0.13380867 -0.019636368 -0.112496644 0.00477355 -0.060975943
0.010932233 -0.09860108 -0.010159961 -0.011023998 0.036560707 -0.01743916 -0.15026079 -0.04781846
-0.13966876 -0.03726643 0.0063906065 -0.066716954 0.062131148 -0.04741065 0.05387634 -0.018563608
-0.119424775 0.14565608 -0.070599765 0.09991469 0.051816236 -0.017131187 -0.11917894 0.08766787
-0.10178735 -0.0077937357 -0.048238806 0.069718726 -0.14103176 -0.013302402 -0.016196493 0.03406721
-0.07030074 -0.12633103 0.037570294 0.091304146 -0.05650527 0.015146089 0.04081996 0.12898299
0.12501565 0.037723694 0.035209246 0.12509464 -0.056132548 0.044671435 0.013219368 0.042387262
0.06291265 0.0114508085 -0.04977453 0.08582061 0.04037556 0.04002872 0.07203345 0.010274391
0.07569998 -0.043037396 -0.047933787 -0.06924228 0.01851337 0.09174475 -0.1108771 0.047950357
-0.08604324 0.11085876 -0.1749762 -0.06361438 -0.0063019227 -0.083273 0.05325887 -0.06773597
00000000: c0f5 513d 7415 a4bb ce1b 4bbe 6240 ca3d
00000010: 4642 e2bc 846d 633d 5391 8cbd 567b edbd
00000020: e4f5 b23b 8bfe 133d 302c 09bb 8ade 14bd
00000030: 4d01 e7bd 586e 763d 5307 573c 665c 013c
00000040: 35b1 16be 5b23 acbd 3fab d7bd c5a5 c33d
00000050: d8cf 96bd 7ea2 c4bd 1bbf a33d 403e 713d
00000060: ab49 23bd 5ed3 653d a162 353b c09d 203d
00000070: 2c74 403e cd42 29bd 7059 3cbd 4ab0 b03d
00000080: 8882 2abc 844a d23b 408c 8e3d 62ef bf3d
00000090: 5b31 b6bd db1a f9bd 1a77 29bc b03a b73a
000000a0: c149 d93d ce00 00bc 4787 15bd c4dc 113d
000000b0: b67d 263d c1c2 c2bc 5f45 083e e656 15bd
000000c0: 734f 1b3d 5ff3 1e3b 7df0 443e 8036 aa3d
000000d0: 056f be3d b2cd 9e3d e462 32be 15f3 c93d
000000e0: 1ba7 0abe 3d58 c93d 2265 00bd 2d6f 0ebc
000000f0: b705 eb3c 2121 10be a247 18bd 2a35 913d
00000100: 2aac b9ba b509 b0bd 2e39 97bd c4ce 823d
00000110: a9d2 c5bc 9370 c1bd 50f3 473d cc85 a6bc
00000120: 3125 f7bd 3b03 993c cbd5 a2bc 9a40 e5bc
00000130: aa4d 3dbe 4473 dbbd 1357 1bbd bb5d 5f3d
00000140: e4de 9d3d 48a5 83bc 32cf cd3d 8b92 bb3d
00000150: 3742 553d 22c5 24bc 0d88 4cbd c7af c43d
00000160: e6c2 493c 9bca c6bc 8a47 5ebd 66b8 babd
00000170: aa42 183d 439b 203d 9951 b73d ff6f 9fbb
00000180: 2c47 9fbc 8ca1 d3bd 1387 edbd 59e5 9ebd
00000190: a0e4 90bd 390d 763d 9020 f0bc b94f 383d
000001a0: 85bf a53d 95c3 293d 192d 773d 924b f83d
000001b0: ad2e 0b3d 2955 863d 8dc6 fbbd 1bc8 0f3e
000001c0: 2af3 96bd 38ac 1f3d 1ca4 7ebd 26a3 fcbb
000001d0: 9594 2e3d d945 9cbd 94c4 483d d6ce e2bc
000001e0: 3e6c 83bc 46f3 babc 3e06 b03c d7d7 53bd
000001f0: aa56 1e3c c85a 65bd a142 613c 52c2 c6bc
00000200: 569c cfbd 2b28 043d 0f6f 953c 7499 14be
00000210: b652 84bd 4784 c83d 6d64 96bd 7954 a13d
00000220: b984 fdbd 6080 d63d 1a1d 66bd 6d06 973d
00000230: 39ae 033d e9d4 e2bd 5ade 39bd d024 e6bd
00000240: 6520 c9bd a758 b83d 468f 2a3d 0a18 85bd
00000250: 455e 32be bda5 003e af83 2abe af75 c0bc
00000260: 474d 4abc 450b 6d3d 2082 633d b530 f13c
00000270: d124 e7bc 4059 5d3d 64af 55bd 3340 5ebc
00000280: d0d8 28be deb8 4f3e f331 643d cbda b2bd
00000290: 54df 43be f181 393d 08bd 60bc aefd 813c
000002a0: aa80 2dbd 2623 6039 a94d 7d3d 7845 27bd
000002b0: 7c8a 63bd 7b74 e83d 8806 14be 80f7 e53d
000002c0: 5882 2b3e a908 05bd ed18 b7bc 2405 09be
000002d0: 73dc a0bc a464 e6bd 716b 9c3b e9c1 79bd
000002e0: 1c1d 333c 5def c9bd f775 26bc 009e 34bc
000002f0: aec0 153d 92dc 8ebc f7dd 19be 4add 43bd
00000300: 5405 0fbe afa4 18bd 4b68 d13b e6a2 88bd
00000310: 3b7d 7e3d ab31 42bd 70ad 5c3d b512 98bc
00000320: fa94 f4bd de26 153e 9c96 90bd 13a0 cc3d
00000330: 433d 543d b456 8cbc 1714 f4bd 368b b33d
00000340: e375 d0bd 9862 ffbb 0e96 45bd b1c8 8e3d
00000350: a16a 10be 51f2 59bc 82ae 84bc 0f8a 0b3d
00000360: d6f9 8fbd ec5c 01be 4fe3 193d abfd ba3d
00000370: 1272 67bd 4d27 783c d532 273d 1e14 043e
00000380: 1a04 003e 2984 1a3d 9237 103d cf18 003e
00000390: 3eeb 65bd 65f9 363d 0c96 583c 449e 2d3d
000003a0: 59d8 803d 2c9c 3b3c 61e0 4bbd b7c2 af3d
000003b0: d860 253d 28f5 233d 4686 933d eb55 283c
000003c0: 9708 9b3d fb47 30bd 3856 44bd e6ce 8dbd
000003d0: 5aa9 973c ace4 bb3d 8813 e3bd 9867 443d
000003e0: 7037 b0bd eb09 e33d f62c 33be 4248 82bd
000003f0: 5c80 cebb 098b aabd f925 5a3d 28b9 8abd

lstm.bias_ih_l0_reverse f4 [256]
0.07341158 -0.1224995 -0.019864673 -0.017432649 -0.07982471 -0.069536544 -0.13775763 -0.14373723
-0.048827082 -0.0865643 0.13163756 -0.14248474 0.020944424 0.03683197 0.097192355 -0.016017886
-0.03945587 0.04996198 -0.011343867 0.03322907 -0.016974553 -0.102450505 0.037408292 -0.14830232
0.077497035 -0.15744641 -0.0072220466 -0.14952059 -0.12179095 0.07708945 -0.13511926 0.042640187
-0.004818943 -0.0057341014 -0.04500283 -0.10251111 -0.021215538 0.07568799 0.01560295 -0.10985631
0.03258236 0.02728375 -0.12299243 -0.073243126 -0.11246312 0.031462833 -0.063285686 0.024687286
0.09415394 -0.09205163 -0.03360639 -0.0975222 -0.07926227 -0.08876074 -0.16220103 -0.095395006
-0.0007822153 0.046207625 0.061345417 -0.054152805 -0.006550378 0.088605694 0.039334126 -0.12485431
-0.1078856 -0.085942194 0.05404041 0.07994629 -0.102511056 -0.07741779 -0.12458252 0.0011872726
-0.09271071 -0.0913266 0.011772135 0.085598364 0.105434276 0.075508624 0.026894642 -0.01338363
-0.07344712 -0.06171052 0.043201696 0.094066046 0.0031473187 -0.1513584 -0.12643118 -0.07937095
-0.012129536 -0.15989044 0.050580185 -0.17384115 -0.04779766 -0.11657918 0.0064466777 0.008000586
-0.12786007 0.058013786 0.07277502 -0.09600106 -0.06849224 -0.1208792 0.14857313 -0.037097856
-0.120913506 -0.10837238 -0.059480987 -0.08082134 -0.08857115 0.07447041 0.006537042 -0.104222186
0.036099643 0.05574201 -0.02685372 -0.12889531 -0.16951805 -0.08042317 -0.1581999 -0.05051505
0.01201832 -0.05590288 -0.13940929 -0.118738666 0.05308952 -0.060916036 -0.07816564 -0.10642576
0.084191956 0.062355272 0.06768861 -0.04471635 -0.045067213 0.014768586 0.019454733 0.084287465
0.04834886 0.09053757 -0.09317916 0.10873695 0.04127269 -0.06827705 -0.11697351 -0.061438974
0.020382095 -0.06957234 -0.055486187 -0.048929483 -0.0220212 0.006729726 0.12021537 -0.021364033
-0.06250292 -0.06318504 0.05382428 0.078967534 -0.0025725805 0.01406755 0.08008392 -0.12781799
-0.117987186 0.08785901 -0.067663826 0.035794966 0.03135604 0.031192498 -0.074211985 -0.008377293
-0.0016421332 0.017921083 0.052594334 0.102233216 -0.05525312 0.010687023 -0.013112408 0.10115865
0.08590744 0.1544623 0.085745595 -0.020452047 0.04470936 -0.051162902 -0.1380088 0.04943981
-0.11622088 0.03076493 -0.043372218 -0.13061397 0.06544211 -0.015588259 -0.055536397 0.03169595
0.09481607 -0.05034868 0.0027919547 0.03117064 -0.08241507 -0.11707653 0.05277314 -0.0028763106
0.008433454 -0.043348115 -0.07255653 -0.06162061 -0.13044813 -0.13470507 -0.0015342226 -0.011628808
0.09538999 -0.019431625 0.10766299 0.043993935 0.07776599 0.018954346 0.040775508 -0.02270958
-0.10597005 -0.092455514 -0.08427507 0.01507895 0.023212917 -0.07681555 -0.1537405 -0.09267862
-0.025914894 0.048449647 0.008960633 -0.085790634 -0.028803531 -0.08672982 -0.0940296 -0.038480066
-0.097080044 -0.11571996 -0.00595268 0.014238301 -0.0094538815 -0.10924659 -0.0045757825 -0.047515158
-0.03762893 -0.101153366 -0.03431731 -0.13921337 0.05217622 -0.040921103 0.023799913 -0.018730624
0.13551527 0.07899515 0.007401638 0.011048058 -0.011009825 -0.09162096 -0.06917681 0.05507602
00000000: cf58 963d 05e1 fabd 3dbb a2bc eace 8ebc
00000010: 237b a3bd 2d69 8ebd 5610 0dbe da2f 13be
00000020: e8fe 47bd a048 b1bd ffcb 063e 85e7 11be
00000030: a493 ab3c 1fdd 163d c90c c73d f137 83bc
00000040: 7a9c 21bd efa4 4c3d a0db 39bc 351b 083d
00000050: 380e 8bbc 92d1 d1bd 7039 193d 90dc 17be
00000060: c4b6 9e3d a239 21be eba6 ecbb ed1b 19be
00000070: 896d f9bd 13e1 9d3d b45c 0abe 7aa7 2e3d
00000080: 39e8 9dbb 21e5 bbbb e354 38bd 58f1 d1bd
00000090: 35cc adbc 4e02 9b3d 84a3 7f3c 58fc e0bd
000000a0: 1575 053d 2c82 df3c 75e3 fbbd 7e00 96bd
000000b0: 1053 e6bd 2cdf 003d ed9b 81bd fe3c ca3c
000000c0: c8d3 c03d 9185 bcbd dba6 09bd b8b9 c7bd
000000d0: 4254 a2bd 31c8 b5bd 0718 26be 755e c3bd
000000e0: 950d 4dba 3544 3d3d 5545 7b3d 55cf 5dbd
000000f0: 8ea4 d6bb e776 b53d d21c 213d 9eb3 ffbd
00000100: 20f3 dcbd 7602 b0bd 7a59 5d3d e1ba a33d
00000110: 51f1 d1bd 388d 9ebd 1f25 ffbd 429e 9b3a
00000120: 1ddf bdbd 7109 bbbd eadf 403c 324e af3d
00000130: eded d73d 44a4 9a3d 2752 dc3c 0347 5bbc
00000140: 726b 96bd 2cc4 7cbd 43f4 303d b3a5 c03d
00000150: 3f43 4e3b b2fd 1abe 2d77 01be 3d8d a2bd
00000160: f6ba 46bc 52ba 23be 2b2d 4f3d 6a03 32be
00000170: 7bc7 43bd 11c1 eebd a73e d33b e414 033c
00000180: c0ed 02be dd9f 6d3d 120b 953d 349c c4bd
00000190: a945 8cbd 848f f7bd 8e23 183e ecf3 17bd
000001a0: 80a1 f7bd 57f2 ddbd 56a2 73bd a985 a5bd
000001b0: cb64 b5bd f183 983d af34 d63b 7172 d5bd
000001c0: 38dd 133d bc51 643d 55fc dbbc 22fd 03be
000001d0: 2496 2dbe e7b4 a4bd 28ff 21be dee8 4ebd
000001e0: 7de8 443c 6bfa 64bd 4fc1 0ebe 422d f3bd
000001f0: 6674 593d 1883 79bd 4f15 a0bd c0f5 d9bd
00000200: d56c ac3d 3e68 7f3d 53a0 8a3d 7e28 37bd
00000210: 6698 38bd f0f7 713c 885f 9f3c e89e ac3d
00000220: 7409 463d c36b b93d b7d4 bebd 7ab1 de3d
00000230: 8d0d 293d d7d4 8bbd cf8f efbd 6fa7 7bbd
00000240: 5af8 a63c f17b 8ebd 7c45 63bd 486a 48bd
00000250: ce65 b4bc 0985 dc3b 7a33 f63d a003 afbc
00000260: 8801 80bd 2967 81bd d976 5c3d bbb9 a13d
00000270: bd98 28bb 957b 663c 0a03 a43d b8e2 02be
00000280: 44a3 f1bd 6def b33d 5593 8abd be9d 123d
00000290: 316f 003d 6987 ff3c 74fc 97bd ea40 09bc
000002a0: d93c d7ba 3ccf 923c 286d 573d a65f d13d
000002b0: 1851 62bd a018 2f3c 6dd5 56bc 442c cf3d
000002c0: 3df0 af3d 5d2b 1e3e 639b af3d 0d8b a7bc
000002d0: 2921 373d 3190 51bd 2e52 0dbe 6681 4a3d
000002e0: 3605 eebd bc06 fc3c 11a7 31bd abbf 05be
000002f0: 8306 863d e665 7fbc 227a 63bd 9dd3 013d
00000300: ed2e c23d 6b3a 4ebd 3af9 363b 9259 ff3c
00000310: 3bc9 a8bd d2c5 efbd a628 583d 7c80 3cbb
00000320: 782c 0a3c cb8d 31bd 8598 94bd e565 7cbd
00000330: 3294 05be 20f0 09be f817 c9ba c286 3ebc
00000340: d45b c33d 122f 9fbc 6a7e dc3d fc32 343d
00000350: c643 9f3d 2546 9b3c 3804 273d 7109 babc
00000360: d306 d9bd 5159 bdbd 6898 acbd b30d 773c
00000370: 0429 be3c 7951 9dbd 266e 1dbe 4ace bdbd
00000380: 794b d4bc 2373 463d 9ecf 123c 00b3 afbd
00000390: 62f5 ebbc 679f b1bd 9792 c0bd 469d 1dbd
000003a0: e7d1 c6bd 96fe ecbd b30e c3bb c347 693c
000003b0: 74e4 1abc adbc dfbd 72f0 95bb 419f 42bd
000003c0: cb20 1abd 7f29 cfbd 4f90 0cbd f38d 0ebe
000003d0: bbb6 553d e39c 27bd 09f8 c23c f770 99bc
000003e0: 84c4 0a3e 36c8 a13d 7189 f23b ea02 353c
000003f0: 8e62 34bc c5a3 bbbd 92ac 8dbd 6597 613d
