exercises/checkpoint.pt (torch, 423140 bytes, 7 tensors)

rnn.weight_ih_l0 f4 [384, 100]
0	0x3bd00ca6	0.006349164
1	0xbd010df2	-0.03150744
2	0xbda69f06	-0.081358
3	0x3dad86d4	0.08472982
4	0x3ddfe50a	0.109323576
5	0x3d998fd7	0.074981384
6	0xbcefdde0	-0.029280603
7	0x3bdd83f4	0.006760115
8	0xbdda7cc2	-0.10668327
9	0x3ddf820e	0.10913478
10	0xbd863a4d	-0.06554089
11	0xbde3e76b	-0.11128124
12	0xbd774697	-0.060370054
13	0x3d89e9d3	0.067340516
14	0xbe03a900	-0.12857437
15	0xbdbc9190	-0.09207451
16	0x3d321406	0.043476127
17	0x3cd65704	0.02616454
18	0xbdd48acd	-0.10378037
19	0xbc5fadc6	-0.013652271
20	0x3d439cca	0.047756948
21	0xbd2b058c	-0.041753337
22	0xbd7261b7	-0.05917522
23	0x3d80744b	0.06272181
24	0xbd3f9082	-0.046768673
25	0x3c9b1026	0.018928599
26	0x3dabfd4d	0.08397923
27	0x3dc5274f	0.09626638
28	0x3e29f81a	0.1659855
29	0xbd0f8f5a	-0.03504882
30	0x3d2a1ce6	0.041531466
31	0x3d725e37	0.05917188
32	0x3e00c08c	0.12573451
33	0x3e294203	0.16529088
34	0xbd2866c1	-0.04111362
35	0x3cd2eafe	0.025746819
36	0x3cb94d2f	0.022619812
37	0x3d4818af	0.048851665
38	0xbbcefcb6	-0.0063167466
39	0xbcfd8ea9	-0.030951815
40	0xbda3c375	-0.07996265
41	0xbd09b365	-0.03361835
42	0x3e105301	0.14094163
43	0xbd944e24	-0.07241467
44	0xbc147213	-0.009060401
45	0x3dc8366c	0.09776005
46	0xbd03eb49	-0.032206807
47	0xbb947ce2	-0.0045314888
48	0x3d9d5b50	0.07683432
49	0x3c961cf4	0.018324353
50	0x3dcd169e	0.100140795
51	0x3c8a5513	0.01688627
52	0x3ca0e773	0.019641614
53	0xbd9cfaaf	-0.076650016
54	0xbc98b6dc	-0.018641882
55	0xbc4feb00	-0.012690306
56	0xbde7d009	-0.113189764
57	0xbc8a60d6	-0.016891878
58	0xbb5d6633	-0.003378284
59	0x3d69ed6d	0.057111192
60	0xbce51929	-0.027966099
61	0x3d81ae3d	0.063320614
62	0x3d764938	0.06012842
63	0xbe281905	-0.16415794
64	0xbcde604b	-0.027145525
65	0x3d881db6	0.06646292
66	0xbdd75a6b	-0.10515293
67	0xbbf75f11	-0.0075491746
68	0x3cd8ff37	0.026488883
69	0x3e28ee1e	0.16497084
70	0x3d783fa3	0.060607564
71	0x3d95fa11	0.07323087
72	0x3dd9067e	0.105969414
73	0xbde84009	-0.11340339
74	0x3af374ae	0.0018574202
75	0x3d45f970	0.048333585
76	0x3de2ba70	0.110707164
77	0xbcd5765b	-0.026057413
78	0x3dae3ab4	0.085072905
79	0x3e01f3b9	0.12690629
80	0xbbc01694	-0.0058620665
81	0x3ba0bbf2	0.0049052173
82	0x3d7c1148	0.06153992
83	0x3dd10422	0.102058664
84	0x3d6c9e9f	0.05776846
85	0x3dcafa65	0.0991104
86	0xbd6d1bde	-0.057887904
87	0x3d641bca	0.055690564
88	0x3be24381	0.0069050197
89	0x3d27ef17	0.0409995
90	0x3df0284d	0.11726437
91	0x3cd08202	0.025452618
92	0x3d36ab40	0.04459691
93	0xbdc6b167	-0.097018056
94	0xbcb47c34	-0.02203188
95	0x3db36137	0.08758777
96	0x3c90578c	0.01761987
97	0xbd9a7367	-0.075415425
98	0xbb7d36be	-0.0038637365
99	0x3c4879ee	0.012236102
100	0x3e1bf7f9	0.15231313
101	0x3d8a0383	0.06738951
102	0xbd95b290	-0.07309449
103	0xbdaf7818	-0.08567828
104	0xbe26536f	-0.16242765
105	0xbd819514	-0.063272625
106	0x3c2c5d85	0.010520344
107	0x3d142980	0.03617239
108	0x3e20b91b	0.15695612
109	0x3a06c7b6	0.00051414536
110	0xbd230e5a	-0.03980861
111	0x3d41e53d	0.04733776
112	0x3d362ddc	0.04447733
113	0x3e2d262a	0.1690909
114	0x3c980492	0.018556867
115	0xbdf18258	-0.11792439
116	0x3d032d0c	0.032025382
117	0xbb3c4f90	-0.0028733946
118	0xbd12c7d3	-0.0358351
119	0x3d8f9605	0.07011036
120	0xbd39c814	-0.045356825
121	0x3d7b8b2d	0.061412025
122	0xbe1dfe4e	-0.15429041
123	0xbcf78c88	-0.030218378
124	0x3cd9b302	0.026574615
125	0xbcdcfe66	-0.026976775
126	0x3cdbf9d7	0.026852531
127	0xbd1d9c4b	-0.03847913
128	0x3dba9e2e	0.09112202
129	0xbce05bf4	-0.027387597
130	0x3b30321c	0.0026885336
131	0x3cc893f0	0.024484605
132	0x3da83cda	0.082147315
133	0x3c90e5d9	0.017687725
134	0xbe036c8b	-0.12834375
135	0x3c90829a	0.0176404
136	0xbd0d851b	-0.034550767
137	0x3cd72f07	0.026267542
138	0x3d140c4d	0.036144543
139	0xbd5afbad	-0.053462673
140	0xbcc4836f	-0.023988454
141	0x3a57a8a9	0.00082267314
142	0xbdaf3953	-0.085558556
143	0x3d6ba5c5	0.057531137
144	0x3d83038c	0.06397161
145	0x3c6cc8c4	0.014452163
146	0x3ad470a1	0.0016207882
147	0xbdb20cc8	-0.08693844
148	0xbdcc8d70	-0.099879146
149	0x3dadee8d	0.084927656
150	0x3d07a054	0.033111885
151	0xbd690f4c	-0.056899354
152	0x3d7e5a16	0.06209763
153	0x3cddd94b	0.027081152
154	0x3d32fac3	0.043696176
155	0xbd7fa448	-0.06241253
156	0x3cd60fdf	0.026130615
157	0x3b9bc96f	0.0047542374
158	0x3d9729a5	0.0738099
159	0xbc4d6dfd	-0.01253843
160	0x3d470e28	0.048597485
161	0xbdb21954	-0.08696237
162	0x3c8b4c8a	0.01700427
163	0x3d84dc25	0.06487302
164	0xbd6f9107	-0.05848792
165	0x3c0fe30f	0.008782162
166	0xba52e908	-0.00080455886
167	0xbd391bf2	-0.045192666
168	0x3c829594	0.015940465
169	0xbd32eb08	-0.043681175
170	0x3ba85c12	0.0051379288
171	0x3cc7bc73	0.024381852
172	0x3dbf30ee	0.093355045
173	0x3c8d1637	0.017222507
174	0xbd822298	-0.063542545
175	0xbd79a4bd	-0.060948122
176	0xbccc66cc	-0.024951361
177	0x3bac6d86	0.0052620796
178	0xbd9e2e03	-0.0772362
179	0x3dd857b4	0.10563603
180	0x3c44063b	0.011964376
181	0x3d04abc4	0.03239037
182	0xbcc87b31	-0.024472805
183	0x3d71000b	0.05883793
184	0x3d8841ac	0.06653151
185	0xbcef61de	-0.029221471
186	0xb7bf00e0	-2.2769382e-05
187	0xbd99b084	-0.07504371
188	0xbc58f643	-0.013242307
189	0xbc9cbb64	-0.019132324
190	0xbd368996	-0.044564806
191	0x3afa95d5	0.001911814
192	0x3d8795d5	0.06620375
193	0x3e05d8ca	0.1307098
194	0xbd1564df	-0.03647315
195	0x3d38e644	0.045141473
196	0x3d9eb399	0.07749099
197	0x3e1c29a7	0.15250264
198	0xbd0e710f	-0.03477579
199	0x3d393f47	0.04522636
200	0xbd372852	-0.044716187
201	0x3da75b96	0.081717655
202	0x3d5fb536	0.054616176
203	0x3d7f97c7	0.062400606
204	0xbda1c329	-0.07898552
205	0xbb43e0ec	-0.0029888703
206	0xbdfa504b	-0.12222346
207	0xbd374234	-0.04474087
208	0xbd1981aa	-0.037477173
209	0xbd1734ab	-0.036915462
210	0x3cd287ac	0.025699459
211	0x3699a480	4.5789056e-06
212	0x3d6cb790	0.057792246
213	0x3cd46da9	0.025931196
214	0xbd646551	-0.055760685
215	0xbcc90f00	-0.024543285
216	0xbcd2748c	-0.02569034
217	0xbcceca7b	-0.025243035
218	0xbd3d614e	-0.046235375
219	0x3d4ea662	0.050451644
220	0xbdd78160	-0.10522723
221	0xbcf1647e	-0.029466864
222	0xbdc1aa7d	-0.09456346
223	0x3bbdcf7a	0.0057925554
224	0xbc298fda	-0.010349238
225	0xbde55ee9	-0.11199743
226	0xbda9a726	-0.08283834
227	0x3badd402	0.0053048143
228	0x3e08dd1e	0.133656
229	0x3d17a21f	0.037019845
230	0x39c4dd74	0.0003754903
231	0xbd03c0ee	-0.032166414
232	0x3bae1d51	0.0053135534
233	0x3c3ca3c4	0.011513654
234	0x3dfbfca7	0.12304049
235	0xbc3aa6fd	-0.011392352
236	0x3d45402a	0.048156895
237	0xbca45f4b	-0.02006497
238	0xbd23dd9d	-0.04000627
239	0xbd51be92	-0.051207133
240	0xbe15ff54	-0.14648181
241	0xbd630eda	-0.055434085
242	0x3d617f2f	0.055052932
243	0xbca5e4d3	-0.020250713
244	0xbdb40079	-0.08789153
245	0xbc1f609c	-0.009727623
246	0xbdc884ac	-0.0979093
247	0x3d570c58	0.052502006
248	0xbdeca3f3	-0.11554708
249	0x3d33250d	0.043736506
250	0xbccab1de	-0.024743017
251	0xbba4b2b8	-0.0050261877
252	0xbc4b37cd	-0.012403441
253	0xbb494585	-0.0030711603
254	0x3d7dd3cc	0.061969563
255	0x3d670f76	0.05641123

rnn.weight_hh_l0 f4 [384, 128]
0	0x3ac4e24c	0.0015021055
1	0x3d22d898	0.03975734
2	0x3d69be6e	0.057066374
3	0x3d1bd08c	0.038040683
4	0x3d34533b	0.044024687
5	0x3d18a853	0.0372699
6	0xbdc38c01	-0.09548188
7	0xbdc4e5b3	-0.09614124
8	0xbd03ff6a	-0.032226004
9	0xbd15d915	-0.03658398
10	0xbc8228c7	-0.015888585
11	0x3daef533	0.08542862
12	0xbdd37664	-0.103253156
13	0xbd616ff9	-0.055038426
14	0x3aa559ec	0.00126153
15	0x3d0a06b0	0.033697784
16	0xbca4555a	-0.02006023
17	0x3db1e443	0.086861156
18	0x3c1865dc	0.009301629
19	0xbc1ca7e9	-0.009561517
20	0x3ce82ea4	0.028342552
21	0xbc220ba0	-0.009890467
22	0xbd84a8f7	-0.0647754
23	0xbc0f2247	-0.0087362
24	0x3d81849d	0.06324122
25	0xbcadcc4e	-0.021215584
26	0x3c1c5625	0.009542023
27	0x3dd7c601	0.10535813
28	0xbcc711ff	-0.024300573
29	0xbb087a57	-0.0020824873
30	0xbba61507	-0.0050684246
31	0xbd70efef	-0.05882257
32	0xbd1d19de	-0.038354747
33	0x3d1237c7	0.035697725
34	0x3d7d26f7	0.061804738
35	0x3d4ed0ef	0.050492223
36	0x3d1dfcbc	0.038571104
37	0xbcd3a816	-0.025836986
38	0xbdc6d791	-0.09709085
39	0xbd54509d	-0.05183469
40	0x3d130717	0.035895433
41	0xb9d0d17a	-0.00039828924
42	0x3c63ac06	0.013895994
43	0x3d2c7d52	0.042111702
44	0x3d17a357	0.037021007
45	0xbd47daf2	-0.048792787
46	0xbba15242	-0.004923136
47	0xbc078b66	-0.008272981
48	0xbda9d014	-0.08291641
49	0x3c786372	0.015160428
50	0xbdf21808	-0.1182099
51	0x3e098839	0.13430871
52	0x3dc0fcf1	0.09423245
53	0x3d79d7a2	0.06099666
54	0x3d78c3b9	0.06073353
55	0x3d308c04	0.04310228
56	0x3dc64ce1	0.09682632
57	0xbcd17166	-0.025566768
58	0xbd0db254	-0.034593895
59	0x3dc6fa1e	0.09715675
60	0xbdbdae10	-0.092617154
61	0x3c5925fe	0.013253687
62	0x3d2b3d13	0.04180629
63	0x3cad73e1	0.02117342
64	0x3cdff019	0.027336167
65	0x3dabcb12	0.08388342
66	0xbbd6346a	-0.00653701
67	0xbd79c6d7	-0.060980644
68	0x3cfb6fe3	0.030693
69	0x3d3ba8ee	0.0458154
70	0x3c3e03a8	0.011597551
71	0xbcc8ed19	-0.02452712
72	0x3c94899c	0.018132024
73	0xbc2e7de8	-0.010650136
74	0xbba37de3	-0.004989372
75	0x3d004510	0.031315863
76	0x3d005465	0.031330485
77	0x3c95e7aa	0.018298943
78	0xbdc77e4d	-0.09740887
79	0xbdb4a42a	-0.08820374
80	0xbd5d91aa	-0.054093994
81	0xbe06973b	-0.13143627
82	0x3df18f5f	0.11794924
83	0x3d67fa35	0.0566351
84	0x3c38ce89	0.011279711
85	0x3d072fab	0.033004444
86	0x3cd57cd0	0.026060492
87	0x3c3abfbb	0.011398251
88	0x3ccb91dd	0.024849826
89	0xbdbba2d0	-0.091619134
90	0xbd88a431	-0.06671942
91	0x3da62991	0.08113397
92	0xbcad457f	-0.021151302
93	0x3cca4bbb	0.024694314
94	0xbcd483b2	-0.025941703
95	0xbd4eefb0	-0.050521553
96	0x3d5f6168	0.054536253
97	0x3dbe2c6b	0.09285816
98	0x3d0b3b1c	0.033991918
99	0xbbea9509	-0.0071588797
100	0xbc74a676	-0.0149322655
101	0xbc7f3649	-0.015576907
102	0x3d68bdc4	0.0568216
103	0x3cf73e71	0.030181142
104	0x3cf4e981	0.0298965
105	0xbc39a070	-0.011329755
106	0x3d83ea17	0.064411335
107	0xbdd664b8	-0.10468429
108	0xbd9245ca	-0.071422175
109	0x3d7ad5ce	0.061239056
110	0x3ce8779c	0.028377347
111	0x3cc0300d	0.023460412
112	0xbda07747	-0.0783525
113	0x3ba2f2f9	0.0049728123
114	0xbd8d1a77	-0.068898134
115	0xbd69beaa	-0.057066597
116	0x3d0253ab	0.031818073
117	0xbd99574d	-0.074873544
118	0x3cec25ea	0.028826673
119	0xbdd44f16	-0.10366647
120	0x3d44214b	0.047883313
121	0x3c01c00b	0.007919322
122	0xbddb4092	-0.10705675
123	0xbdf8bdd0	-0.12145579
124	0x3d95b8a3	0.07310607
125	0xbb567f7e	-0.00327298
126	0xbd888c87	-0.066674285
127	0xbcd79a47	-0.026318682
128	0xbcfc943d	-0.030832404
129	0x3c910688	0.01770331
130	0x3cd6e6b8	0.026233062
131	0x3da31207	0.07962423
132	0x3d68e950	0.05686313
133	0xbd36f9b1	-0.044671718
134	0x3d955835	0.07292215
135	0xbd8f01ef	-0.06982791
136	0x3c6cb515	0.01444747
137	0xbda27b46	-0.07933669
138	0x3d15e9a6	0.036599778
139	0xbdc05c99	-0.093926616
140	0x3d86aa25	0.06575421
141	0xbd052fe7	-0.032516386
142	0x3b9fcb34	0.0048765186
143	0x3ab6cdb0	0.0013946798
144	0xbd8e0014	-0.06933609
145	0xbda1bb51	-0.07897056
146	0x3de1abed	0.1101912
147	0x3dc15049	0.09439141
148	0xbd0ffce8	-0.0351533
149	0xbb163d1b	-0.0022924605
150	0x3c2c0660	0.010499567
151	0xbd4145f7	-0.047185864
152	0xbc1327e2	-0.008981677
153	0x3dabdcd4	0.08391729
154	0x3ce2eb1e	0.027700003
155	0x3dcae88b	0.09907635
156	0xbce05103	-0.02738238
157	0xbdd078a8	-0.10179263
158	0x3c88c62d	0.01669606
159	0x3d2b02ad	0.0417506
160	0xbd9ad2fc	-0.07559773
161	0xbd6738f2	-0.05645079
162	0x3d933406	0.07187657
163	0x3db2de54	0.08733812
164	0x3b809834	0.003924394
165	0x3bb49b40	0.0055116713
166	0x3d8f1476	0.069863245
167	0xbcaad49b	-0.020853331
168	0xbc5f0d09	-0.013613948
169	0xbd385745	-0.0450051
170	0x3d61d47c	0.05513428
171	0x3da1a5df	0.078929655
172	0x39999da6	0.0002929989
173	0x3d1e3bc2	0.03863121
174	0x3dde6489	0.10859019
175	0xbc96512d	-0.018349255
176	0xbdde2bfd	-0.10848234
177	0x3dceb88c	0.10093793
178	0x3d3e1c0f	0.046413478
179	0x3d8b2413	0.0679399
180	0x3d6562d4	0.056002453
181	0x3d4699b6	0.048486434
182	0x3dd73afa	0.10509296
183	0x3d4ab56e	0.04948943
184	0xbcac0b99	-0.021001624
185	0xbd20b1cf	-0.03923207
186	0xbd46fcfa	-0.0485811
187	0x3db8bf01	0.09020806
188	0xbd6ee441	-0.05832315
189	0xbd790392	-0.06079442
190	0xbd008fc2	-0.031387098
191	0x3dab5ac2	0.0836692
192	0xbd67f9fa	-0.05663488
193	0x3dca1ee6	0.09869175
194	0xbd4c696e	-0.049905233
195	0x3c6c04f3	0.014405477
196	0xbcbfb924	-0.023403712
197	0x3df39bce	0.11894952
198	0x3d716393	0.058932852
199	0xbd4647e9	-0.048408423
200	0x3d89470c	0.06703004
201	0xbdb224b8	-0.0869841
202	0xbc2f6ef4	-0.010707606
203	0x3c9069ce	0.017628577
204	0xbcdc0e82	-0.026862387
205	0xbd5196f1	-0.05116934
206	0x3d978e6f	0.07400214
207	0xbd114a4b	-0.035471242
208	0xbcbc67e3	-0.022998756
209	0xbd7e2c5e	-0.06205403
210	0x3d8525fa	0.06501384
211	0xbd19dca8	-0.03756395
212	0x3d24c352	0.040225334
213	0xbd26f566	-0.040761374
214	0x3d43321e	0.047655217
215	0xbd99abf8	-0.075035036
216	0x3c6243b5	0.013810088
217	0x3d92157a	0.071330026
218	0xbd7d0643	-0.06177355
219	0xbdb37ea4	-0.08764389
220	0x3c7d4cf0	0.015460238
221	0x3d805d71	0.062678225
222	0xbd630920	-0.055428624
223	0xbdd0ed36	-0.102014944
224	0x3bf926b5	0.007603491
225	0x3de50aa0	0.11183667
226	0x3d0fb38a	0.03508333
227	0xbdedd609	-0.116130896
228	0xbca51eec	-0.020156346
229	0xbdb40282	-0.08789541
230	0xbc1c55c0	-0.009541929
231	0xbc135232	-0.008991765
232	0xbda2b6f7	-0.07945054
233	0xbcb9a0ef	-0.022659747
234	0xbd58c71d	-0.052924264
235	0xbd4e95df	-0.050435897
236	0xbcb647ae	-0.022250976
237	0xbd710976	-0.058846913
238	0xbbca988e	-0.0061827367
239	0xbd482fe4	-0.048873797
240	0xbd27001e	-0.040771596
241	0xbd2bbd9a	-0.041928865
242	0x3c1ff914	0.009763975
243	0xbca4e53b	-0.020128837
244	0xbcf7543d	-0.030191535
245	0xbb93eb4b	-0.004514133
246	0xbbff972f	-0.007800005
247	0x3cbc545d	0.022989446
248	0x3dd9863d	0.10621307
249	0x3dbd5dac	0.09246382
250	0xbcebf1e4	-0.028801866
251	0xbd51cc46	-0.0512202
252	0x3d6857c2	0.056724317
253	0xbbc624f2	-0.0060468847
254	0x3a1cc154	0.0005979736
255	0xbce0a301	-0.027421476

rnn.bias_ih_l0 f4 [384]
0	0xbdc17c57	-0.09447544
1	0x3cef60b9	0.029220926
2	0xbd77ebb2	-0.06052751
3	0xbcef617e	-0.029221293
4	0xbdaaf8a1	-0.083482035
5	0xbd44fa01	-0.048089985
6	0x3c8d8c11	0.017278703
7	0xbdf64efd	-0.120267846
8	0x3d8deda9	0.06930096
9	0xbd889b78	-0.06670278
10	0x3ca1ce89	0.019751804
11	0xbdaecf96	-0.085356876
12	0x3d810a5e	0.063008055
13	0x3ce42e20	0.027854025
14	0xbddfca25	-0.10927228
15	0xbd1cfa6b	-0.038324755
16	0x3d43afe0	0.04777515
17	0x3da01ac2	0.07817604
18	0x3d2180f2	0.039429612
19	0xbc924776	-0.01785634
20	0xbdafe6e7	-0.08588963
21	0xbd0978d5	-0.0335625
22	0xbbcc9aba	-0.006244031
23	0xbdcab9f0	-0.09898746
24	0x3d08ffea	0.033447184
25	0xbdc2b75a	-0.09507628
26	0x3d1a47d4	0.037666157
27	0x3d280af4	0.04102607
28	0x3dc0c0c7	0.09411769
29	0xbd4f06b0	-0.050543487
30	0x3d857730	0.06516874
31	0x3ca8ecde	0.02062076
32	0xbdbeaebf	-0.09310674
33	0xbd67893b	-0.056527358
34	0xbdada5eb	-0.08478912
35	0xbdab4017	-0.083618335
36	0xbd1ba33e	-0.037997477
37	0xbca1d958	-0.019756958
38	0x3b93c69c	0.00450976
39	0xbd3865c1	-0.045018915
40	0x3dcd17b6	0.10014288
41	0x3d154ccb	0.03645019
42	0xbc80ce52	-0.015723381
43	0x3d98d86d	0.07463155
44	0x3d42a27f	0.04751825
45	0x3b6541e1	0.0034981894
46	0xbd081b34	-0.033229068
47	0x3c0e0924	0.0086691715
48	0xbd4825a8	-0.048864037
49	0xbd9a54f0	-0.07535732
50	0xbd423241	-0.047411207
51	0x3db7dba6	0.089774415
52	0x3ad9454c	0.0016576438
53	0x3cf83e95	0.030303279
54	0xbd377d31	-0.044797126
55	0x3d97694b	0.0739313
56	0xbd7e1bcf	-0.06203824
57	0x3d78b64a	0.06072072
58	0xbd74334b	-0.05961923
59	0x3ca8d074	0.02060721
60	0xbd0ede08	-0.034879714
61	0x3dc8e59a	0.09809418
62	0xbcb893f7	-0.022531493
63	0xbd380cd4	-0.04493411
64	0xbd63df14	-0.055632666
65	0xbcf9bc05	-0.030485163
66	0x3c215257	0.0098462915
67	0x3ce43184	0.027855642
68	0xbdcf0bfa	-0.10109706
69	0x3db57a5f	0.08861231
70	0x3d9525ea	0.07282622
71	0x3dd98e29	0.10622818
72	0x3c4eb546	0.012616461
73	0xbc994a2d	-0.018712128
74	0x3d4f3d88	0.05059579
75	0xbc5fd4fa	-0.013661617
76	0xbd24ce65	-0.040235896
77	0x3d8df2c9	0.06931073
78	0xbd836077	-0.064148836
79	0xbd89dea0	-0.067319155
80	0x3cfed008	0.031105056
81	0x3df7e855	0.12104861
82	0xbd99eb42	-0.07515575
83	0x3d3666b1	0.044531528
84	0xbe053116	-0.13007006
85	0xbd84023e	-0.0644574
86	0xbdb6b77e	-0.08921717
87	0xbd926e44	-0.07149938
88	0xbe0ac5aa	-0.13551965
89	0xbd8fa27f	-0.070134155
90	0x3be2715d	0.0069104866
91	0xbc85b26c	-0.01632043
92	0xbdd09424	-0.101845056
93	0xbc0e0de7	-0.008670307
94	0xbe010bd9	-0.12602176
95	0x3c263d69	0.010146477
96	0x3c611375	0.013737549
97	0xbd838af7	-0.0642299
98	0x3d1c08ab	0.038094204
99	0xbd417f37	-0.047240462
100	0xbd0e0cba	-0.034680106
101	0x3c9a4c3c	0.01883518
102	0xbd8c8b5b	-0.068625174
103	0xbdbc9bf3	-0.092094325
104	0xbcd0cfd6	-0.025489729
105	0x3bda358f	0.0066592167
106	0xbd26d5a9	-0.040731106
107	0xbd6f57f2	-0.05843348
108	0xbd39c183	-0.045350563
109	0xbd597865	-0.053093333
110	0xbca9a357	-0.02070777
111	0xbd8ab729	-0.06773216
112	0x3bc388a1	0.005967215
113	0xbda7dbaa	-0.081961945
114	0xbdc5bf3c	-0.09655616
115	0x3dbd857d	0.092539765
116	0xbd8521d9	-0.065005966
117	0x3d90c382	0.0706854
118	0x3d8a3845	0.06749014
119	0xbdaa07f5	-0.08302299
120	0xbc92c02e	-0.017913904
121	0x3d020137	0.03173944
122	0x3b7dd2a4	0.0038730288
123	0xbd5b3d55	-0.053525288
124	0x3d146d7e	0.036237232
125	0x3d734ef2	0.05940146
126	0x3c64c4d2	0.013962941
127	0xbcc30f2a	-0.023810942
128	0x3e6316e1	0.22176696
129	0x3e8203e5	0.25393596
130	0x3e5fcd9b	0.21855776
131	0x3db79049	0.08963067
132	0x3e42effa	0.19036856
133	0x3e6f02d9	0.2334093
134	0x3e8b519a	0.27210695
135	0x3da8631e	0.0822203
136	0x3e04d053	0.12970094
137	0x3e38e599	0.18056335
138	0x3dadc39f	0.084845774
139	0x3e227b18	0.15867269
140	0x3e6b5bd5	0.2298425
141	0x3eb62f59	0.35582998
142	0x3e33768a	0.17525688
143	0xbd2179ab	-0.039422672
144	0x3e903cd9	0.28171423
145	0x3e13c709	0.14431395
146	0x3db7c7ab	0.089736305
147	0x3d8e90cf	0.06961214
148	0x3d8c28df	0.06843733
149	0x3dd57c34	0.104240805
150	0x3e8d9624	0.2765361
151	0x3d206980	0.039163113
152	0x3c9a04d4	0.01880113
153	0x3cc23e6d	0.023711408
154	0xbdf7b7df	-0.120956175
155	0xbd4ed63c	-0.05049728
156	0x3e19a440	0.15004063
157	0xbd982baf	-0.07430207
158	0x3ea5bf56	0.3237254
159	0xbaad2008	-0.0013208399
160	0x3deb9eea	0.1150492
161	0x3d5dcb81	0.054149155
162	0x3ca19a47	0.019726885
163	0x3dd633b6	0.10459082
164	0x3e8381eb	0.25685057
165	0x3e220a13	0.15824156
166	0xbc08625e	-0.008324234
167	0x3e165a8e	0.14682981
168	0x3dc3cc9e	0.09560512
169	0xbe0cbf4a	-0.13744846
170	0xbcfd16c2	-0.03089464
171	0x3e852ca6	0.26010627
172	0x3e9f93f7	0.31167576
173	0x3d2c8acf	0.042124566
174	0xbd6f7344	-0.058459535
175	0x3da0c0cd	0.07849274
176	0x3e451e59	0.19249858
177	0x3e307251	0.17231108
178	0x3e5df792	0.21676472
179	0x3eb7c50d	0.35892525
180	0x3ea2ed60	0.31821728
181	0x3e0ad7e4	0.13558918
182	0x3db41028	0.08792144
183	0xbd199afe	-0.037501328
184	0x3eaba5a7	0.3352482
185	0x3da5e885	0.0810099
186	0xbc955afe	-0.018231865
187	0x3c99ce45	0.018775115
188	0xbd838dc3	-0.06423523
189	0x3e4cfdce	0.20018694
190	0x3d33cd87	0.043897178
191	0x3db327d4	0.08747831
192	0x3d7390d4	0.05946429
193	0xbd185465	-0.03718986
194	0xbcafebc6	-0.02147473
195	0x3d5b4ec6	0.05354192
196	0x3cedbcb2	0.029020641
197	0x3ca2d689	0.019877689
198	0x3e2234d3	0.15840463
199	0x3e8c0a24	0.27351487
200	0xbd940ab0	-0.07228601
201	0x3c30734b	0.0107696755
202	0xbd723948	-0.05913666
203	0x3d441a15	0.047876436
204	0xbcf0b19d	-0.029381568
205	0x3d1763ef	0.03696054
206	0x3e6d6a46	0.23185071
207	0x3e6f7327	0.23383771
208	0x3ddb4b12	0.10707678
209	0x3eb27b02	0.34859473
210	0x3e81595d	0.2526349
211	0x3e0b5aeb	0.13608901
212	0xbcee03f5	-0.029054621
213	0x3e8416a9	0.25798538
214	0x3d05102f	0.032486137
215	0xbde4bc37	-0.11168712
216	0x3dbe63f6	0.0929641
217	0xbd9b371f	-0.07578873
218	0x3cf6cb53	0.03012625
219	0x3db290bf	0.087190144
220	0x3dfb9728	0.1228469
221	0x3e8a67ab	0.27032217
222	0x3cdf1abc	0.027234428
223	0x3e2080bb	0.15674107
224	0x3e897ba5	0.26852146
225	0x3e648596	0.22316584
226	0x3d94f020	0.07272363
227	0xbd8c64bd	-0.06855152
228	0x3e96f261	0.29481795
229	0xbd40c3d5	-0.04706176
230	0xbe1e144b	-0.15437429
231	0xbddacd6e	-0.10683714
232	0x3d92a39e	0.07160114
233	0x3e80041f	0.25003144
234	0x3d1b047f	0.037846085
235	0x3e381069	0.1797501
236	0x3e8f9819	0.2804573
237	0x3e375d6c	0.17906731
238	0x3d91009d	0.07080195
239	0x3e5a21d8	0.21301973
240	0x3e0cc47b	0.13746826
241	0x3e12c453	0.14332704
242	0x3e3b82d4	0.18311626
243	0x3e6b75eb	0.22994201
244	0xbd573b4c	-0.052546784
245	0x3db7ba96	0.08971135
246	0x3e58ffd4	0.2119134
247	0x3e9fe400	0.31228638
248	0x3e3eed88	0.18645298
249	0x3d98634f	0.074408166
250	0x3e676806	0.22598276
251	0xbd17097a	-0.036874272
252	0x3e5e6074	0.21716481
253	0x3db98211	0.09058011
254	0x3d87e190	0.066348195
255	0x3e8aac6c	0.27084672

rnn.bias_hh_l0 f4 [384]
0	0x3d1b6d39	0.03794596
1	0xbd748ae6	-0.059702776
2	0x3dbde2f4	0.092718035
3	0x3c88a18f	0.0166786
4	0xbdc660b0	-0.096864104
5	0x3bbc4d87	0.0057465467
6	0x3de38509	0.11109359
7	0xbd60fa28	-0.054926068
8	0x3d51908a	0.051163234
9	0x3d619da1	0.055081967
10	0x3d6b1798	0.057395548
11	0x3c332487	0.010934002
12	0xbcceac33	-0.025228595
13	0xbd1cab7b	-0.038249474
14	0xbb891619	-0.0041835424
15	0x3d8f47ef	0.06996142
16	0x3c8aa447	0.016924037
17	0xbc806f8b	-0.015678188
18	0xbdcb0aef	-0.09914195
19	0xbdbcf97d	-0.092272736
20	0xbc36a05e	-0.011146633
21	0xbdb14a04	-0.086566955
22	0xbd3819f9	-0.044946644
23	0xbd677fe8	-0.056518465
24	0x3d43ca01	0.047800068
25	0x3d8ed6ba	0.069745496
26	0x3d2e9a8c	0.042627856
27	0xbafb4310	-0.0019169766
28	0xbca25dac	-0.019820057
29	0x3c1625a7	0.00916425
30	0x3db573b2	0.08859958
31	0x3cda6a3d	0.026661986
32	0xbc9580b8	-0.018249854
33	0xbd28f910	-0.04125315
34	0x3cf9301a	0.030418444
35	0x3d8fd065	0.0702217
36	0x3cb736ba	0.022364963
37	0xbb65dbd0	-0.0035073645
38	0xbd87dda7	-0.06634074
39	0x3bb37724	0.005476849
40	0xbd44cb47	-0.048045423
41	0xbd4eac70	-0.050457418
42	0xbdb79427	-0.08963805
43	0x3e426f74	0.18987828
44	0xbd277a45	-0.04088809
45	0x3c5700d6	0.013122758
46	0xbcecc6e1	-0.028903427
47	0xbd953f75	-0.07287494
48	0x3cd3b6d8	0.025844023
49	0xbd837051	-0.06417907
50	0x3d9d14ce	0.07669984
51	0x3d34bb03	0.04412366
52	0xbb053be4	-0.0020329887
53	0x3d32c4a9	0.04364458
54	0xbdc17cf3	-0.0944766
55	0xbcb228b5	-0.021747926
56	0x3cb874df	0.022516666
57	0xbdc19263	-0.09451749
58	0xb9de23b6	-0.00042369746
59	0xbd883085	-0.06649879
60	0xbd6c9809	-0.05776218
61	0x3d0702f4	0.0329618
62	0x3d1aae55	0.037763912
63	0xbd875bd3	-0.06609311
64	0xbd681f3a	-0.056670405
65	0x3cb71aea	0.0223517
66	0xbd42bc2b	-0.047542732
67	0x3ccd1002	0.025032047
68	0x3cc4d655	0.024027983
69	0xbc1f430a	-0.009720573
70	0x3deaed3b	0.11471029
71	0xbd6229f6	-0.0552158
72	0x3d80b3b5	0.062842764
73	0x3d6e0348	0.058108598
74	0xbdf85d87	-0.12127214
75	0xbd2bafd4	-0.04191573
76	0xbd296fe2	-0.041366465
77	0xbd8653e2	-0.06558968
78	0xbd1aa744	-0.037757173
79	0x3c0c7f21	0.008575232
80	0xbcbc72fc	-0.023004048
81	0x3d912f14	0.070890576
82	0x3d959667	0.073040776
83	0xbd83598b	-0.06413563
84	0xbd43b332	-0.047778316
85	0x3d02bf28	0.031920582
86	0x3b8d9752	0.0043210173
87	0x3c865b0e	0.01640084
88	0xbdc622b4	-0.09674588
89	0x3d634d9c	0.055493936
90	0xbe019a3d	-0.12656493
91	0xbdcdd955	-0.100512184
92	0xbd4c1549	-0.049824987
93	0xba3067e8	-0.00067293504
94	0xbdb8719d	-0.09006045
95	0xbde08c9f	-0.10964321
96	0x3d33ecea	0.04392711
97	0xbd9c9dba	-0.076472715
98	0x3d3c785a	0.046013214
99	0xbd863d30	-0.06554639
100	0x3d7a80d2	0.06115801
101	0x3be6e0a5	0.0070458227
102	0x3d039287	0.03212216
103	0xbd1902ce	-0.03735619
104	0xbdd448ac	-0.103654236
105	0xbd2c6909	-0.042092357
106	0xbcb59a04	-0.022168167
107	0xbbdd7cc4	-0.006759258
108	0xbadd84cb	-0.0016900537
109	0xbd96e75c	-0.07368347
110	0xbd9059b0	-0.070483565
111	0x3b232d92	0.0024898988
112	0xbc76d986	-0.01506651
113	0x3d93cc97	0.07216757
114	0x3c223092	0.009899275
115	0x3d6bb08c	0.057541415
116	0xbd523eec	-0.05132954
117	0x3c357b6b	0.011076788
118	0x3d1fb5b7	0.038991656
119	0xbc6d1ede	-0.014472691
120	0xbd87e0f8	-0.06634706
121	0xbd25c0d4	-0.0404671
122	0xbd8e5ab8	-0.06950897
123	0x3d678101	0.056519512
124	0xb7ca8a50	-2.4144683e-05
125	0xbcb363e0	-0.02189821
126	0x3d4e76b4	0.050406173
127	0xbcbf4e2d	-0.023352707
128	0x3d984934	0.074358374
129	0x3e9d578e	0.3073086
130	0x3e6a4b23	0.22880225
131	0x3bcda020	0.006275192
132	0x3e1e29fb	0.15445702
133	0x3e6ed6c2	0.23324111
134	0x3e55cc75	0.20878775
135	0x3cd0d5ef	0.025492636
136	0xbcbcb110	-0.023033649
137	0x3e743864	0.23849636
138	0x3e35ba63	0.17746882
139	0x3e7570bf	0.2396879
140	0x3e99bf8a	0.30028945
141	0x3e76de91	0.2410834
142	0x3e7b4df9	0.24541463
143	0xbdb57b46	-0.08861403
144	0x3e8046c5	0.25053993
145	0x3e2a4bd0	0.16630483
146	0xbc0cf780	-0.0086039305
147	0x3e232014	0.15930206
148	0x3d61b97d	0.055108536
149	0xbc319f9f	-0.010841279
150	0x3e708478	0.23488033
151	0xbcdbacc1	-0.026815774
152	0xbd4936e7	-0.049124625
153	0x3e2ec9dc	0.1706919
154	0xbdd2aaca	-0.10286482
155	0x3d8a0d1d	0.067407824
156	0x3de6b7e1	0.11265541
157	0xbd8820b9	-0.06646866
158	0x3eaed778	0.34148765
159	0xbd3ad9dc	-0.045617923
160	0x3dbb29db	0.09138843
161	0x3b963ac5	0.0045846426
162	0xbdac015a	-0.08398695
163	0x3a75a916	0.0009371204
164	0x3ea7c73c	0.3276919
165	0x3dfbd0eb	0.12295707
166	0x3d54b147	0.051926877
167	0x3e0af5eb	0.13570373
168	0x3e3ebf1e	0.18627593
169	0xbd81cdf1	-0.06338108
170	0x3c181b33	0.009283829
171	0x3e80040a	0.25003082
172	0x3e851f0d	0.26000252
173	0xbc1675c1	-0.009183348
174	0x3d02b405	0.03190996
175	0x3e7955cd	0.24349137
176	0x3e79f7bf	0.24410914
177	0x3e753dd4	0.23949367
178	0x3e5688ba	0.20950595
179	0x3e9a2410	0.30105639
180	0x3e7d7cdd	0.24754663
181	0x3e1444c1	0.14479353
182	0x3dd336d7	0.10313194
183	0x3d3a3def	0.04546922
184	0x3ea91397	0.33022758
185	0x3ca1447b	0.019685974
186	0xbd82b2ed	-0.06381784
187	0x3df6157f	0.12015819
188	0x3db831d9	0.08993883
189	0x3e4f979c	0.20272678
190	0x3d58b5a0	0.052907586
191	0x3e230b87	0.15922366
192	0x3dfbf556	0.123026535
193	0xbd568f49	-0.05238274
194	0xbd7ed898	-0.06221828
195	0x3e2dec1a	0.16984597
196	0x3c92f5b6	0.01793943
197	0x3c7a5543	0.015279117
198	0x3e243692	0.16036442
199	0x3e4972c6	0.19672689
200	0xbd966d89	-0.07345111
201	0x3e0016a3	0.12508635
202	0x3c91a292	0.017777715
203	0x3be2a530	0.0069166645
204	0xbc2e53b7	-0.010640076
205	0x3dc8f44a	0.098122194
206	0x3eb6bcf8	0.35691047
207	0x3e8c6ed1	0.27428296
208	0x3e07b08d	0.13250943
209	0x3ea7f67b	0.32805237
210	0x3e68fe94	0.22753364
211	0x3e348e31	0.17632367
212	0x3d000417	0.0312539
213	0x3ec1a32e	0.3781981
214	0x3d0fe848	0.03513363
215	0xbdac0cf6	-0.084009096
216	0xbcda07fa	-0.026615132
217	0x3daad633	0.083416365
218	0xbd57002b	-0.052490395
219	0xbc458ad8	-0.012057029
220	0x3e13fba0	0.14451456
221	0x3e54c59d	0.20778508
222	0x398974c8	0.00026217685
223	0x3e88f792	0.2675138
224	0x3e4b441b	0.19850199
225	0x3e04b7ec	0.12960786
226	0x3c857346	0.016290318
227	0x3d4fffd4	0.050781086
228	0x3ea76327	0.32692835
229	0x3d688b65	0.056773562
230	0xbe311f5a	-0.17297116
231	0xbde3028b	-0.110844694
232	0x3d8e8040	0.069580555
233	0x3e82056e	0.25394768
234	0x3ce95dc5	0.028487096
235	0x3d69c9ed	0.057077337
236	0x3e77e35f	0.24207829
237	0x3d69f7f0	0.057121217
238	0x3d9520de	0.072816595
239	0x3dfdc5f3	0.123912714
240	0x3e79a7da	0.24380437
241	0x3e03efb9	0.12884416
242	0x3eac21e3	0.33619604
243	0x3e908dbb	0.28233132
244	0x3da93eb1	0.082639106
245	0x3d68688e	0.056740336
246	0x3d9e7a9b	0.07738229
247	0x3e84724c	0.25868452
248	0x3e8bb45c	0.2728604
249	0x3d509943	0.05092741
250	0x3e8dd1b8	0.27699065
251	0x3cebf646	0.028803956
252	0x3e6b0b95	0.22953637
253	0x3e305df6	0.17223343
254	0x3cb12c39	0.021627532
255	0x3e44c628	0.19216216

fc.0.weight f4 [128, 128]
0	0x3dfa91b9	0.12234826
1	0x3d1523bf	0.036411043
2	0xbdd80857	-0.10548466
3	0x3ceb4305	0.02871848
4	0xbc187545	-0.009305303
5	0xbda29515	-0.079385914
6	0x3cd22073	0.025650239
7	0xbd92bde8	-0.07165128
8	0x3d129e94	0.035795763
9	0xbda062fb	-0.07831379
10	0xbcebf6a5	-0.028804133
11	0xbd822078	-0.06353849
12	0x3d8b8816	0.06813066
13	0xbd99a00b	-0.07501229
14	0x3d3a5d93	0.045499396
15	0x3cace612	0.0211058
16	0xbdd53500	-0.104104996
17	0xbd81cd95	-0.0633804
18	0x3cbd4531	0.023104282
19	0x3d863c4c	0.065544695
20	0x3d468248	0.04846409
21	0xbd1b7f1b	-0.037963014
22	0xbd0ef50c	-0.034901664
23	0xbbb554f9	-0.005533811
24	0xbc8daa2c	-0.017293058
25	0x3e3662f2	0.17811182
26	0x3dd67ac2	0.10472633
27	0x3da42eb4	0.080167204
28	0xbcf7aeed	-0.030234778
29	0xbca787e6	-0.020450544
30	0xbcf525ac	-0.02992519
31	0x3d8b5be4	0.06804636
32	0x3c9e41ab	0.019318422
33	0xbd99f01b	-0.075164996
34	0x3d948a0b	0.07252892
35	0xbbed721c	-0.007246269
36	0xbbf16733	-0.0073670386
37	0xbd891c6e	-0.06694876
38	0xbd490c38	-0.04908392
39	0xbdaac32f	-0.083380096
40	0x3dbafe79	0.09130568
41	0x3ddbe139	0.10736317
42	0xb9cb6004	-0.00038790714
43	0xbd13c342	-0.036074884
44	0x3c109161	0.0088237235
45	0x3dff133d	0.12454841
46	0xbd333cbb	-0.04375909
47	0xbd173dfc	-0.036924347
48	0xbcf8aa1f	-0.030354558
49	0x3d509eed	0.050932813
50	0x3db2630b	0.08710297
51	0xbdf580e0	-0.119874716
52	0xbe1ad56f	-0.15120481
53	0xbd9ed238	-0.0775494
54	0x3cb0c307	0.021577371
55	0xbc8b4ca7	-0.017004324
56	0xbe031d2f	-0.12804101
57	0xbd9fc26d	-0.07800756
58	0x3c509f7b	0.012733336
59	0x3dc6e6d0	0.09711993
60	0x3e00d3e0	0.12580824
61	0x3d49a9a9	0.049234066
62	0xbc05164b	-0.008122991
63	0xbce6b9da	-0.028164793
64	0xbd92e4fe	-0.07172583
65	0x3d9cc2cd	0.07654343
66	0x3de400f4	0.11132994
67	0x3d05a8b9	0.03263161
68	0xbd1264a6	-0.035740517
69	0xbba63363	-0.0050720437
70	0xbd03fa85	-0.032221336
71	0xbc921b4e	-0.017835286
72	0xbd71b636	-0.05901166
73	0xbd055c1e	-0.032558553
74	0x3dcbbdab	0.09948286
75	0x3db4a08c	0.088196844
76	0xbd86087a	-0.065445855
77	0xbdbb69fb	-0.091510735
78	0xbaaf42e9	-0.0013371381
79	0x3c18cde6	0.009326434
80	0x3d8bfccc	0.068353266
81	0xbd6bb369	-0.057544146
82	0xbd865c45	-0.06560568
83	0xbdb077f9	-0.08616633
84	0xba5bb8a6	-0.0008381702
85	0xbddc6f56	-0.10763423
86	0x3d8caefd	0.06869314
87	0x3d14aee6	0.03629961
88	0xbd086381	-0.03329802
89	0xbd518ed9	-0.05116162
90	0xbcec9c25	-0.02888305
91	0xbd5969e2	-0.053079493
92	0xbd125987	-0.03572991
93	0x3d8cac04	0.06868747
94	0x3d39f629	0.045400772
95	0xbd0b110d	-0.033951808
96	0xbd4ea6ab	-0.050451916
97	0x3ca2e79a	0.019885827
98	0x3c7a7a28	0.015287913
99	0xbd1d468b	-0.038397353
100	0xbd44481e	-0.04792034
101	0x3d3d3eb0	0.04620236
102	0x3c83cacd	0.016087914
103	0x3adea726	0.001698707
104	0xb933fe0c	-0.0001716541
105	0x3d3662a2	0.044527657
106	0xbc931e9e	-0.017958935
107	0x3d9f1e92	0.07769503
108	0x3ced5ce4	0.028974958
109	0xbd558147	-0.05212524
110	0x3c2cf650	0.010556772
111	0xbceb1724	-0.028697558
112	0xbc27209f	-0.010200649
113	0xbce4626d	-0.027878964
114	0xbd507a5e	-0.05089795
115	0x3d9c5194	0.07632747
116	0x3b20cb45	0.002453522
117	0x3d7f33ee	0.062305383
118	0x3c7e71f6	0.0155301
119	0x3dec3580	0.11533642
120	0xbd0ad8f0	-0.033898294
121	0xbc93b55f	-0.01803082
122	0x3cc05537	0.023478134
123	0xbcda75af	-0.026667444
124	0x3d82fe1f	0.06396126
125	0x3c939033	0.018013095
126	0xbd021adb	-0.031763893
127	0x3d681090	0.05665642
128	0x3c35bb96	0.011092087
129	0x3dc43ffe	0.09582518
130	0x3cf3b08a	0.029747266
131	0x3d518291	0.05114991
132	0xbd7f8fd8	-0.06239304
133	0x3bd12223	0.0063822432
134	0x3d19e795	0.03757437
135	0x3c1507e2	0.009096118
136	0x3cc97d77	0.02459596
137	0x3c925d88	0.017866865
138	0x3bb4fa71	0.005523019
139	0x3d91e52a	0.07123788
140	0x3b92b131	0.0044766893
141	0xbd865904	-0.06559947
142	0x3d827fb2	0.06372012
143	0xbce0d54f	-0.027445463
144	0xbda6b216	-0.08139436
145	0x3d5791c9	0.052629266
146	0xbc243e42	-0.010024609
147	0x3d34f777	0.044181313
148	0xbc61f6b7	-0.013791732
149	0x3c8f33c8	0.017480746
150	0xbcc223c6	-0.023698699
151	0x3d638f71	0.05555672
152	0xbda6c34e	-0.0814272
153	0x3d5c204e	0.053741746
154	0x3db5008d	0.08837996
155	0xbc51e3c6	-0.012810653
156	0x3c433e9d	0.011916784
157	0xbdc46ee4	-0.09591463
158	0xbd0eeb5f	-0.034892436
159	0xbb8bd266	-0.004267025
160	0x3c72877f	0.014802813
161	0xbcf0c7f4	-0.02939222
162	0x3c5047b1	0.012712405
163	0xbd8594a8	-0.065224946
164	0xbce21007	-0.027595533
165	0xbd5b75d4	-0.053579167
166	0x3d4e108b	0.050308745
167	0x3d5bd0fd	0.053666104
168	0xbdbc0399	-0.09180374
169	0xbdb865b1	-0.09003771
170	0xbccd0c34	-0.025030233
171	0x3d900241	0.0703168
172	0xbda5107b	-0.08059784
173	0xbd09d0fb	-0.033646565
174	0xbcdf072e	-0.027225103
175	0x3d7062d6	0.058688007
176	0x3cc3d26d	0.02390405
177	0x3d8feead	0.07027946
178	0xbc261ead	-0.01013915
179	0xbda1ff4d	-0.07910023
180	0xbc84db77	-0.01621793
181	0x3d886e5c	0.066616744
182	0x3d54a108	0.051911384
183	0xbd822193	-0.0635406
184	0xbdabd4fb	-0.08390232
185	0xbd11243c	-0.035434946
186	0xbd862703	-0.0655041
187	0x3c557922	0.013029369
188	0xbda118cb	-0.07866057
189	0xbbf2491a	-0.0073939683
190	0xbbe777aa	-0.0070638256
191	0xbda6c4e1	-0.081430204
192	0xbd36868f	-0.04456192
193	0x3d345353	0.044024777
194	0xbc02ff0e	-0.00799538
195	0x3d55a654	0.052160576
196	0x3ce402f0	0.027833432
197	0x3d6dc10d	0.058045436
198	0xb9163fff	-0.00014328955
199	0xbc245857	-0.0100308275
200	0xbd1dff87	-0.038573768
201	0xbd860f4e	-0.06545888
202	0xbc030921	-0.007997782
203	0xbd8811c0	-0.066440105
204	0x3d888f47	0.06667953
205	0x3c998059	0.018737959
206	0x3d050d72	0.032483526
207	0xbd67d7d6	-0.05660232
208	0xbd614d98	-0.05500564
209	0xbdb0c72c	-0.08631739
210	0xba720fad	-0.0009233903
211	0x3d742349	0.059603963
212	0x3d6f6057	0.058441486
213	0x3da789dc	0.081805915
214	0xbcca4c98	-0.024694726
215	0xbd69cad0	-0.057078183
216	0xbd9e1625	-0.077190675
217	0x3c9b33b8	0.01894556
218	0xbdb900c7	-0.090333514
219	0x3c2bf3dc	0.010495152
220	0x3d5e80b0	0.054321945
221	0x3d5f8094	0.05456598
222	0x3da4a7dd	0.0803983
223	0x3da1e8b1	0.079057105
224	0xbda303b1	-0.079596885
225	0xbd640fc7	-0.05567911
226	0x3d82ec99	0.06392784
227	0x3d4fcd8c	0.050733134
228	0x3bc8ca2d	0.006127617
229	0xbd4a7c50	-0.04943496
230	0x3d5cc5a1	0.05389941
231	0xbc1ca2d0	-0.009560302
232	0x3d7b29ea	0.06131927
233	0xbd547322	-0.05186761
234	0xbdafa32e	-0.08576046
235	0x3c98b165	0.018639276
236	0x3b9bf849	0.0047598225
237	0xbc6f57fe	-0.014608381
238	0xbd6d28e8	-0.05790034
239	0x3d95005c	0.07275459
240	0x3d87ada8	0.06624919
241	0x3d06026a	0.032717146
242	0xbd8dd93b	-0.06926199
243	0x3c2302b5	0.009949376
244	0xbd23cca3	-0.03999008
245	0xbd37a202	-0.044832237
246	0xbd385bd2	-0.04500944
247	0xbd43ebdc	-0.047832355
248	0xbdc2f89a	-0.09520073
249	0xbcb38ac8	-0.021916762
250	0xbbfb5a19	-0.0076706526
251	0x3db82aa3	0.08992507
252	0x3d80cb35	0.06288759
253	0xbdb246c9	-0.087049074
254	0xbca17e72	-0.019713614
255	0x3daa4b86	0.08315186

fc.0.bias f4 [128]
0	0x3d49961b	0.049215417
1	0x3d9a27c4	0.07527116
2	0x3d1df537	0.038563933
3	0xbcc201f1	-0.023682566
4	0xbb6e9275	-0.0036403213
5	0x3ce7446d	0.02823087
6	0x3cb7d057	0.022438211
7	0xbcb5c430	-0.022188276
8	0xbd1336f9	-0.035941098
9	0x3cd8f0a5	0.026481936
10	0xbdd94214	-0.106083065
11	0x3d5f4f41	0.05451894
12	0x3daa247e	0.083077416
13	0x3d8c7b6f	0.068594806
14	0x3c9f3cdd	0.019438202
15	0xbda051eb	-0.078281246
16	0x3d3f7e14	0.046751097
17	0x3cb494f9	0.022043692
18	0x3d7a554a	0.061116494
19	0xbddf2b3d	-0.10896919
20	0x3dc51c6e	0.09624563
21	0xbcc7964f	-0.024363665
22	0xbcbde0ac	-0.023178421
23	0x3d664071	0.0562138
24	0xbd8e8d19	-0.06960506
25	0x3c829700	0.015941143
26	0xbd36a77e	-0.044593327
27	0x3d7ef3fd	0.062244404
28	0xbd77e58e	-0.060521655
29	0xbd214fde	-0.039382808
30	0xbd921a35	-0.07133905
31	0xbd6a6ca9	-0.057232533
32	0x3da0c782	0.07850553
33	0xbdcdbbc5	-0.1004558
34	0xbbbbdaa3	-0.0057328506
35	0xbd0b12b9	-0.033953402
36	0xbd150ed9	-0.036391113
37	0x3c908354	0.017640747
38	0x3d947ff1	0.072509654
39	0x3d0ba00c	0.03408818
40	0xbd55bb38	-0.0521805
41	0xbbe6127c	-0.0070212465
42	0x3d8bdcfc	0.06829259
43	0x3d8c9489	0.06864268
44	0xbd7caca2	-0.061688073
45	0x3cbac220	0.022797644
46	0xbd239c85	-0.03994419
47	0x3cb44366	0.022004794
48	0x3d44fea6	0.048094414
49	0xbd426e1e	-0.047468297
50	0x3d86748b	0.065651976
51	0xbcb67d4d	-0.022276545
52	0xbd96cedf	-0.07363676
53	0xbca7f2c3	-0.0205015
54	0x3d961f64	0.07330206
55	0x3da12444	0.07868245
56	0xbd597828	-0.053093106
57	0xbc99a62b	-0.018755993
58	0x3d3a39de	0.045465343
59	0xbcc20e6a	-0.023688514
60	0xbbf24d21	-0.0073944484
61	0xbd7454d6	-0.05965122
62	0x3b6cd5e4	0.003613823
63	0xbd74220a	-0.059602775
64	0xbda42e36	-0.080166265
65	0xbded7838	-0.115951955
66	0x3d9ba2ff	0.075994484
67	0xbceaa091	-0.028641017
68	0xbdeaddcc	-0.11468086
69	0xbd37bbf7	-0.04485699
70	0xbd562685	-0.05228283
71	0x3cf35d58	0.029707596
72	0x3c665656	0.01405867
73	0xbd3f45d8	-0.046697468
74	0xbd97c026	-0.07409696
75	0xbd38c95a	-0.0451139
76	0xbdc1e23e	-0.094669804
77	0x3daf5567	0.08561211
78	0x3baa66b7	0.005200233
79	0x3d5db81b	0.054130655
80	0xbd9c9b9b	-0.07646867
81	0x3d840c8c	0.064477056
82	0x3cbe9c7e	0.02326798
83	0x3dab3aed	0.083608486
84	0xbd8c6f81	-0.06857205
85	0xbd654ac2	-0.055979498
86	0xbd885898	-0.06657523
87	0xbdc32b39	-0.095297284
88	0x3d87d1a1	0.066317804
89	0x3c72392a	0.014784137
90	0x3dbe7683	0.09299948
91	0xbd93524d	-0.07193432
92	0xbd29d912	-0.04146678
93	0xbd3f79fa	-0.046747185
94	0x3c95702d	0.018241966
95	0x3c0e1199	0.008671188
96	0x3d7f7fdd	0.0623778
97	0x3d4833d1	0.04887754
98	0xbca97a5c	-0.020688228
99	0xbbe8701e	-0.0070934435
100	0x3da69ec6	0.081357524
101	0xbd1c528f	-0.03816467
102	0x3c680ea7	0.01416365
103	0xbd4ca9fa	-0.04996679
104	0xbdd4a000	-0.1038208
105	0xbcacbd5d	-0.02108639
106	0xbd657639	-0.05602095
107	0x3d1b6a2c	0.03794305
108	0xbc9a104d	-0.018806601
109	0xbccbe8fb	-0.024891367
110	0xbd2a9750	-0.04164821
111	0x3d9c84d1	0.0764252
112	0xbddcd3ed	-0.10782609
113	0x3cb09683	0.021556145
114	0x3c5b2a2e	0.013376756
115	0xbd66722c	-0.056261227
116	0x3bc2ed55	0.0059487023
117	0xbbfb0135	-0.007660056
118	0x3da900f3	0.08252134
119	0x3c18e80f	0.009332671
120	0x3d94b922	0.07261874
121	0x3c361cfd	0.01111531
122	0xbd30cad0	-0.043162167
123	0x3d849169	0.06473047
124	0xbd8bb69c	-0.06821939
125	0xbd8bcf27	-0.068266205
126	0x3cdd64e2	0.027025644
127	0xbd821e88	-0.063534796

output_layer.0.weight f4 [1, 128]
0	0xbd435809	-0.04769138
1	0x3af7fcdf	0.0018919966
2	0xbdb9f14f	-0.09079229
3	0x3d7d3ba5	0.06182446
4	0x3d6fac9e	0.05851423
5	0x3da52bf1	0.08065022
6	0x3c4d88da	0.012544835
7	0xbd624910	-0.05524546
8	0x3d9c55bc	0.0763354
9	0x3d25cf1c	0.040480718
10	0xbdfc6120	-0.123232126
11	0xbdca9843	-0.09892323
12	0xbe07181c	-0.13192791
13	0xbd51416a	-0.051087774
14	0x3daf83a8	0.08570033
15	0xbddac34d	-0.10681782
16	0x3d8da186	0.06915574
17	0xbbc6b0fd	-0.006063579
18	0x3d708d11	0.05872828
19	0x3d7111be	0.05885481
20	0x3d806987	0.06270128
21	0xbda5ae19	-0.08089847
22	0xbde6bcfa	-0.11266513
23	0xbda5a727	-0.080885224
24	0x3d1d2c72	0.038372464
25	0x3d41770b	0.04723267
26	0x3d4b69b3	0.04966135
27	0x3d2fa4bf	0.042881723
28	0x3d8e9074	0.06961146
29	0xbdd6301d	-0.10458396
30	0x3dba4482	0.09095098
31	0xbd9ae9ae	-0.07564102
32	0x3d5f699e	0.054544084
33	0x3d4e5623	0.050375115
34	0x3dd29223	0.102817796
35	0xbac1330e	-0.0014739947
36	0x3d857eae	0.06518303
37	0xbd919bce	-0.071097955
38	0x3d5c3ceb	0.053769033
39	0xbdbe8d02	-0.09304239
40	0x3d8fb396	0.07016675
41	0x3dc372ed	0.09543405
42	0xbd8e7f59	-0.069578834
43	0xbda02f03	-0.07821467
44	0x3da42642	0.080151096
45	0x3d7feb03	0.062479984
46	0x3de09cbd	0.109673955
47	0xbdab6813	-0.0836946
48	0x3da3b7b2	0.079940215
49	0xbd84acfe	-0.06478308
50	0xbde18ffe	-0.110137925
51	0xbe0098a3	-0.12558226
52	0x3d41b7fa	0.047294594
53	0x3d8a2198	0.06744689
54	0xbda8255d	-0.082102515
55	0xbda3e36a	-0.0800236
56	0x3d58e267	0.05295029
57	0xba79e34e	-0.0009532467
58	0x3d9b4dfb	0.07583233
59	0x3d1216e7	0.035666373
60	0xbe120113	-0.14258222
61	0x3da06cbb	0.07833239
62	0xbd5b36fb	-0.05351923
63	0x3a727132	0.0009248435
64	0xbd62b943	-0.05535246
65	0xbde4555e	-0.11149095
66	0xbde2fda5	-0.11083535
67	0xbd5650fb	-0.052323323
68	0x3dc897f3	0.09794607
69	0xbda3491e	-0.0797293
70	0x3d9662ab	0.07343038
71	0xbdcb51b8	-0.09927696
72	0x3de88397	0.11353224
73	0xbd56f7ca	-0.052482404
74	0xbde95c1b	-0.11394521
75	0x3d96f6dc	0.073713034
76	0xbb862630	-0.004093908
77	0xbd8a64c1	-0.067574985
78	0xbda19965	-0.07890586
79	0x3dbe1f3d	0.09283302
80	0xbdbd603f	-0.09246873
81	0xbda0d301	-0.07852746
82	0xbdd8b62e	-0.10581623
83	0x3da956e5	0.08268527
84	0x3d724ba1	0.059154157
85	0x3d267509	0.040638957
86	0xbd86a18f	-0.065737836
87	0x3bc9965d	0.006151958
88	0x3dbf3bce	0.09337579
89	0x3d26f005	0.040756244
90	0x3d588422	0.052860387
91	0xbdde799b	-0.10863038
92	0x3d4ed12c	0.05049245
93	0x3d464409	0.048404727
94	0x3d8de4cb	0.069284044
95	0x3d0f18e9	0.034935866
96	0x3d2f0aa1	0.042734746
97	0xbd96513a	-0.073397115
98	0x3da60331	0.081060775
99	0x3d92fce7	0.071771435
100	0x3d9d3ba3	0.076773904
101	0x3cfe3e1c	0.031035475
102	0xbd468d00	-0.04847431
103	0x3db265db	0.08710834
104	0xbe11cbd3	-0.14237909
105	0x3da83291	0.0821277
106	0xbd1c616d	-0.03817885
107	0x3dab6adc	0.08369991
108	0xbd98ee11	-0.074672826
109	0x3d5caf13	0.0538779
110	0xbdba0eb0	-0.09084833
111	0xbdb194c5	-0.08670954
112	0xbc9676ee	-0.018367257
113	0xbdccfc2f	-0.10009038
114	0xbd1b50c0	-0.037918806
115	0xbc514b4e	-0.012774302
116	0x3d0fd1aa	0.03511206
117	0x3d916115	0.07098595
118	0x3d6c72b7	0.057726588
119	0xbdb1b4c2	-0.08677055
120	0x3d054d3a	0.032544352
121	0x3d808fdb	0.06277438
122	0x3c66f875	0.014097323
123	0xbd46aa42	-0.048502214
124	0xbdcbb90d	-0.09947405
125	0x3dd17b56	0.102286026
126	0xbd140fff	-0.036148068
127	0x3da8d526	0.0824378
