models/02_best_model.pt (torch, 109700 bytes, 5 tensors)

weight f4 [8, 200, 3]
0	0xbcd38749	-0.025821345
1	0xbb8af473	-0.0042405664
2	0x3cb2c48d	0.021822238
3	0xbdc44b04	-0.095846206
4	0xbba0f0ad	-0.0049115033
5	0xbda6cf8a	-0.08145054
6	0x3c6c3860	0.014417738
7	0x3cb8612e	0.022507276
8	0x3c6f9b1d	0.014624384
9	0xbd25f36f	-0.04051536
10	0x3c7cbb9c	0.015425589
11	0xbd18d29c	-0.037310228
12	0xbd8c4d82	-0.06850721
13	0xbd67b767	-0.05657139
14	0xbdafa8dd	-0.0857713
15	0x3d69a91a	0.057046033
16	0x3cb7bbc6	0.022428405
17	0x3c1a08d0	0.009401515
18	0x3c038a3c	0.008028563
19	0x3ccdb27f	0.025109528
20	0xbcf4b5f5	-0.02987192
21	0xbd8c0ae4	-0.06838015
22	0xbcac4230	-0.021027654
23	0xbccad5a0	-0.024760067
24	0x3d2eb75a	0.042655326
25	0x3d1ad8c3	0.037804376
26	0x3d20d8e9	0.03926936
27	0x3d1db2c4	0.038500562
28	0x3cd9e4eb	0.026598414
29	0x3cca3a3e	0.024685975
30	0x3d559a0a	0.052148856
31	0xbcc70ba5	-0.024297545
32	0x3d43bc45	0.04778697
33	0xbcfb31b8	-0.030663356
34	0xbcbb00e1	-0.022827568
35	0xbd2f0d0c	-0.04273705
36	0x3d147fae	0.036254577
37	0xbc388966	-0.011263227
38	0x3d580df1	0.05274767
39	0x3c8e414e	0.017365124
40	0xbd25c6f4	-0.04047294
41	0xbd5c3047	-0.05375698
42	0x3d6a4689	0.057196174
43	0x3d858d62	0.06521107
44	0x3d208b3d	0.039195288
45	0x39be035e	0.00036242133
46	0xbc527f87	-0.012847788
47	0xbbbf0262	-0.0058291415
48	0x3c2588ed	0.010103446
49	0xbd32df25	-0.04366984
50	0xbccde86d	-0.025135243
51	0xbd27eeb1	-0.04099912
52	0xbd08a8ed	-0.033364225
53	0x3c89ce06	0.016821872
54	0xbcb30d18	-0.02185683
55	0xbdb4a391	-0.0882026
56	0x3cce0857	0.025150461
57	0xbcd713f2	-0.026254628
58	0x3d686470	0.05673641
59	0x3ce82867	0.028339578
60	0xbc830b3c	-0.015996568
61	0xb8928128	-6.98588e-05
62	0xbd461458	-0.048359245
63	0x3cf77736	0.030208211
64	0xbcbab615	-0.022791902
65	0x3d1059b3	0.035241794
66	0xbd5d9fd5	-0.054107506
67	0xbce500da	-0.027954508
68	0xbc9b5116	-0.018959563
69	0xbc927c5e	-0.017881569
70	0x3d81932f	0.06326901
71	0x3c242f73	0.010021078
72	0xbbb471c7	-0.0055067274
73	0xbd85e0cd	-0.06537018
74	0xbd383436	-0.044971667
75	0xbcea843c	-0.028627507
76	0xbc3f179a	-0.011663342
77	0xbd3ec878	-0.0465779
78	0x3d74b46b	0.059742372
79	0x3dbec28e	0.09314452
80	0x3ccde07c	0.025131457
81	0x3d794328	0.06085506
82	0x3d25ba0f	0.040460642
83	0x3ccc5347	0.024942053
84	0xbba96cf5	-0.0051704594
85	0xbb34c288	-0.002758177
86	0xbc5cce37	-0.0134769
87	0x3cfaed0d	0.030630613
88	0xbc54de66	-0.012992477
89	0xbd825167	-0.063631825
90	0x3dd07ada	0.10179682
91	0x3d02d0da	0.031937458
92	0x3cbcf4ed	0.023066008
93	0xbd1b0e85	-0.037855644
94	0xbc5a3878	-0.013319127
95	0x3b2af62e	0.0026086676
96	0xbd89c5a8	-0.06727153
97	0xbce2d16a	-0.027687747
98	0x3c9a7b8a	0.018857736
99	0x3dd865c8	0.10566288
100	0x3d71ec9b	0.059063535
101	0x3ca03cd0	0.019560248
102	0xbdec8094	-0.11547962
103	0xbd1467f2	-0.036231942
104	0xbd5f7791	-0.054557387
105	0x3c7603fb	0.015015597
106	0xbcdee511	-0.027208837
107	0x3b70b58b	0.0036729302
108	0x3cf96470	0.0304434
109	0xbb9010c5	-0.0043965303
110	0xbc49f725	-0.01232699
111	0xbd0e5005	-0.03474428
112	0xbd9d1e9b	-0.07671853
113	0x3aae1f03	0.0013284389
114	0xbd1769a2	-0.036965974
115	0x3cc26386	0.023729097
116	0x3c8000a8	0.015625313
117	0xbd6e255f	-0.05814111
118	0xbdc914bb	-0.09818407
119	0xbd5453c9	-0.051837716
120	0x3d0584da	0.0325974
121	0x3cfb4387	0.030671848
122	0x3ce9b905	0.028530607
123	0xbc4f9ae6	-0.012671208
124	0xbc834e80	-0.016028643
125	0xbce57867	-0.028011514
126	0x3e22a369	0.15882649
127	0x3caa5182	0.02079082
128	0x3d512507	0.051060703
129	0xbc93e322	-0.018052641
130	0xbcb9a3eb	-0.02266117
131	0xbccc59fa	-0.024945248
132	0x3c07f9bc	0.008299287
133	0x3c1e6722	0.0096681435
134	0x3c1bcfbb	0.009509976
135	0x3d689302	0.056780823
136	0x3de2169f	0.11039471
137	0x3bc9ecae	0.0061622476
138	0xbcc51b4b	-0.024060866
139	0x3bd8e9c3	0.0066196634
140	0xbd4bfed8	-0.049803585
141	0x3d1a9470	0.037739217
142	0x3ca0502b	0.019569477
143	0x3d47f3e1	0.048816565
144	0xbe1c7853	-0.15280275
145	0xbd58c429	-0.052921448
146	0xbcd1c5f9	-0.025607096
147	0xbc788b8e	-0.015169991
148	0x3b89a5b5	0.004200662
149	0x3c90d1e5	0.01767821
150	0x3e3c9566	0.18416366
151	0x3d90ed39	0.07076497
152	0x3d6b7738	0.057486743
153	0xbdb7cf20	-0.08975053
154	0xbda3df0e	-0.08001529
155	0xbcff29ac	-0.0311478
156	0x3bb0549a	0.005381179
157	0xbc4a8031	-0.012359665
158	0x3d37dd6b	0.044888895
159	0xbcd2c2c2	-0.025727633
160	0xbd14e9a0	-0.036355615
161	0xbc280678	-0.0102554485
162	0xbd33dcff	-0.04391193
163	0xbca938e0	-0.020657003
164	0xbb0dc547	-0.002163248
165	0x3c1c8c06	0.009554869
166	0xbc31693f	-0.010828315
167	0x3c1e9e6b	0.0096813245
168	0xbd002e30	-0.031294048
169	0x3c7afdec	0.015319329
170	0x3dbe9e81	0.09307576
171	0xbd7df8b3	-0.062004756
172	0x3c45d40d	0.012074483
173	0xbd1d7b5d	-0.038447727
174	0xbdb678ca	-0.089097574
175	0xbd53514e	-0.05159121
176	0xbd359250	-0.044328988
177	0xbda12be6	-0.07869701
178	0xbdcb4fbf	-0.0992732
179	0x3cbf90cb	0.023384472
180	0x3c3056ab	0.010762851
181	0xbcd863bf	-0.02641475
182	0xba0395bd	-0.0005019566
183	0xbddf79dc	-0.10911915
184	0xbda9831a	-0.08276959
185	0xbd4da03a	-0.050201632
186	0x3c023c7e	0.007948993
187	0xbcfa0cb2	-0.030523632
188	0x3c5ca1ee	0.013466341
189	0xb99a70d4	-0.00029457232
190	0xbd45bf0a	-0.048277892
191	0xbc5b2c03	-0.013377192
192	0xbda17f9c	-0.07885668
193	0xbc5d8d77	-0.013522497
194	0xbac96419	-0.0015364914
195	0x3e05662b	0.13027255
196	0x3dc72c11	0.09725202
197	0x3dcc343f	0.09970903
198	0x3caac25a	0.020844627
199	0xbce4fec0	-0.027953506
200	0x3caf2b0a	0.021382827
201	0x3c4bb228	0.0124326125
202	0x3d3def3e	0.046370737
203	0x3da262d0	0.07929003
204	0x3d6a8ec2	0.05726505
205	0x3cb322e1	0.021867217
206	0x3d04044a	0.032230653
207	0xbe09cb59	-0.13456477
208	0xbde4d9b2	-0.111743346
209	0xbde4dd13	-0.11174979
210	0x3c3c6c25	0.011500393
211	0x3b91db6e	0.004451207
212	0x3b8175da	0.0039508166
213	0xbda9ecb4	-0.08297101
214	0x3cbb8e43	0.022894984
215	0xbd20ece0	-0.0392884
216	0xbda6c56d	-0.08143125
217	0xbc13ce1c	-0.009021308
218	0xbc67d1b7	-0.014149121
219	0x3cd3d741	0.025859477
220	0xbcca88d1	-0.024723442
221	0xbd9c938b	-0.07645329
222	0xbc7e2c4a	-0.015513489
223	0xbcf3aff9	-0.029746996
224	0xbcf0a4e8	-0.029375508
225	0x3cf7b448	0.030237332
226	0x3d8e06cd	0.06934891
227	0xbcb091fa	-0.021553982
228	0x3d0e7a6e	0.034784727
229	0xba0aa3cf	-0.00052886916
230	0x3b769edb	0.0037631306
231	0x3c89460b	0.016757032
232	0xbcc85dde	-0.024458822
233	0xbc53e294	-0.012932438
234	0x3c6b1f25	0.014350687
235	0x3c7e0c54	0.015505869
236	0x3c72cb8f	0.01481904
237	0xbc42b0d7	-0.011882982
238	0x3c5e797d	0.01357877
239	0xbc5d9b60	-0.013525814
240	0x3de259b1	0.110522635
241	0x3cb4e7e2	0.022083227
242	0x3d84a979	0.06477637
243	0x3dd1c33e	0.102423176
244	0xbcd3e12d	-0.025864208
245	0x3ccce09f	0.025009451
246	0x3dcc758f	0.0998336
247	0x3df66c4c	0.12032375
248	0x3d896f99	0.06710739
249	0x3d2794d7	0.04091343
250	0x3b954849	0.004555736
251	0x3abcc698	0.0014402447
252	0x3d4b0e18	0.049573988
253	0x3cc79569	0.024363237
254	0x3d83353d	0.06406639
255	0xbd6c35c9	-0.05766848

bias f4 [8]
0	0xbc9cedb3	-0.019156313
1	0xbd1c6f3c	-0.03819202
2	0xbb9d4540	-0.004799515
3	0x3cbdb506	0.023157608
4	0x3d2768aa	0.0408713
5	0xbced46f8	-0.028964505
6	0xbcaeda31	-0.021344276
7	0xbcfbc660	-0.030734241

weight f4 [32, 656]
0	0x3d9f52f5	0.07779495
1	0x3d1e4b01	0.038645748
2	0xbc2a47ba	-0.0103930775
3	0x3c7b5d2a	0.015342036
4	0x3cdf1f2c	0.027236544
5	0x3d8eca59	0.069721885
6	0x3c281155	0.0102580385
7	0x3cbb2118	0.022842929
8	0x3d47efed	0.048812795
9	0x3d660850	0.05616027
10	0xbc690ebb	-0.014224703
11	0x3d10eae8	0.035380274
12	0x3d318245	0.043337125
13	0x3da17ccd	0.07885132
14	0x3ceb02a4	0.028687783
15	0x3dace03b	0.08441206
16	0x3c883a5b	0.016629389
17	0x3d31c322	0.043398984
18	0x3d0c88ad	0.03431003
19	0x3d573f1d	0.052550424
20	0x3c904a35	0.01761351
21	0x3d2ebc0e	0.04265981
22	0x3d300980	0.04297781
23	0x3d37c4b0	0.04486531
24	0xbcd3a5b7	-0.025835855
25	0xbabf23ee	-0.0014582851
26	0x3dc81505	0.09769634
27	0x399ee478	0.0003030633
28	0x3cd89194	0.026436605
29	0x3c839b39	0.016065227
30	0x3d8018e5	0.06254748
31	0x3bc33568	0.0059572943
32	0x3c80ee62	0.01573867
33	0x3c4d4752	0.012529211
34	0x3ccab987	0.02474667
35	0xbb3fcab4	-0.0029265108
36	0x3c89b14b	0.016808173
37	0x3ca587e0	0.020206392
38	0xbc54809b	-0.012970115
39	0xbd27b92f	-0.04094809
40	0x3d53ba0d	0.051691104
41	0x3b94ebab	0.0045446954
42	0x3d6ca220	0.057771802
43	0x3c358777	0.011079661
44	0xbc977d8d	-0.018492484
45	0x3d0cb9d7	0.03435692
46	0xbcc4a0f8	-0.024002537
47	0x3c756444	0.0149775185
48	0x3d14d9e4	0.03634061
49	0xbaa98692	-0.0012933782
50	0xbbd0e467	-0.006374884
51	0x3c8d5500	0.017252445
52	0x3cfcaed7	0.030845089
53	0x3cbcfb34	0.023069002
54	0x3d1ca84a	0.03824643
55	0x3da5ad48	0.080896914
56	0xbba6713f	-0.005079418
57	0x3c8bc664	0.017062373
58	0xbc5d697a	-0.013513917
59	0x3d3046ad	0.04303615
60	0x3cf654a9	0.030069666
61	0x3c940d34	0.018072702
62	0x3d5a547e	0.053303234
63	0xbc5c7afc	-0.013457056
64	0x3d611da0	0.054959893
65	0x3a8b269e	0.0010616367
66	0x3d092434	0.03348179
67	0x3d30aabc	0.043131575
68	0xbafaf811	-0.0019147416
69	0x3c89195a	0.016735721
70	0xbb0322b0	-0.002000969
71	0x3c318ebe	0.010837255
72	0xbd314107	-0.043274906
73	0x3cf2f232	0.029656503
74	0x3c34e09c	0.011039879
75	0x3c469d81	0.012122513
76	0x3ca3f751	0.02001539
77	0x3b1e773a	0.0024179951
78	0x3d119cb1	0.035549823
79	0x3d420d6a	0.047376074
80	0x3d8ef016	0.069793865
81	0xbbf8a120	-0.007587567
82	0xbca358e2	-0.019939844
83	0x3cfc9457	0.030832453
84	0xbd9beb8a	-0.07613285
85	0x3ca1b5f6	0.019740086
86	0xbc947b5c	-0.018125229
87	0x3cba4078	0.02273582
88	0xbd49dc16	-0.049282156
89	0xbd139f23	-0.036040436
90	0xbcbb323b	-0.0228511
91	0xbcd24611	-0.025668176
92	0x3c0ab96b	0.008467059
93	0xbc4ab47f	-0.012372135
94	0xbd302717	-0.04300603
95	0xbd89849a	-0.06714745
96	0xbd3d9d35	-0.046292502
97	0xbcd6e8c7	-0.026234044
98	0xbd9caa39	-0.07649655
99	0x3bc3ec84	0.0059791226
100	0xbba8aa51	-0.0051472564
101	0xbd09ea16	-0.033670507
102	0xbcc4bbd9	-0.024015354
103	0xbc074c40	-0.0082579255
104	0xbd87f9e0	-0.06639457
105	0xbcf71892	-0.030163083
106	0x3bae5606	0.0053203134
107	0x3cab3ab4	0.020902015
108	0xbd2dbec1	-0.042418245
109	0x3d1969bd	0.037454356
110	0xbd600198	-0.05468902
111	0xbca9be23	-0.020720547
112	0xbc7e6c5b	-0.015528764
113	0xbca3381a	-0.019924212
114	0xbda3aebb	-0.079923116
115	0xbd371107	-0.044693973
116	0xbcaf2a9c	-0.021382622
117	0xbcfb6019	-0.030685471
118	0xbc4d6dce	-0.0125383865
119	0x3b8f36db	0.004370553
120	0xbccfe36a	-0.025376994
121	0xbd476fdd	-0.048690666
122	0xbd5deecb	-0.05418281
123	0xbd4f01c6	-0.0505388
124	0xbc0335c5	-0.008008425
125	0xbd06c3e2	-0.032901652
126	0xbcd71b14	-0.026258029
127	0xbce9f2ec	-0.028558217
128	0xbcf0d08b	-0.029396316
129	0xbccbcb21	-0.024877133
130	0xbcc0d5ba	-0.023539413
131	0xbd079c6c	-0.03310816
132	0x3d050986	0.032479785
133	0xbc93376d	-0.017970765
134	0xbc1c4299	-0.0095373625
135	0xbd14ab5b	-0.03629623
136	0xbba00a76	-0.0048840595
137	0xbc2c5b97	-0.010519884
138	0xbd55795d	-0.052117694
139	0x3b55df07	0.0032634155
140	0xbb173ffe	-0.0023078914
141	0xbd50624f	-0.050875004
142	0xbd1652d5	-0.03670009
143	0xbcb2dca2	-0.021833722
144	0xbcc28458	-0.023744747
145	0xbd981e3a	-0.0742764
146	0xbd5861fd	-0.052827824
147	0x3cbf76c0	0.023372054
148	0x3ba766ad	0.0051086755
149	0x3abf9615	0.0014616871
150	0xbbf68a1e	-0.007523789
151	0xbc22dc77	-0.009940258
152	0xbcc0dd00	-0.023542881
153	0xbd06dbd1	-0.032924477
154	0xbd10212f	-0.035187896
155	0xbc8c94cb	-0.017160794
156	0x391257ee	0.00013956401
157	0xbd822c3a	-0.06356092
158	0xbd6e629b	-0.058199506
159	0xbd198b3c	-0.0374863
160	0xbcae9e4e	-0.02131572
161	0xbd37b6c0	-0.04485202
162	0xbcf2fce9	-0.029661613
163	0xbcb35c70	-0.021894664
164	0x3d0ecf52	0.034865685
165	0x3c58bb0a	0.013228187
166	0x3d10499c	0.03522645
167	0x3ccc2e56	0.024924438
168	0x3d45f3cb	0.048328202
169	0x3bc814d4	0.0061059985
170	0x3cc32e5a	0.023825813
171	0x3d19c756	0.037543617
172	0x3d84139e	0.06449054
173	0x3c476532	0.012170123
174	0x3d521297	0.05128726
175	0x3d6aaabd	0.057291735
176	0x3cd2c7c0	0.025730014
177	0x3dc2d21d	0.09512732
178	0x3c46db32	0.012137221
179	0x3c222253	0.009895879
180	0x3d340d76	0.04395815
181	0x3caa44e7	0.020784808
182	0x3d476962	0.048684485
183	0x3d4adea9	0.04952875
184	0x3c85ed26	0.016348433
185	0x3d6cbcaf	0.05779713
186	0x3d31789a	0.043327905
187	0xbbd036bc	-0.006354181
188	0x3cf0e8cf	0.029407887
189	0x3d357f7a	0.044311024
190	0xbc15d41c	-0.009144809
191	0x3cb48d83	0.022040134
192	0x3d216c59	0.03940997
193	0xbcbb9bf8	-0.02290152
194	0x3d49ac13	0.04923637
195	0x3cd0fd85	0.025511513
196	0x3d0212b8	0.031756133
197	0x3d224730	0.03961867
198	0xbcdefc34	-0.02721987
199	0xba3a4701	-0.00071059173
200	0xbcd0b6f8	-0.025477871
201	0x3c59fd45	0.013305013
202	0xbc7e8d55	-0.015536626
203	0x3c22f21f	0.0099454215
204	0x3cc53109	0.024071233
205	0x3cee6a1d	0.029103333
206	0x3bc67422	0.0060563246
207	0x3be39d20	0.006946221
208	0xbd13ab16	-0.036051832
209	0x3d1ee369	0.038791094
210	0x3b3de940	0.002897814
211	0x3ccca1f1	0.024979563
212	0x3d61ac83	0.05509616
213	0x3d025475	0.031818826
214	0x3d971f17	0.07378977
215	0x3d42788f	0.047478255
216	0x3ac95edb	0.0015363352
217	0xbc9182e8	-0.017762616
218	0x3d3289f3	0.04358859
219	0x3dceacf5	0.10091583
220	0x3ce4f9fd	0.027951235
221	0x3d7e8b6e	0.06214469
222	0x3d048b8c	0.032359645
223	0x3c407a6e	0.0117479395
224	0x3c19aa9b	0.009379054
225	0x3d147af5	0.036250073
226	0x3d0bed48	0.034161836
227	0xbcdd2c3a	-0.026998628
228	0x3da794d0	0.081826806
229	0x3cce8563	0.025210088
230	0x3cd87be7	0.026426269
231	0x3d27a410	0.040927947
232	0x3d0141b7	0.03155681
233	0x3d8a0cd6	0.067407295
234	0xbccd8063	-0.025085634
235	0xbc3ff5cb	-0.011716316
236	0x3d456b17	0.048197832
237	0x3d864754	0.065565735
238	0x3d8de675	0.06928722
239	0x3ca6a968	0.020344451
240	0x3d5dbc81	0.05413485
241	0xbc01ed59	-0.007930123
242	0x3d4205bc	0.04736875
243	0xbc006b26	-0.007838046
244	0x3d539a14	0.051660612
245	0x3d0ff4a2	0.03514541
246	0x3cc86c0a	0.02446558
247	0xbd0ed8d7	-0.034874763
248	0x3cd2c713	0.025729692
249	0x3d4554fb	0.048176747
250	0xbc4586db	-0.012056078
251	0xbd1cc4b6	-0.038273536
252	0xbc905c2a	-0.017622072
253	0xba31361a	-0.0006760076
254	0xbd4a96be	-0.049460165
255	0xbc43c054	-0.01194771

bias f4 [32]
0	0x3cbcb7f5	0.023036936
1	0xbabc2c12	-0.0014356396
2	0xbd11762a	-0.03551308
3	0x3d0e270b	0.034705203
4	0xbcfce96a	-0.03087302
5	0x3cd45f29	0.025924282
6	0xbd27b462	-0.04094351
7	0x3d55a21d	0.052156556
8	0xbc9d3493	-0.019190108
9	0xbc3aa8be	-0.01139277
10	0xbc5b74d1	-0.01339455
11	0x3d25ed0f	0.04050928
12	0xbb674382	-0.003528804
13	0x3d796e85	0.060896415
14	0xbd865dee	-0.065608844
15	0x3bdc8fe6	0.006731021
16	0x3d17bea4	0.037047043
17	0xbb3d93a2	-0.0028927107
18	0x3d39a25d	0.045320857
19	0x3d7943e6	0.06085577
20	0xbc4db89b	-0.01255622
21	0xbd1a2ef0	-0.03764242
22	0xbcd987e5	-0.026554057
23	0x3be0b0d9	0.0068570194
24	0x3cd49228	0.025948599
25	0xbc93a512	-0.018023048
26	0xbc3c0b75	-0.011477341
27	0x3cb94ac9	0.022618668
28	0x3c1652af	0.009174987
29	0xbc9be608	-0.019030586
30	0x3d8057d8	0.06266755
31	0xbd1e4033	-0.038635444

weight f4 [1, 32]
0	0xbe0a153b	-0.13484661
1	0x3dbc90f6	0.092073366
2	0xbe093be5	-0.13401754
3	0xbe095bd1	-0.13413931
4	0x3e2b9a45	0.16758068
5	0x3d1458b0	0.03621739
6	0x3df58a0f	0.11989223
7	0xbe1ec65b	-0.15505354
8	0xbe108e4a	-0.14116779
9	0xbe466bcf	-0.19377063
10	0xbdd09a7b	-0.10185715
11	0x3e83a0f1	0.25708726
12	0xbdcb184a	-0.09916742
13	0x3e5e5adf	0.21714352
14	0xbe05bac7	-0.13059531
15	0xbe4e2907	-0.20132838
16	0x3e36c840	0.17849827
17	0xbe74adee	-0.23894474
18	0x3e535f4e	0.20641825
19	0xbe8b04ed	-0.27152196
20	0xbe6c6974	-0.23087102
21	0x3dcd1255	0.10013262
22	0xbc711fa1	-0.014717014
23	0x3ea5012a	0.3222745
24	0xbdf32405	-0.118721046
25	0x3d4fe1b6	0.050752364
26	0xbe0841dd	-0.13306375
27	0x3df2a553	0.11847939
28	0x3e79de56	0.2440122
29	0x3d00cde8	0.031446368
30	0x3e351246	0.17682752
31	0xbdf46036	-0.11932413
