models/03_gru_model.pt (torch, 295490 bytes, 11 tensors)

weight_ih_l0 f4 [192, 100]
-0.13957782 -0.09192089 -0.0012967087 0.016251637 -0.05399951 0.05557243 -0.0046531335 -0.06347426
0.13240641 -0.04527653 0.036558457 0.0050234026 -0.100173496 -0.03721222 -0.14969288 0.0285871
0.0217796 -0.07165878 0.10770864 0.048821915 -0.0072122696 -0.023485862 -0.072360136 0.11747366
-0.05390699 -0.034954164 0.10968767 -0.061521586 0.03747692 -0.035075065 -0.018484069 0.07791486
-0.15083258 0.12005712 0.0036745737 -0.052474443 -0.050969187 -0.080477305 0.12725237 -0.098968215
-0.000449793 -0.07073059 0.07917158 0.004204267 0.08572747 0.015798314 0.02375243 0.012042639
0.11688771 0.08681391 -0.06660011 0.15588461 0.014339811 -0.082778536 0.10540661 -0.078249194
0.0066002663 -0.15139672 0.039894592 -0.080910504 -0.11776462 0.0034536947 0.04003859 0.06836776
0.10679579 -0.008117965 0.021849614 0.039799392 -0.039411385 0.14889531 -0.08640485 0.060498156
0.13199285 -0.08781618 0.089967564 0.089841306 -0.113800116 -0.02124267 0.005994752 0.092435926
0.0040994156 -0.09233933 0.09341059 0.039624672 -0.07277463 0.18253882 -0.089380085 0.038840268
0.0399655 0.020685274 0.09435284 -0.03466363 -0.0028674863 -0.090488404 0.03373925 -0.17101744
0.08761975 0.0922664 0.029815067 -0.008145378 0.07571432 0.073091775 -0.08978416 0.052444033
-0.12933697 -0.098137185 -0.19265328 -0.13178599 0.16946867 0.1443599 -0.07231774 0.044804543
0.07856234 -0.060220424 0.10251616 -0.0733185 -0.038893793 -0.07407464 -0.110752404 0.006265953
-0.07675964 -0.11150464 -0.21882875 0.13526647 0.055954617 -0.005064439 -0.08824217 -0.09167174
0.046599768 0.03570244 -0.06108585 0.10788612 -0.03517119 0.11773964 -0.13657731 0.07556614
0.15054724 0.02641416 0.11014642 -0.05135553 -0.1027657 0.09572405 0.093358934 -0.005950308
-0.07482555 0.06455756 0.0328502 -0.18065886 -0.1816016 0.017672297 0.0055867746 0.061240993
0.07984946 0.08029435 -0.071844965 -0.0044259983 -0.12078508 -0.019866867 -0.06624282 -0.058420356
0.018430855 0.07000005 -0.05338975 0.08151518 0.12914528 0.15503332 0.12822342 -0.046846442
-0.03022747 -0.038862426 -0.119671054 -0.17221065 0.07986969 -0.13028196 0.13952744 -0.110178865
0.1584988 0.02839137 -0.09881186 -0.027366506 -0.037707865 -0.099082105 -0.030671472 -0.07393941
-0.13687736 0.14477049 0.011849573 -0.049537037 -0.03282011 0.043924876 -0.10905363 -0.02738343
0.025043106 -0.075082526 -0.010292096 0.047002397 0.16992277 -0.004600392 0.12726802 -0.0089682825
-0.00021649919 0.12925093 -0.071422674 -0.112101145 -0.14470378 0.053892244 -0.17709243 -0.0074159517
0.08240472 0.12653376 0.043178897 -0.1305439 -0.021194069 0.14001332 0.07770861 -0.042849183
0.032936372 0.050528098 0.07021057 0.18944854 -0.008855819 0.057167266 -0.07904567 0.0590625
0.042176858 -0.06284323 -0.024980038 -0.14442752 0.1085209 -0.033306018 -0.027540006 0.05946696
0.021401143 -0.022639515 -0.08183966 0.07236954 -0.02528867 -0.06194061 -0.029941535 -0.013930697
-0.1854427 0.01273715 0.02801163 0.15412351 -0.14341062 -0.049363416 -0.06397377 -0.19792919
-0.08942706 0.026607398 -0.0074343514 -0.108944856 -0.038406044 0.10441866 0.053155947 -0.105984345
00000000: 7ded 0ebe 0541 bcbd 53f6 a9ba 2722 853c
00000010: 972e 5dbd eb9f 633d 5079 98bb cbfe 81bd
00000020: 8c95 073e e273 39bd 52be 153d 5b9b a43b
00000030: c327 cdbd d76b 18bd 1749 19be 7e2f ea3c
00000040: 226b b23c d7c1 92bd 5996 dc3d 7df9 473d
00000050: e754 ecbb 6c65 c0bc 8d31 94bd 0896 f03d
00000060: 93cd 5cbd 192c 0fbd eea3 e03d 0ffe 7bbd
00000070: 6681 193d dfaa 0fbd e76b 97bc d391 9f3d
00000080: db73 1abe 82e0 f53d 1ed1 703b 71ef 56bd
00000090: 11c5 50bd 49d1 a4bd 724e 023e d9af cabd
000000a0: 32d2 ebb9 33db 90bd b624 a23d f3c3 893b
000000b0: e291 af3d 776b 813c 7594 c23c 7d4e 453c
000000c0: d362 ef3d 7ecb b13d a365 88bd 37a0 1f3e
000000d0: 87f1 6a3c cb87 a9bd 6cdf d73d 1d41 a0bd
000000e0: 0c47 d83b be07 1bbe 8368 233d 68b4 a5bd
000000f0: 942e f1bd 6257 623b 81ff 233d 6504 8c3d
00000100: c0b7 da3d 3701 05bc f6fd b23c b004 233d
00000110: d56d 21bd 0378 183e 07f5 b0bd eacc 773d
00000120: 2229 073e f8d8 b3bd ea40 b83d b8fe b73d
00000130: 0910 e9bd 1c05 aebc a06f c43b 0c4f bd3d
00000140: 6454 863b 671c bdbd 0d4e bf3d 7b4d 223d
00000150: dd0a 95bd 75eb 3a3e e80c b7bd f916 1f3d
00000160: ddb2 233d 2a74 a93c 103c c13d 73fb 0dbd
00000170: 70ec 3bbb fc51 b9bd 2b32 0a3d 321f 2fbe
00000180: fc71 b33d 2bf6 bc3d ba3e f43c 3174 05bc
00000190: 1c10 9b3d 24b1 953d c2e0 b7bd 8ecf 563d
000001a0: e970 04be 26fc c8bd e746 45be e8f2 06be
000001b0: 3289 2d3e 15d3 133e 531b 94bd f884 373d
000001c0: 4be5 a03d b1a9 76bd fef3 d13d 0228 96bd
000001d0: 194f 1fbd 72b4 97bd 28d2 e2bd a052 cd3b
000001e0: 2834 9dbd 8b5c e4bd a514 60be 4b83 0a3e
000001f0: ab30 653d 98f3 a5bb 50b8 b4bd 65be bbbd
00000200: 66df 3e3d b93c 123d 2835 7abd 66f3 dc3d
00000210: aa0f 10bd 7b21 f13d ecda 0bbe 6cc2 9a3d
00000220: 0e29 1a3e 8262 d83c 7294 e13d 2d5a 52bd
00000230: d376 d2bd f90a c43d f832 bf3d cdfa c2bb
00000240: 233e 99bd c136 843d ee8d 063d a3fe 38be
00000250: c5f5 39be 7ec5 903c 4311 b73b d6d7 7a3d
00000260: 1d88 a33d 5d71 a43d 7423 93bd f707 91bb
00000270: 2b5e f7bd d7bf a2bc 51aa 87bd 2f4a 6fbd
00000280: 4efc 963c 305c 8f3d 36af 5abd 6ef1 a63d
00000290: a93e 043e 0ec1 1e3e 004d 033e 0ee2 3fbd
000002a0: 999f f7bc 352e 1fbd 1916 f5bd fd57 30be
000002b0: b892 a33d a268 05be 48e0 0e3e 75a5 e1bd
000002c0: 824d 223e 0595 e83c df5d cabd b92f e0bc
000002d0: 9073 1abd 8feb cabd bd42 fbbc 8c6d 97bd
000002e0: 9429 0cbe b73e 143e b624 423c 59e7 4abd
000002f0: 616e 06bd 92ea 333d 8257 dfbd 3753 e0bc
00000300: 3327 cd3c dec4 99bd 2ea0 28bc 9685 403d
00000310: 3c00 2e3e e3be 96bb 8c52 023e b4ef 12bc
00000320: 0f04 63b9 5b5a 043e 0d46 92bd 4995 e5bd
00000330: 3a2d 14be 1dbe 5c3d b857 35be 8301 f3bb
00000340: cec3 a83d 1192 013e 5bdc 303d 4dad 05be
00000350: 2f9f adbc a75f 0f3e b125 9f3d a082 2fbd
00000360: 4ae8 063d 8df6 4e3d 8fca 8f3d ccfe 413e
00000370: ff17 11bc 3928 6a3d b2e2 a1bd 85eb 713d
00000380: a4c1 2c3d f4b3 80bd f0a2 ccbc cfe4 13be
00000390: 3540 de3d e46b 08bd 949b e1bc a193 733d
000003a0: 7351 af3c 8176 b9bc 8d9b a7bd 7b36 943d
000003b0: 2f2a cfbc 70b5 7dbd f347 f5bc 943d 64bc
000003c0: b1e4 3dbe 7baf 503c a578 e53c 8ed2 1d3e
000003d0: 3cda 12be 4b31 4abd ae04 83bd f3ad 4abe
000003e0: 8925 b7bd c2f7 d93c dc9b f3bb 7b1e dfbd
000003f0: a84f 1dbd 73d9 d53d 0dba 593d 520e d9bd

weight_hh_l0 f4 [192, 64]
0.11513675 -0.08905021 -0.011535581 0.08297125 0.054593924 0.013117618 -0.053503167 -0.035760246
-0.029246768 0.05087537 0.0058309287 -0.12908672 -0.05254779 0.105415285 0.10866373 -0.09152854
0.041508734 -0.037194062 0.06770487 0.027791085 0.015538957 0.05627059 0.061170094 0.0052210796
0.0597927 0.01805185 0.02151361 -0.066331774 -0.023026282 0.0035563284 0.14925757 0.040241223
0.021606721 0.07220982 0.04645697 0.05837505 -0.025264084 0.12392108 -0.0080469195 0.021645978
0.037102085 -0.106263235 -0.007592347 0.08334789 0.012686294 -0.1472252 0.070161805 -0.05973532
0.059172038 -0.002438409 -0.14163826 0.024362268 0.05228179 0.08189355 0.017839724 0.1128801
0.016025295 0.0069952267 0.05342348 0.08977508 -0.11425995 -0.002660381 -0.04883099 0.038846448
0.14832523 -0.09633164 0.09985253 0.026853394 0.0454016 -0.029899327 -0.05479548 0.06049005
-0.091162644 -0.06408847 -0.12896292 -0.095220655 -0.110392064 -0.121854216 -0.042743582 0.03687638
-0.04879158 -0.012530443 -0.017723378 0.10816747 0.05132112 -0.040737472 0.033080567 0.11962297
-0.1068085 0.034491193 0.029749723 0.07924857 0.024734613 -0.13240439 0.08442758 0.05971673
0.03945251 -0.14693719 0.13342899 -0.078123435 0.025988553 0.1191811 0.039039135 0.08080964
-0.073579915 0.006446757 0.028556462 -0.0010226036 -0.11160307 0.038408335 -0.1121685 0.16251905
-0.097611554 0.007612846 -0.119324565 -0.092620336 0.026935197 -0.060095917 -0.054433238 0.09436294
0.0070006545 -0.043752737 0.08920188 0.032158367 -0.021147752 -0.015390063 0.13913704 0.020428192
-0.077660955 -0.051397357 -0.08424717 -0.05345816 0.0751243 -0.12399944 0.13840674 0.05306772
0.049412664 -0.094993785 -0.014615921 -0.043196213 -0.05759678 -0.10716789 -0.020799741 -0.076032564
0.07579564 0.050876457 -0.012474337 0.18613134 -0.008140596 0.06899446 0.010717323 0.10805655
0.09540678 0.03372134 -0.072095536 -0.018090503 -0.0031921626 -0.010747464 0.2122116 -0.0026499568
0.021184068 -0.11242825 0.054102648 -0.015400126 0.11998426 0.029541615 0.12964925 0.11454635
0.013149046 0.058710326 -0.12212684 -0.097494446 -0.20398463 -0.012145635 -0.031343624 0.16768631
0.023899816 0.037807964 0.020570356 -0.05247783 0.021164771 -0.028926192 0.030308602 -0.05023663
0.095809035 0.012608972 0.040551715 0.101181254 -0.071550146 0.14300223 0.086050436 -0.11372699
-0.11399012 -0.012297333 0.055678807 -0.04268732 -0.18799528 0.1322038 -0.00096001686 -0.09480427
-0.05525288 -0.04328001 0.089442715 0.0061329105 -0.09338701 0.040188074 0.10453689 0.06053756
0.062860094 0.069254965 -0.118787564 -0.11316669 0.0017147078 -0.040618002 0.071380645 -0.09755846
-0.016678888 0.05326217 -0.112814374 -0.12474902 0.031839207 -0.10703753 0.23571365 -0.0639279
-0.0046207365 0.040302802 0.009267328 -0.013749833 -0.11357933 0.089129046 -0.022492891 0.0447448
0.04283292 -0.078665294 -0.18871361 0.11199686 -0.024073001 0.033353824 0.03313122 0.02569704
0.05990679 0.029088046 0.018840576 -0.07339053 -0.14350553 0.05601386 -0.020595733 0.14779292
0.014768816 -0.15410212 0.00055580644 0.047582723 0.022527302 -0.08252582 -0.087365754 -0.008683874
00000000: d1cc eb3d f55f b6bd bcff 3cbc d5ec a93d
00000010: e19d 5f3d 47eb 563c 2326 5bbd 5679 12bd
00000020: eb96 efbc b162 503d 6011 bf3b 4f2f 04be
00000030: 5a3c 57bd f8e3 d73d 178b de3d 5173 bbbd
00000040: 1005 2a3d cd58 18bd daa8 8a3d 21aa e33c
00000050: 1c97 7e3c fd7b 663d 7e8d 7a3d 9715 ab3b
00000060: 31e9 743d 79e1 933c 4f3d b03c f4d8 87bd
00000070: 9da1 bcbc 4a11 693b fad6 183e fbd3 243d
00000080: 9400 b13c bee2 933d aa49 3e3d ad1a 6f3d
00000090: a0f6 cebc 56ca fd3d 3ad7 03bc e852 b13c
000000a0: 5bf8 173d 8aa0 d9bd 39c9 f8bb 4cb2 aa3d
000000b0: 2cda 4f3c 34c2 16be feb0 8f3d 06ad 74bd
000000c0: 615e 723d b7cd 1fbb 9f09 11be 6193 c73c
000000d0: 6e25 563d ceb7 a73d 9d24 923c af2d e73d
000000e0: 7b47 833c 3738 e53b 94d2 5a3d ffdb b73d
000000f0: 1f01 eabd c959 2ebb 0103 48bd 741d 1f3d
00000100: 92e2 173e 8649 c5bd 7c7f cc3d a6fb db3c
00000110: 07f7 393d 6fef f4bc 3a71 60bd 6ac4 773d
00000120: 7bb3 babd d140 83bd db0e 04be 0c03 c3bd
00000130: 3c15 e2bd b48e f9bd e513 2fbd b00b 173d
00000140: aed9 47bd 7d4c 4dbc 9e30 91bc e886 dd3d
00000150: 1836 523d 56dc 26bd 7d7f 073d e3fc f43d
00000160: 6abe dabd a346 0d3d b1b5 f33c 134d a23d
00000170: 3ea0 ca3c 0495 07be 5ee8 ac3d 8899 743d
00000180: f598 213d b476 16be 9ca1 083e 2eff 9fbd
00000190: f2e5 d43c 3815 f43d 80e7 1f3d 867f a53d
000001a0: 11b1 96bd 513f d33b 3eef e93c e208 86ba
000001b0: 2690 e4bd 0f52 1d3d 99b8 e5bd 656b 263e
000001c0: 91e8 c7bd 2e75 f93b 7060 f4bd bbaf bdbd
000001d0: 34a7 dc3c 2327 76bd 63f5 5ebd 5b41 c13d
000001e0: bf65 e53b 1236 33bd 7aaf b63d 7eb8 033d
000001f0: 0d3e adbc 9a26 7cbc f179 0e3e 0659 a73c
00000200: b50c 9fbd 0986 52bd c889 acbd f2f6 5abd
00000210: c5da 993d 6bf3 fdbd 7fba 0d3e 8a5d 593d
00000220: ef64 4a3d 1a8c c2bd 9e77 6fbc 83ee 30bd
00000230: 9aea 6bbd d77a dbbd 3864 aabc f6b6 9bbd
00000240: bf3a 9b3d d563 503d 2961 4cbc 3799 3e3e
00000250: 2260 05bc f84c 8d3d b697 2f3c c14c dd3d
00000260: a164 c33d 631f 0a3d d3a6 93bd 8932 94bc
00000270: 9a33 51bb 2216 30bc ff4d 593e e6aa 2dbb
00000280: 368a ad3c c840 e6bd bd9a 5d3d cf50 7cbc
00000290: 4fba f53d 4201 f23c c6c2 043e 4797 ea3d
000002a0: 196f 573c 3d7a 703d a31d fabd 2bab c7bd
000002b0: 59e1 50be 7cfe 46bc 2c62 00bd f6b5 2b3e
000002c0: 8cc9 c33c 86dc 1a3d 2a83 a83c fef2 56bd
000002d0: be61 ad3c 9ff6 ecbc bf49 f83c edc4 4dbd
000002e0: 8737 c43d dd95 4e3c 8e19 263d 1e38 cf3d
000002f0: e288 92bd 2d6f 123e 363b b03d b2e9 e8bd
00000300: a773 e9bd c17a 49bc 760f 643d e6d8 2ebd
00000310: d681 40be 6f60 073e a4a9 7bba be28 c2bd
00000320: d850 62bd 6146 31bd be2d b73d 95f6 c83b
00000330: b041 bfbd 409c 243d 7017 d63d 3cf6 773d
00000340: cbbc 803d 8cd5 8d3d e546 f3bd f0c3 e7bd
00000350: 0cc0 e03a 105f 26bd 0430 923d bbcc c7bd
00000360: 2aa2 88bc 6f29 5a3d 390b e7bd 6a7c ffbd
00000370: d469 023d 7e36 dbbd eb5e 713e a1ec 82bd
00000380: 8c69 97bb 8d14 253d fed5 173c fb46 61bc
00000390: 489c e8bd 4a89 b63d 0343 b8bc 5346 373d
000003a0: 9271 2f3d 451b a1bd 243e 41be 9c5e e53d
000003b0: be34 c5bc 059e 083d 9ab4 073d 9982 d23c
000003c0: d260 753d 0e4a ee3c 8d57 9a3c c64d 96bd
000003d0: 1df3 12be ca6e 653d 62b8 a8bc 0757 173e
000003e0: e7f8 713c f2cc 1dbe 8ab3 113a 1ae6 423d
000003f0: 2d8b b83c 4c03 a9bd d1ec b2bd cf46 0ebc

bias_ih_l0 f4 [192]
-0.012561363 0.066441625 0.13510698 0.009527899 -0.047630157 -0.094887644 0.011334566 -0.06759411
-0.057542257 0.042240966 -0.10212574 0.099675104 0.059509635 -0.029980266 -0.09950106 0.12298726
-0.10850565 0.109519266 -0.08431512 0.023206254 -0.033245623 -0.120976396 -0.0040235543 -0.026195733
-0.051641453 0.121113084 -0.047540147 -0.039580904 -0.10920252 0.055815093 -0.12430964 0.12672932
-0.047365382 0.013757099 -0.1007781 0.1382209 0.114585035 -0.060642563 0.11500208 0.17184919
-0.020862766 -0.0019883902 -0.007984841 0.089983106 0.10429342 -0.100821786 0.10292055 -0.010777334
0.16034435 -0.09470906 0.1398296 0.08788891 0.07878503 -0.04667249 0.09792403 -0.057573136
0.0017631754 0.118552625 0.07311929 0.16143104 0.11776507 0.10068918 0.119853444 0.02581232
0.061023176 0.35605422 0.34975705 0.025817093 -0.08710614 0.39991042 0.14786538 0.20365673
0.09008146 0.21533553 0.17854707 0.13351656 0.1982422 0.15937777 0.00045630705 0.22815627
-0.059616968 0.06125748 0.10776722 0.04582766 0.32737225 0.33723435 -0.09148049 0.2786481
0.14861882 0.033945695 0.09492179 0.05928912 0.26779106 0.06751381 -0.07606381 0.39468065
0.23972167 0.15662466 0.11703062 0.29912162 -0.00973794 -0.027207606 0.19806921 0.2238082
0.18297598 0.20507859 0.13839076 0.2678035 0.1249215 -0.11645299 -0.048945036 0.11352261
0.33362988 0.13309121 0.108906575 0.14966582 -0.04972646 0.25848228 0.03911375 0.1556287
0.14570884 0.08817459 0.05076584 0.19359975 -0.019243373 0.2819768 0.15229307 -0.099031225
0.08427772 -0.037638612 -0.03454056 -0.056549303 -0.11797817 -0.014966988 0.085839525 0.03798692
-0.097004175 0.10138595 -0.13612315 0.03939547 -0.047939263 0.043894198 -0.030086333 -0.044461876
0.08604135 0.07641069 -0.09229825 -0.1498077 0.011113629 -0.002280731 -0.01920797 0.03788034
0.0666192 -0.0892677 -0.006332255 0.076851815 0.0860388 -0.1096926 0.12655357 0.08218524
-0.022316737 -0.17632544 -0.09390427 0.07206709 0.012744842 -0.09937933 -0.03305724 -0.11631416
0.088384956 -0.026892548 -0.0741558 0.056324083 0.0055211214 0.071273275 -0.12922907 0.21868092
0.06240539 -0.14282393 0.029120026 0.13661227 -0.12224266 0.02930876 0.050391562 0.15559384
-0.010622727 -0.041399512 0.057618313 0.034502987 -0.077153996 -0.058846865 0.006666121 -0.021034276
00000000: 2dce 4dbc 8c12 883d 7c59 0a3e e81a 1c3c
00000010: d717 43bd 7454 c2bd 9eb4 393c c86e 8abd
00000020: 6eb1 6bbd dd04 2d3d 4d27 d1bd 7622 cc3d
00000030: 60c0 733d 2d99 f5bc 36c7 cbbd bfe0 fb3d
00000040: 3638 debd a34b e03d 68ad acbd 0b1b be3c
00000050: 902c 08bd 79c2 f7bd 05d8 83bb 6f98 d6bc
00000060: fd85 53bd 230a f83d 75b9 42bd 961f 22bd
00000070: 92a5 dfbd 5e9e 643d 0d96 febd 55c5 013e
00000080: 3402 42bd 7565 613c c064 cebd c889 0d3e
00000090: 8fab ea3d 5664 78bd 3686 eb3d 3cf9 2f3e
000000a0: 64e8 aabc a74f 02bb dad2 02bc 1049 b83d
000000b0: ca97 d53d a77b cebd 02c8 d23d 6a93 30bc
000000c0: 4f31 243e d3f6 c1bd 7e2f 0f3e 1aff b33d
000000d0: 0c5a a13d a72b 3fbd 658c c83d cfd1 6bbd
000000e0: 591a e73a b8cb f23d 91bf 953d 2e4e 253e
000000f0: d02e f13d 2136 ce3d b975 f53d 5c74 d33c
00000100: 70f3 793d bd4c b63e 5b13 b33e 5e7e d33c
00000110: b464 b2bd 0fc1 cc3e 066a 173e 648b 503e
00000120: a17c b83d eb80 5c3e 0bd5 363e 91b8 083e
00000130: 0100 4b3e ed33 233e 7f3c ef39 cca1 693e
00000140: ec30 74bd 20e9 7a3d 0fb5 dc3d c9b5 3b3d
00000150: 569d a73e fba9 ac3e 205a bbbd f7aa 8e3e
00000160: 882f 183e a40a 0b3d 5b66 c23d 26d9 723d
00000170: e91b 893e ae44 8a3d 58c7 9bbd 9513 ca3e
00000180: 9979 753e 3762 203e c0ad ef3d 7826 993e
00000190: e18b 1fbc 7ce2 debc a8d2 4a3e fa2d 653e
000001a0: 0e5e 3b3e 1f00 523e 4fb6 0d3e 8a1d 893e
000001b0: d8d6 ff3d e87e eebd 977a 48bd 8b7e e83d
000001c0: 89d1 aa3e 1049 083e 690a df3d ff41 193e
000001d0: f9ad 4bbd ca57 843e bd35 203d 215d 1f3e
000001e0: b334 153e e194 b43d d7ef 4f3d 033f 463e
000001f0: 47a4 9dbc 435f 903e b7f2 1b3e e2d0 cabd
00000200: cc99 ac3d f22a 1abd 677a 0dbd 3ea0 67bd
00000210: 8a9e f1bd 1938 75bc a2cc af3d 2c98 1b3d
00000220: 20aa c6bd 70a3 cf3d de63 0bbe 255d 213d
00000230: f65b 44bd 67ca 333d 9d77 f6bc a81d 36bd
00000240: 7336 b03d 357d 9c3d dd06 bdbd 3167 19be
00000250: f015 363c 5178 15bb 085a 9dbc 6a28 1b3d
00000260: a66f 883d fcd1 b6bd ce7e cfbb 7c64 9d3d
00000270: 1c35 b03d 84a6 e0bd 4297 013e bc50 a83d
00000280: 97d1 b6bc a88e 34be e250 c0bd e997 933d
00000290: becf 503c 6487 cbbd 0767 07bd 1e36 eebd
000002a0: 2c03 b53d c34d dcbc ffde 97bd 15b4 663d
000002b0: 86ea b43b b9f7 913d a054 04be e4ed 5f3e
000002c0: cb9c 7f3d 7040 12be 1f8d ee3c 16e4 0b3e
000002d0: 5c5a fabd ed18 f03c 6267 4e3d fe53 1f3e
000002e0: f20a 2ebc 8992 29bd 2e01 6c3d 0153 0d3d
000002f0: ea02 9ebd 6909 71bd 7a6f da3b 1350 acbc

bias_hh_l0 f4 [192]
-0.05117037 0.16371441 0.041445903 0.060150385 -0.06300449 0.111568205 0.0001697221 -0.023794893
-0.07575832 0.09191708 0.103149064 0.060692053 -0.044033922 0.14070262 -0.07723969 0.062451378
-0.116754904 0.11984375 0.0627226 0.03545265 -0.08128294 -0.044921 -0.044079114 0.021225492
-0.11024716 0.029403586 0.08046527 0.03790714 -0.024946889 0.029056739 -0.03277155 0.053514957
0.014524613 -0.08505881 -0.03665323 -0.054310896 0.0032379597 -0.08027808 0.022215718 -0.026928732
0.14212164 -0.03827513 -0.021090856 0.018520178 0.046414502 0.068513304 -0.12585586 0.23370108
0.17677918 -0.06445204 0.13338363 -0.029482018 -0.040583972 0.13445991 -0.09415394 0.058933433
0.018827694 0.07739724 0.18291448 0.15059148 0.09538926 0.14122795 0.0074332203 0.07591341
0.23851591 0.23267668 0.27599034 0.063399345 0.021208333 0.19350941 0.20787546 0.12050575
0.08695219 0.2583146 0.14009176 0.030804848 0.399789 -0.035823017 0.06458986 0.38225016
-0.021527788 0.038920205 0.12195199 -0.0062013557 0.16615401 0.28134823 -0.0690275 0.24287863
0.21036714 -0.024798088 0.07942003 0.14007819 0.071739405 0.037371207 0.1464402 0.26320824
0.11069836 -0.061736118 0.15472424 0.18580425 0.007197613 0.09535717 0.06849545 0.16657136
0.16842756 0.3282121 0.16274327 0.099817075 0.13112348 -0.09651228 -0.034065228 -0.075720094
0.40492356 0.13998808 0.2874285 0.049746364 0.06170911 0.22587284 0.22138692 0.01139187
-0.051161233 -0.10817229 0.13796635 0.07236415 -0.08516852 0.4864249 0.22843987 0.08651285
-0.034836758 -0.034022197 0.015728552 -0.03424312 -0.006336195 0.07335005 -0.06469843 -0.012771559
-0.032107208 0.060876768 -0.084390365 0.026467063 -0.1263162 -0.10048924 0.1297184 -0.09682279
-0.023452388 -0.11061745 0.10965811 -0.009930637 -0.013409962 -0.045139447 0.0014899201 0.018931799
0.09199213 -0.10117333 -0.123065904 0.004678857 -0.07723939 0.046494234 -0.008395069 -0.055941638
-0.019043377 -0.0890712 -0.028718125 -0.07738215 -0.12529863 0.06969849 0.11631767 -0.018185493
-0.07297187 -0.122297816 -0.05466271 -0.10917142 0.118916646 -0.074742846 -0.13150258 0.23460056
-0.070618115 -0.12001664 -0.07927823 0.068659544 -0.16797331 -0.057304446 -0.07185494 0.1815462
0.085352995 0.032880023 0.22327809 0.03294062 -0.117918566 0.10744146 -0.042139538 -0.023991171
00000000: 0698 51bd c0a4 273e 2ec3 293d 4060 763d
00000010: 8008 81bd df7d e43d 6ef7 3139 82ed c2bc
00000020: 2e27 9bbd 063f bc3d d13f d33d 3b98 783d
00000030: ea5c 34bd 5914 103e d82f 9ebd 04cd 7f3d
00000040: 321d efbd a470 f53d b574 803d cc36 113d
00000050: ac77 a6bd 15ff 37bd 4d8c 34bd 15e1 ad3c
00000060: 43c9 e1bd cadf f03c faca a43d 8444 1b3d
00000070: 6b5d ccbc 6608 ee3c 763b 06bd 8032 5b3d
00000080: a4f8 6d3c 5033 aebd b321 16bd 1a75 5ebd
00000090: f333 543b d668 a4bd bdfd b53c a599 dcbc
000000a0: 5688 113e 62c6 1cbd bbc6 acbc a1b7 973c
000000b0: 221d 3e3d b450 8c3d 5ce0 00be 564f 6f3e
000000c0: 9a05 353e 6eff 83bd b895 083e 4684 f1bc
000000d0: 613b 26bd dcaf 093e c8d3 c0bd 2f64 713d
000000e0: 893c 9a3c 7282 9e3d ef4d 3b3e a734 1a3e
000000f0: 725b c33d 0f9e 103e 5f92 f33b 7d78 9b3d
00000100: 843d 743e cc42 6e3e 9b4e 8d3e 84d7 813d
00000110: 19bd ad3c 5527 463e 4edd 543e b8cb f63d
00000120: fd13 b23d d041 843e 3774 0f3e 735a fc3c
00000130: 25b1 cc3e 28bb 12bd b047 843d 4bb6 c33e
00000140: 0b5b b0bc cb6a 1f3d f7c1 f93d be34 cbbb
00000150: 4724 2a3e e00c 903e 4a5e 8dbd 2db5 783e
00000160: 7c6a 573e 5c25 cbbc f8a6 a23d a870 0f3e
00000170: 1cec 923d 8d12 193d 6bf4 153e 3bc3 863e
00000180: d2b5 e23d 03df 7cbd 0870 1e3e 7843 3e3e
00000190: f4d9 eb3b 9f4a c33d 5847 8c3d af91 2a3e
000001a0: 4678 2c3e 6b0b a83e 2ca6 263e e56c cc3d
000001b0: 3c45 063e 3ba8 c5bd fb87 0bbd 2313 9bbd
000001c0: 2452 cf3e 0959 0f3e d429 933e d8c2 4b3d
000001d0: b1c2 7c3d 364b 673e 41b3 623e f7a4 3a3c
000001e0: 718e 51bd 6f89 ddbd 0d47 0d3e a833 943d
000001f0: d56c aebd af0c f93e 24ec 693e a62d b13d
00000200: fdb0 0ebd dc5a 0bbd 2ad9 803c 8442 0cbd
00000210: db9f cfbb 8d38 963d 9c80 84bd cd3f 51bc
00000220: d982 03bd eb59 793d dbd4 acbd 74d1 d83c
00000230: 0959 01be 4dcd cdbd e6d4 043e 074b c6bd
00000240: 391f c0bc 678b e2bd 6e94 e03d 1cb4 22bc
00000250: 75b5 5bbc 24e4 38bd 6c49 c33a dc16 9b3c
00000260: 5f66 bc3d f633 cfbd fa09 fcbd 1951 993b
00000270: af2f 9ebd bd70 3e3d 798b 09bc 0f23 65bd
00000280: db00 9cbc f66a b6bd 4642 ebbc 887a 9ebd
00000290: 494e 00be 15be 8e3d f537 ee3d bef9 94bc
000002a0: 4772 95bd 4777 fabd 01e6 5fbd 4495 dfbd
000002b0: 928a f33d c712 99bd 9da8 06be 213b 703e
000002c0: 3ba0 90bd 49cb f5bd a05c a2bd 609d 8c3d
000002d0: 3201 2cbe 11b8 6abd af28 93bd 3fe7 393e
000002e0: 8dcd ae3d 34ad 063d 03a3 643e beec 063d
000002f0: 4a7f f1bd 450a dc3d 829a 2cbd 2289 c4bc

weight_ih_l0_reverse f4 [192, 100]
0.08420968 -0.031641066 -0.04347249 0.109745786 -0.0014253733 0.054721043 -0.08721168 0.021002209
0.036959216 0.044681177 -0.0050487197 -0.1781889 0.091138735 -0.06150453 0.017316526 -0.0019132176
0.07522887 0.0050102393 0.05350342 0.081524305 -0.047192253 -0.04797701 0.017492184 -0.044516124
0.034662973 -0.09420081 0.120241314 0.101012096 0.08959243 -0.0180991 -0.073075525 -0.07558189
0.13167484 0.0002695526 0.0046360283 0.022923745 -0.0670268 -0.11012597 0.120805696 0.16263199
-0.077421114 0.12321717 -0.07115314 0.024161197 0.0053850827 0.0374112 -0.08880947 0.034294017
-0.015445796 -0.10825071 -0.07939699 0.002404459 -0.13546465 0.023489662 -0.01847711 0.046531636
-0.09942775 0.09065929 -0.04669122 0.09948252 -0.015999246 -0.009664775 -0.00971567 -0.015020407
-0.026532518 0.06837625 -0.14762123 -9.381045e-06 -0.06907254 0.08363451 -0.026435195 0.003139443
0.119530715 0.06954963 0.072942965 0.04028582 0.019303773 0.11843753 0.080232136 0.16985087
0.08488769 0.12687579 0.03818579 0.07404179 0.026672674 -0.10503412 -0.017802356 0.0909134
-0.07816143 -0.070950754 0.04032416 -0.012767948 -0.06615462 0.039725497 -0.17290401 0.088816576
0.03123051 -0.0047760117 -0.025206743 -0.090639524 -0.05393093 -0.005887388 0.08959217 -0.12513648
-0.13346675 -0.017029297 -0.048565075 0.05703582 -0.06581323 0.0961601 0.05440612 -0.11851699
0.027713403 -0.0344843 -0.09290127 -0.052251343 0.12141634 0.12782331 -0.019209418 0.04000211
-0.03208178 0.054997865 -0.086022265 0.06513551 -0.04385074 -0.094185695 0.10471278 -0.13967872
-0.05460558 -0.08780012 0.010173829 -0.08434136 -0.046027884 -0.000725302 0.051110975 -0.09908767
-0.0711604 -0.07237351 -0.044425633 -0.062883176 0.1518174 -0.047997784 0.06168063 0.0009803139
-0.0071741333 -0.12807553 -0.08427352 -0.11536548 -0.027844142 0.028584534 0.120104544 0.12909493
0.047705673 -0.11269597 -0.08290502 -0.01058436 -0.15550444 -0.10603369 -0.06685057 0.09824016
0.10408939 -0.042344395 -0.03257117 0.1583843 -0.05848259 -0.026717445 0.0439809 -0.04465606
-0.04349687 0.024910906 -0.11638082 -0.015641358 0.07559979 0.073924065 -0.0005374664 0.07730893
-0.017372472 0.19619665 0.10184195 0.040075175 0.015240361 0.08897308 -0.17535402 -0.068244524
0.11722939 -0.09765907 -0.14573708 0.016812222 0.08879813 0.15929082 -0.14372395 0.08601434
0.09815098 -0.17332725 0.12861635 -0.120320454 0.13148421 -0.0051817116 -0.08014539 0.13372593
-0.21745251 -0.017972197 -0.032251824 0.034962203 0.026911106 0.104171485 -0.038911525 -0.05954976
0.106997654 -0.05169922 -0.07896907 0.059448957 -0.0018599157 0.07098728 -0.14584835 0.07363041
0.04468304 0.18974975 -0.094191164 0.026557326 -0.061607827 -0.000724482 0.011709976 -0.013150209
-0.104747355 0.0042513106 0.13364083 0.016909309 -0.08319211 -0.03614679 -0.08540422 0.12342871
0.07643509 0.1646253 -0.06590596 0.101729214 0.045566566 -0.040581916 0.097537704 -0.022139676
-0.004261908 0.08118544 -0.072930485 -0.08982003 -0.124734715 0.01059444 -0.051826827 -0.015128563
0.060693942 -0.112533905 0.014755327 0.024490828 0.080242485 -0.04322228 -0.106966846 0.039771635
00000000: 2076 ac3d 109a 01bd 3610 32bd 66c2 e03d
00000010: 97d3 baba 2c23 603d 0a9c b2bd d30c ac3c
00000020: 8c62 173d 9c03 373d bb6f a5bb 2777 36be
00000030: f2a6 ba3d 2dec 7bbd 63db 8d3c eec4 faba
00000040: 9811 9a3d ef2c a43b 6726 5b3d 37f6 a63d
00000050: aa4c 41bd 8b83 44bd c54b 8f3c 8a56 36bd
00000060: c3fa 0d3d 5bec c0bd 1441 f63d 6edf ce3d
00000070: 3c7c b73d 9044 94bc 9fa8 95bd aeca 9abd
00000080: c5d5 063e bd52 8d39 d3e9 973b 94ca bb3c
00000090: 5945 89bd b989 e1bd fa68 f73d 0089 263e
000000a0: f68e 9ebd 4959 fc3d bdb8 91bd b4ed c53c
000000b0: 5975 b03b 7d3c 193d bde1 b5bd e277 0c3d
000000c0: 5d10 7dbc 8cb2 ddbd e49a a2bd 2194 1d3b
000000d0: 3fb7 0abe 646d c03c 4f5d 97bc f597 3e3d
000000e0: c7a0 cbbd 94ab b93d 4b3f 3fbd 7ebd cb3d
000000f0: da10 83bc 0159 1ebc 792e 1fbc 2718 76bc
00000100: b95a d9bc d908 8c3d 052a 17be 4863 1db7
00000110: e775 8dbd 9248 ab3d 9f8e d8bc 1dbf 4d3b
00000120: 85cc f43d 0970 8e3d 1f63 953d be02 253d
00000130: f222 9e3c 608f f23d bf50 a43d 63ed 2d3e
00000140: 99d9 ad3d baeb 013e b468 1c3d 39a3 973d
00000150: a780 da3c 211c d7bd 3fd6 91bc ce30 ba3d
00000160: 1a13 a0bd a14e 91bd f22a 253d a830 51bc
00000170: 137c 87bd 34b7 223d c00d 31be 77e5 b53d
00000180: 20d7 ff3c 1780 9cbb 5f7e cebc 37a1 b9bd
00000190: aee6 5cbd fdea c0bb 1a7c b73d c723 00be
000001a0: 82ab 08be 0681 8bbc 2cec 46bd 649e 693d
000001b0: 16c9 86bd 96ef c43d f4d8 5e3d 09b9 f2bd
000001c0: 3807 e33c 693f 0dbd 0543 bebd 8105 56bd
000001d0: 21a9 f83d 1de4 023e 125d 9dbc 41d9 233d
000001e0: 2f68 03bd 7145 613d 712c b0bd c465 853d
000001f0: d59c 33bd 6ee4 c0bd a773 d63d f007 0fbe
00000200: 1aaa 5fbd 8dd0 b3bd 22b0 263c 2abb acbd
00000210: bc87 3cbd 3122 3eba be59 513d 7aee cabd
00000220: 8bbc 91bd 9038 94bd a7f7 35bd e5c8 80bd
00000230: 0576 1b3e 5399 44bd d4a4 7c3d e07d 803a
00000240: fe14 ebbb 3b26 03be 9897 acbd bd44 ecbd
00000250: 6619 e4bc 1d2a ea3c 5ff9 f53d 7631 043e
00000260: 0667 433d 25cd e6bd 1bca a9bd 066a 2dbc
00000270: 8e3c 1fbe 3128 d9bd f4e8 88bd 2332 c93d
00000280: d12c d53d 5171 2dbd 5969 05bd 7e2f 223e
00000290: 718b 6fbd 8bde dabc 5125 343d 46e9 36bd
000002a0: c629 32bd f511 cc3c 1159 eebd 4e22 80bc
000002b0: 10d4 9a3d 8065 973d c2e4 0cba 2554 9e3d
000002c0: b750 8ebc c6e7 483e 8392 d03d de25 243d
000002d0: b5b2 793c 8537 b63d 0190 33be c9c3 8bbd
000002e0: f615 f03d 7a01 c8bd 1a3c 15be c9b9 893c
000002f0: cbdb b53d 221d 233e 5f2c 13be 4928 b03d
00000300: 6203 c93d b37c 31be 01b4 033e 926a f6bd
00000310: cca3 063e 59cb a9bb 4423 a4bd 73ef 083e
00000320: dfab 5ebe 6e3a 93bc 7d1a 04bd 8734 0f3d
00000330: ae74 dc3c dc57 d53d b161 1fbd 73ea 73bd
00000340: 9621 db3d 90c2 53bd 89ba a1bd c080 733d
00000350: 6ac8 f3ba c761 913d 4559 15be 8acb 963d
00000360: 9005 373d c24d 423e 4ce7 c0bd c08e d93c
00000370: 7d58 7cbd 2aeb 3dba 33db 3f3c f973 57bc
00000380: c885 d6bd 944e 8b3b 24d9 083e 6485 8a3c
00000390: a060 aabd a80e 14bd 68e8 aebd 31c8 fc3d
000003a0: 008a 9c3d 8993 283e b4f9 86bd 6857 d03d
000003b0: 02a4 3a3d 3939 26bd d9c1 c73d 445e b5bc
000003c0: 7aa7 8bbb 8d44 a63d 945c 95bd 90f3 b7bd
000003d0: ea74 ffbd 4d94 2d3c 5e48 54bd cbdd 77bc
000003e0: 369a 783d 2d78 e6bd 54c0 713c fda0 c83c
000003f0: 2c56 a43d d809 31bd 6f11 dbbd 95e7 223d

weight_hh_l0_reverse f4 [192, 64]
-0.124168426 -0.020626426 0.1061755 -0.07215777 -0.037950844 -0.10668984 0.03765747 0.06541814
-0.1169526 0.055169985 -0.0047477484 -0.021622315 -0.055980846 -0.08584787 -0.058778718 0.07626644
-0.08829445 -0.025641233 -0.046725184 0.077169776 0.028134644 0.082681745 0.11989546 0.108308315
0.021627903 0.054123178 0.068385124 -0.054693446 -0.08210647 -0.014769465 0.08201447 -0.08545388
-0.06771591 -0.124895394 -0.06749171 -0.11026031 -0.11724858 -0.07728161 -0.01670228 -0.10149075
-0.121564254 0.059904873 -0.070004046 0.006539762 0.09201442 0.07004382 -0.057534575 -0.033644527
0.07114087 0.06773274 -0.021666154 -0.10538617 -0.11637616 -0.1069666 0.03707467 0.08981396
0.08536106 -0.11110936 0.015815556 0.10048157 -0.102655545 0.018583357 -0.03568463 0.08575845
-0.0428444 0.06753717 0.049381405 -0.06048277 -0.049917474 0.003572777 -0.007329777 0.10284808
0.014331877 0.08847138 -0.048277676 0.12182154 -0.102679074 -0.09906918 0.013517767 -0.089898854
-0.113622576 0.06466018 -0.048864752 -0.06521328 0.10038425 0.04712349 -0.069763094 -0.05621837
-0.059132084 -0.10306984 -0.078130916 0.08361623 0.020977527 0.05594328 0.053740278 -0.08031635
0.09667458 -0.05226752 0.12308136 -0.11439189 0.05223073 0.039540008 -0.06951895 0.038586244
0.023900762 0.095736355 0.101766124 -0.08540623 0.076088056 -0.02363947 0.120674 0.039658964
-0.101231605 -0.09587449 -0.011932477 0.10760507 -0.07446498 -0.09713392 0.12179819 0.05714777
0.065096185 -0.040288612 0.019841626 0.06397243 0.016201526 0.059576213 0.04190944 0.080138564
-0.051007524 -0.09909882 -0.05625516 0.06262483 -0.05112435 0.09310785 0.0183499 0.10434419
-0.034765914 -0.09175184 0.061821014 0.0689649 0.089294896 0.08387038 0.0002823174 -0.06005436
0.07846534 -0.038957402 0.01385878 0.04070717 -0.0797503 -0.005769238 -0.11867587 -0.039203987
-0.04532574 0.052633688 0.07530923 -0.11444211 0.1139486 0.040495247 -0.0067732334 -0.12179658
0.12431006 0.0009191185 -0.080608055 0.044581696 0.09474623 0.046682984 -0.116194755 -0.0656648
0.028401762 0.076727375 -0.09524955 -0.043266743 0.073920146 -0.04715304 -0.04338613 0.058411688
0.114560515 0.10937452 0.043353245 -0.122042954 0.08331072 -0.0145730525 -0.096823454 0.030159965
-0.017312363 -0.082605824 -0.072710946 -0.042508125 0.10639243 0.069009125 -0.019265324 0.01628396
0.120685905 -0.088659704 0.10490394 -0.03735967 0.06713277 0.057631046 0.12157428 0.120873556
-0.0010626614 0.05991228 -0.083902135 0.07113013 -0.021970227 0.10927534 -0.09858109 0.04246545
0.032344088 -0.045931622 0.058312237 -0.029606462 0.011250824 -0.10426082 0.08128965 0.09959191
-0.058910653 -0.11459178 0.052250683 -0.041154504 0.08428173 0.0857566 0.0012818426 0.0763322
-0.0214822 -0.038681626 -0.12474628 0.055199996 -0.08033292 0.06850985 -0.0954255 0.019837826
0.041533723 -0.03588757 -0.02111958 0.11807452 -0.10481277 0.042312667 -0.017080829 0.0849645
-0.04405883 0.07383247 -0.02979827 -0.08541767 0.0014610738 0.08194201 -0.090312526 0.08811541
0.0789084 -0.1080237 0.006569609 0.08821951 0.07074888 -0.04263769 0.1189083 0.045755357
00000000: 044c febd c0f8 a8bc 8a72 d93d 74c7 93bd
00000010: 5872 1bbd 3480 dabd b83e 1a3d f2f9 853d
00000020: d884 efbd ecf9 613d 0093 9bbb 4821 b1bc
00000030: 2c4c 65bd 02d1 afbd f4c1 70bd 9431 9c3d
00000040: b8d3 b4bd 900d d2bc e862 3fbd 300b 9e3d
00000050: a07a e63c 0c55 a93d c08b f53d c0d0 dd3d
00000060: 002d b13c 44b0 5d3d 800d 8c3d 3c06 60bd
00000070: 7027 a8bd a0fb 71bc 34f7 a73d 7202 afbd
00000080: a4ae 8abd 28c9 ffbd 1839 8abd 28d0 e1bd
00000090: 0620 f0bd d245 9ebd 38d3 88bc 62da cfbd
000000a0: aef6 f8bd d05e 753d 485e 8fbd 804b d63b
000000b0: 0e72 bc3d 2273 8f3d 60a9 6bbd d8ce 09bd
000000c0: 4eb2 913d 76b7 8a3d 387d b1bc b4d4 d7bd
000000d0: a056 eebd 4e11 dbbd 9cdb 173d 62f0 b73d
000000e0: c8d1 ae3d 4e8d e3bd a08f 813c 48c9 cd3d
000000f0: 123d d2bd 203c 983c 0c2a 12bd 20a2 af3d
00000100: 9c7d 2fbd ee50 8a3d 2844 4a3d c8bc 77bd
00000110: 4476 4cbd 4025 6a3b a02e f0bb 04a2 d23d
00000120: 40d0 6a3c 7c30 b53d d0be 45bd 927d f93d
00000130: 6849 d2bd c8e4 cabd a079 5d3c e41c b8bd
00000140: f4b2 e8bd 8e6c 843d 6826 48bd 8a8e 85bd
00000150: 4296 cd3d 9004 413d f4df 8ebd 3c45 66bd
00000160: 7c34 72bd 4816 d3bd 1a03 a0bd fc3e ab3d
00000170: 10d9 ab3c c824 653d c41e 5c3d e67c a4bd
00000180: 52fd c53d 7816 56bd 1412 fc3d 4c46 eabd
00000190: e4ef 553d b4f4 213d f45f 8ebd 9c0c 1e3d
000001a0: 88cb c33c 6c11 c43d c26a d03d 76e9 aebd
000001b0: 0ed4 9b3d 90a7 c1bc ee23 f73d 7071 223d
000001c0: 8452 cfbd d859 c4bd 7080 43bc 0c60 dc3d
000001d0: 1881 98bd 26ee c6bd 5471 f93d c813 6a3d
000001e0: 2651 853d ac05 25bd e88a a23c fa03 833d
000001f0: 10b9 843c 3006 743d 3ca9 2b3d b01f a43d
00000200: 44ed 50bd 52f4 cabd d06b 66bd 7241 803d
00000210: c467 51bd 54af be3d 8852 963c 68b2 d53d
00000220: b466 0ebd 64e8 bbbd 0838 7d3d 783d 8d3d
00000230: 3ee0 b63d 3cc4 ab3d 0004 9439 90fb 75bd
00000240: 70b2 a03d cc91 1fbd f00f 633c 90bc 263d
00000250: 2054 a3bd e00b bdbb 560c f3bd 5c94 20bd
00000260: 7ca7 39bd 6c96 573d ba3b 9a3d a060 eabd
00000270: e25d e93d 58de 253d 00f2 ddbb 7c70 f9bd
00000280: 4696 fe3d 00f1 703a d615 a5bd 4c9b 363d
00000290: 500a c23d a836 3f3d 84f7 edbd 447b 86bd
000002a0: d0aa e83c 3e23 9d3d 3212 c3bd 7838 31bd
000002b0: 7263 973d 8c23 41bd a8b5 31bd 1841 6f3d
000002c0: b49e ea3d c0ff df3d 2c93 313d a8f1 f9bd
000002d0: d09e aa3d d0c3 6ebc 604b c6bd 0812 f73c
000002e0: a8d2 8dbc 3e2d a9bd 7ae9 94bd 001d 2ebd
000002f0: 46e4 d93d a854 8d3d 50d2 9dbc f065 853c
00000300: 2c2a f73d 3893 b5bd e0d7 d63d 7406 19bd
00000310: e87c 893d 880e 6c3d f0fb f83d 8e8c f73d
00000320: 0049 8bba 9466 753d e2d4 abbd acac 913d
00000330: e8fa b3bc c0cb df3d e2e4 c9bd 40f0 2d3d
00000340: 3c7b 043d cc22 3cbd d0d8 6e3d 4089 f2bc
00000350: 6055 383c b286 d5bd 307b a63d d8f6 cb3d
00000360: 4c4c 71bd 18af eabd d004 563d a091 28bd
00000370: e69b ac3d 28a1 af3d 8003 a83a 0e54 9c3d
00000380: 70fb afbc a070 1ebd fa7a ffbd 6419 623d
00000390: 9685 a4bd e44e 8c3d 726e c3bd f082 a23c
000003a0: 441f 2a3d d8fe 12bd f802 adbc 0ed1 f13d
000003b0: 14a8 d6bd 0c50 2d3d 18ed 8bbc de01 ae3d
000003c0: 0877 34bd 7a35 973d 801b f4bc 76ef aebd
000003d0: 8081 bf3a 36d1 a73d c6f5 b8bd da75 b43d
000003e0: ba9a a13d 883b ddbd e045 d73b 6eac b43d
000003f0: cae4 903d dca4 2ebd 3286 f33d f869 3b3d

bias_ih_l0_reverse f4 [192]
-0.1108225 -0.009080625 -0.041606784 -0.035883594 0.055111703 -0.02368609 0.010560066 -3.8789378e-05
-0.079357624 -0.008508347 -0.12242734 0.08241496 -0.03875125 -0.06989628 0.047300868 0.13242608
-0.050935827 0.029234577 -0.036204796 0.083243854 0.02526662 -0.03455335 -0.03757876 0.03460481
0.028389456 -0.17163777 -0.1179655 0.019396808 -0.12823974 0.08417329 0.09340318 0.025808433
0.09256829 -0.08187575 0.0064698732 0.10656331 -0.11717092 0.034822185 0.053584453 0.0075074905
-0.08533598 0.100844674 0.015395239 0.12783921 -0.14221054 0.10710662 0.07642043 -0.052635327
0.060673468 -0.03264718 0.09575793 0.061303183 0.1050807 -0.07471407 0.08543887 -0.13836741
0.06876247 -0.004367345 0.09682729 0.0063292803 0.07924105 -0.002008089 0.009825813 -0.09352734
0.04861584 -0.059260454 0.0063136183 -0.06537726 0.1329628 -0.094977014 0.10128304 0.018202618
0.009461006 0.031283896 0.017690532 -0.009842115 -0.035377484 0.028019821 0.1249918 0.12995465
0.02490541 0.08717352 0.07703732 0.08126162 -0.006764709 0.12321286 -0.0229206 0.17145902
0.080685094 0.076601624 0.13575694 0.016511867 -0.04526489 0.027250884 -0.07425639 -0.01716881
0.05879271 0.063605 0.040993556 -0.04807379 0.05266178 -0.025915114 -0.04378561 -0.12476061
-0.04039372 0.017518764 -0.01301369 0.07095069 -0.042096812 0.1207121 0.0037712276 -0.11846787
0.12687922 0.10680594 0.09801353 0.022228347 0.11974674 0.08662198 0.02511761 0.15962754
0.12868764 0.1138981 -0.009946822 -0.024677929 -0.015191503 -0.016521467 0.10316872 0.007562155
0.091976576 -0.08488753 0.012902774 -0.0070175333 0.10472916 -0.08286875 -0.07775907 -0.10352214
-0.091075234 0.06640446 -0.056725927 0.013845564 -0.0027201925 -0.040941752 -0.033082068 0.08906991
0.08699884 0.0986674 0.10911772 0.035472184 -0.09777956 0.12915583 0.021276677 -0.029874451
0.09416008 0.059503224 0.043329626 -0.03471165 0.010452473 -0.036565773 0.021271106 -0.05254534
-0.07817344 0.0916254 0.095283374 0.08402037 -0.08521466 -0.055748787 0.04596946 -0.113773376
-0.054328833 0.04605696 0.071137875 -0.055637598 -0.03584254 -0.09648492 -0.103256285 -0.07300089
-0.0060012667 -0.11042537 -0.013511783 0.10821649 0.064741634 0.0025342847 -0.040241003 -0.05578481
0.035158012 -0.039602134 -0.021228516 0.04756918 0.01096448 0.0927804 0.04393736 0.022304786
00000000: e8f6 e2bd e7c6 14bc e06b 2abd adfa 12bd
00000010: cfbc 613d 5509 c2bc 2104 2d3c c7b1 22b8
00000020: 4086 a2bd 9866 0bbc 2fbb fabd 2dc9 a83d
00000030: a1b9 1ebd c825 8fbd 8ebe 413d b49a 073e
00000040: 16a2 50bd 5a7d ef3c 7b4b 14bd c17b aa3d
00000050: f1fb ce3c d087 0dbd 30ec 19bd c6bd 0d3d
00000060: 0191 e83c d0c1 2fbe e597 f1bd 0ee6 9e3c
00000070: 4751 03be 0c63 ac3d 2b4a bf3d 356c d33c
00000080: 7294 bd3d 79ae a7bd 3b01 d43b dd3d da3d
00000090: 4ff7 efbd b5a1 0e3d 5f7b 5b3d 6501 f63b
000000a0: a1c4 aebd a787 ce3d 503c 7c3c 48e8 023e
000000b0: a49f 11be b75a db3d 5082 9c3d 2498 57bd
000000c0: be84 783d 0db9 05bd bc1c c43d 0c19 7b3d
000000d0: 8d34 d73d b103 99bd 93fa ae3d 30b0 0dbe
000000e0: 56d3 8c3d f21b 8fbb 634d c63d da65 cf3b
000000f0: 2249 a23d 259a 03bb 72fc 203c 438b bfbd
00000100: 6721 473d 17bb 72bd 78e2 ce3b 83e4 85bd
00000110: 6627 083e 4f83 c2bd 7c6d cf3d a81d 953c
00000120: 5602 1b3c 8b23 003d bceb 903c d340 21bc
00000130: fbe7 10bd d389 e53c b3fb ff3d d512 053e
00000140: 6e06 cc3c 0888 b23d bec5 9d3d 7e6c a63d
00000150: 7eaa ddbb 0657 fc3d fbc3 bbbc f492 2f3e
00000160: 3a3e a53d 50e1 9c3d de03 0b3e e543 873c
00000170: ad67 39bd 3f3d df3c bc13 98bd 9ba5 8cbc
00000180: a0d0 703d 5743 823d dce8 273d 06e9 44bd
00000190: e1b3 573d ef4b d4bc 8a58 33bd 7e82 ffbd
000001a0: e373 25bd 8383 8f3c 5f37 55bc 984e 913d
000001b0: b56d 2cbd e837 f73d b326 773b 489f f2bd
000001c0: a0ec 013e 13bd da3d 51bb c83d 3918 b63c
000001d0: c73d f53d dd66 b13d 72c3 cd3c 6775 233e
000001e0: b1c6 033e 6843 e93d fff7 22bc 5e29 cabc
000001f0: c8e5 78bc 0758 87bc 1f4a d33d f4cb f73b
00000200: 375e bc3d 83d9 adbd 2866 533c 56f3 e5bb
00000210: 3e7c d63d 17b7 a9bd 2640 9fbd 6a03 d4bd
00000220: a785 babd 10ff 873d 7259 68bd 81d8 623c
00000230: 4245 32bb 8ab2 27bd 1081 07bd 496a b63d
00000240: 732c b23d 2212 ca3d 1c79 df3d 484b 113d
00000250: a640 c8bd 6d41 043e 6d4c ae3c 44bb f4bc
00000260: 00d7 c03d a7b9 733d 687a 313d ce2d 0ebd
00000270: d940 2b3c fec5 15bd be40 ae3c c839 57bd
00000280: 6619 a0bd 19a6 bb3d ee23 c33d df12 ac3d
00000290: 0685 aebd d758 64bd 794a 3c3d 0402 e9bd
000002a0: e987 5ebd 39a6 3c3d bcb0 913d 40e4 63bd
000002b0: a1cf 12bd e399 c5bd 0878 d3bd 7e81 95bd
000002c0: 46a6 c4bb b226 e2bd 8760 5dbc 9ba0 dd3d
000002d0: 4397 843d 3e16 263b c0d3 24bd 9d7e 64bd
000002e0: d901 103d d935 22bd 6de7 adbc e7d7 423d
000002f0: 5da4 333c a603 be3d a9f7 333d 87b8 b63c

bias_hh_l0_reverse f4 [192]
0.018098714 0.11939224 -0.12112395 -0.03696379 0.05508263 -0.09788491 -0.089888886 -0.13859034
0.11835964 0.051675264 -0.0086576035 -0.03655761 -0.05168636 -0.057038493 -0.01144965 0.10633182
0.087374754 0.030168043 0.011618703 0.027560702 0.10062067 0.07486621 0.08392667 0.03220153
0.08439427 -0.00389182 -0.10801908 0.06557136 -0.06291682 0.07222688 -0.07892039 0.08531665
0.087888 -0.016912319 0.08069806 -0.10854087 -0.05823519 0.08473441 -0.09544157 0.018977953
0.05456214 0.12243762 -0.06451434 -0.06588293 0.0030992078 -0.0966159 0.089672446 -0.09148391
-0.12725265 0.07238747 0.06407904 -0.10848123 0.0771273 0.10934857 -0.037097976 -0.13921285
0.08140725 -0.01755596 -0.09105527 -0.04709506 0.10476662 0.0698154 -0.07191008 0.045539886
0.07724929 -0.053385857 -0.02471447 0.075505875 -0.0199737 -0.047864635 -0.024965562 0.053021956
-0.018387388 0.020706765 -0.07824024 0.023069203 0.04094047 0.05685391 0.10927316 -0.029392835
-0.050569143 0.09087761 0.10130155 -0.013892808 -0.031609125 -0.03462747 -0.00410095 0.091203116
0.054482516 -0.04223832 0.023304174 0.12348901 -0.014856778 0.16299792 0.07988805 0.06950545
0.11052794 -0.0798159 -0.022392077 0.11530393 -0.0748949 0.00897047 0.029540274 -0.01200927
-0.022547834 -0.043964878 -0.052946825 -0.10814226 -0.08402742 -0.023532784 0.10436513 -0.0906595
0.14581685 0.048490275 -0.05271125 0.036396686 -0.037777144 0.06295576 0.053319957 -0.06930159
0.0916203 0.047723543 0.045482468 0.08680062 0.01785498 -0.026379015 -0.040288832 -0.043916542
0.07366779 0.08458919 0.04267448 -0.030958762 0.11316731 -0.089048386 -0.011622061 -0.0035415394
0.08472299 -0.11029915 0.0030940035 -0.032693718 0.10125928 0.11628122 -0.081057616 -0.056879114
0.15762025 0.039047547 -0.066242665 -0.10098785 -0.08978023 -0.0631682 -0.109121725 -0.04333966
-0.090126045 0.0043893885 -0.055357374 0.051526092 -0.010580977 0.043149702 0.11407221 0.0776962
0.023784043 -0.08470457 0.09076539 0.09076756 0.08056058 0.06524818 0.06252047 -6.400842e-05
0.14399812 -0.09991277 0.008217545 -0.09382913 -0.033471864 0.051942457 0.045888558 -0.032597736
-0.09788707 0.04818139 -0.05689833 0.05704501 0.06634363 -0.05273344 -0.06341082 -0.061061423
0.007544028 -0.018133806 -0.09187667 0.08796151 -0.111851126 -0.11834415 -0.0705796 0.13287793
00000000: c143 943c eb83 f43d d50f f8bd 5867 17bd
00000010: 539e 613d e277 c8bd aa17 b8bd a0ea 0dbe
00000020: 8a66 f23d 71a9 533d 9fd8 0dbc 6fbd 15bd
00000030: 14b5 53bd 32a1 69bd 5097 3bbc 7fc4 d93d
00000040: 89f1 b23d f922 f73c 5f5c 3e3c fbc6 e13c
00000050: 3612 ce3d 7553 993d bfe1 ab3d c0e5 033d
00000060: e7d6 ac3d e80d 7fbb 1b39 ddbd 474a 863d
00000070: 89da 80bd b0eb 933d 03a1 a1bd 7fba ae3d
00000080: a0fe b33d b48b 8abc 0645 a53d ad4a debd
00000090: 0688 6ebd 3c89 ad3d df76 c3bd a777 9b3c
000000a0: 8d7c 5f3d 93c0 fa3d 1820 84bd a1ed 86bd
000000b0: 141c 4b3b 8fde c5bd 30a6 b73d eb5b bbbd
000000c0: 854e 02be e23f 943d df3b 833d 682b debd
000000d0: ebf4 9d3d 25f2 df3d 0cf4 17bd d08d 0ebe
000000e0: d8b8 a63d 84d1 8fbc 2f7b babd c0e6 40bd
000000f0: e28f d63d 60fb 8e3d 9845 93bd 0888 3a3d
00000100: e034 9e3d 21ab 5abd 0076 cabc d3a2 9a3d
00000110: e39f a3bc b50d 44bd 9484 ccbc 8d2d 593d
00000120: 26a1 96bc 3ca1 a93c 6b3c a0bd a0fb bc3c
00000130: 32b1 273d a5df 683d 9bca df3d 3ec9 f0bc
00000140: 9721 4fbd 0a1e ba3d 3077 cf3d a99e 63bc
00000150: 9278 01bd 89d5 0dbd 4361 86bb b3c8 ba3d
00000160: 0f29 5f3d 1702 2dbd 65e8 be3c cee7 fc3d
00000170: d869 73bc ede8 263e 599c a33d e058 8e3d
00000180: 795c e23d 8576 a3bd 976f b7bc 7824 ec3d
00000190: 7f62 99bd e1f8 123c 72fe f13c 87c2 44bc
000001a0: 3cb6 b8bc 8414 34bd c5de 58bd b079 ddbd
000001b0: 9116 acbd d3c7 c0bc 63bd d53d b0ab b9bd
000001c0: 0351 153e bd9d 463d c0e7 57bd b114 153d
000001d0: 35bc 1abd f3ee 803d 0766 5a3d feed 8dbd
000001e0: 6da3 bb3d c379 433d d34b 3a3d 86c4 b13d
000001f0: 9b44 923c ce18 d8bc e705 25bd d5e1 33bd
00000200: 23df 963d 193d ad3d 6fcb 2e3d 3b9d fdbc
00000210: 43c4 e73d 005f b6bd 756a 3ebc 2c19 68bb
00000220: 3f83 ad3d 85e4 e1bd c4c4 4a3b d9e9 05bd
00000230: 0761 cf3d d924 ee3d 8901 a6bd 13fa 68bd
00000240: 3467 213e 52f0 1f3d 3caa 87bd b8d2 cebd
00000250: b2de b7bd 545e 81bd 367b dfbd ed84 31bd
00000260: 0194 b8bd dcd4 8f3b 6abe 62bd 060d 533d
00000270: d65b 2dbc bebd 303d b19e e93d 2f1f 9f3d
00000280: c1d6 c23c 9779 adbd 34e3 b93d 58e4 b93d
00000290: f2fc a43d d6a0 853d bb0a 803d 423c 86b8
000002a0: 3e74 133e 119f ccbd e2a2 063c 7d29 c0bd
000002b0: cb19 09bd 9dc1 543d a4f5 3b3d 3485 05bd
000002c0: 0479 c8bd d959 453d 390e 69bd 07a8 693d
000002d0: 2bdf 873d 05ff 57bd 88dd 81bd 8b1b 7abd
000002e0: e533 f73b 598d 94bc d629 bcbd 2a25 b43d
000002f0: 3412 e5bd 6b5e f2bd 0a8c 90bd 2711 083e

weight f4 [64, 128]
0.12681325 0.007888306 -0.08658176 -0.19084598 -0.03374065 0.074992605 0.12930478 -0.045808405
-0.08797647 -0.16754748 0.110999726 0.03528615 0.13437352 0.07869178 0.09307068 0.10587377
0.085284755 -0.12285951 -0.05672138 -0.028028982 -0.033119824 0.13329639 0.05965199 -0.106414884
-0.15333514 -0.0036692237 -0.12176127 -0.02216876 -0.05771697 0.0664172 0.13694973 -0.13469292
-0.14271852 0.0070850016 -0.0020760554 -0.059347905 0.17884795 -0.11515186 0.1266823 -0.02318235
-0.10074352 -0.0853575 -0.05356898 -0.06906801 -0.12333767 0.012887228 0.095617905 -0.0051809135
-0.19993612 0.033425488 -0.03945133 -0.020931024 -0.023591502 -0.035294034 -0.1120481 0.025565213
-0.047563877 -0.17691614 -0.044673923 -0.12857047 0.04217771 -0.102312446 -0.14683443 0.07987603
0.092625365 -0.01911302 0.12843743 -0.0071106376 -0.04521978 -0.011267885 -0.022093559 0.107619815
0.11246661 -0.0697561 -0.03346447 0.10659471 -0.035457406 0.15451628 0.0079558175 0.012445238
-0.083283685 -0.020626964 0.060364682 -0.045227 -0.1320983 -0.001666303 -0.052203212 0.03424521
0.11857149 -0.08747223 -0.05630925 0.0627359 0.095682785 0.10243246 -0.07000384 0.11337532
-0.046459667 0.05103091 -0.058176424 0.04091655 -0.13302161 0.021207523 -0.021960206 0.088431336
0.057913296 0.037516486 -0.053842124 0.029949214 0.03194174 0.023107223 -0.04066365 -0.09221428
-0.05565209 0.08953192 0.06285206 -0.047501314 -0.0036067339 -0.022679321 0.03892335 -0.030727262
-0.059255704 -0.0785269 0.090978384 -0.0011730096 0.105440736 0.164187 0.047949273 -0.0006537632
0.12266402 0.0069536753 -0.0029540427 -0.07548426 0.010510679 0.07329799 -0.005048756 -0.08433565
-0.03471543 0.064385265 0.09077641 0.07629621 0.14848965 0.109500185 0.1166835 0.16549124
0.02925109 -0.09667041 0.1162297 0.12577847 -0.023153007 0.046532165 0.045018174 -0.027175562
-0.09748096 0.043953247 -0.0726582 0.031242993 0.03495468 -0.08530211 0.10182814 0.041202586
-0.08758474 -0.054656535 -0.036719 -0.05936004 0.10639542 -0.03364961 0.06836736 -0.071693785
0.01604311 -0.06600393 -0.076076716 -0.04467314 -0.07156091 -0.061305836 0.05141791 0.06872468
-0.021092616 0.037031703 -0.037000325 -0.041869637 -0.025780875 -0.04668015 -0.09934232 0.09873298
0.09582976 0.013924551 -0.0064299335 -0.063572705 0.0046899277 -0.10059711 -0.103336394 0.011767793
-0.034464456 0.007566817 0.11131254 0.051374126 -0.016369345 0.0035124861 0.041317932 0.0061918786
-0.015467689 0.010440286 -0.06687205 0.036425944 0.09224592 0.018880889 0.05626346 0.01859912
0.02321089 -0.0761821 0.11499211 0.0021628076 0.009985797 -0.100899 -0.06971575 0.045757145
-0.024517423 -0.07963506 -0.12334072 0.086045995 0.039578248 0.056014236 0.0680242 -0.021301197
0.096208096 0.119190454 -0.030556804 -0.04465851 -0.06371076 -0.031190293 0.03383232 0.07504393
0.0409331 -0.07275115 -0.029294576 0.0025423134 0.024658404 -0.040266268 0.025940659 0.029620202
-0.011166138 -0.0111099 -0.020148287 0.06802124 0.04236292 -0.0010468347 -0.090037696 0.06040065
0.08052938 0.043118488 -0.053620048 -0.0203607 0.05653252 -0.053906634 0.043397374 0.018144077
00000000: 55db 013e f43d 013c c751 b1bd 216d 43be
00000010: a333 0abd b995 993d 7968 043e 98a1 3bbd
00000020: 022d b4bd 9191 2bbe d353 e33d 3688 103d
00000030: 3699 093e 2829 a13d d79b be3d 59d4 d83d
00000040: c6a9 ae3d c49d fbbd ae54 68bd 099d e5bc
00000050: a7a8 07bd d97e 083e a555 743d 0cf0 d9bd
00000060: e303 1dbe 5c77 70bb f95d f9bd 429b b5bc
00000070: a168 6cbd be05 883d 8d3c 0c3e f1ec 09be
00000080: ce24 12be 4d29 e83b 6e0e 08bb ca16 73bd
00000090: eb23 373e bdd4 ebbd 01b9 013e e9e8 bdbc
000000a0: 9e52 cebd eacf aebd 266b 5bbd 8773 8dbd
000000b0: 7698 fcbd f424 533c 52d3 c33d a7c4 a9bb
000000c0: 0ebc 4cbe 2ae9 083d b897 21bd 8a77 abbc
000000d0: f742 c1bc 7a90 10bd 7979 e5bd 236e d13c
000000e0: 57d2 42bd 8129 35be 01fc 36bd faa7 03be
000000f0: 89c2 2c3d 3089 d1bd c45b 16be 0b96 a33d
00000100: 5eb2 bd3d e892 9cbc 1a85 033e 5a00 e9bb
00000110: 6038 39bd ef9c 38bc 8dfd b4bc c767 dc3d
00000120: e554 e63d 49dc 8ebd 0a12 09bd 544e da3d
00000130: c93b 11bd 8439 1e3e 1e59 023c 1de7 4b3c
00000140: a390 aabd e1f9 a8bc f540 773d f23f 39bd
00000150: c744 07be da67 daba 09d3 55bd b544 0c3d
00000160: 9cd5 f23d a424 b3bd 87a4 66bd ae7b 803d
00000170: 56f5 c33d 1cc8 d13d 2c5e 8fbd 5231 e83d
00000180: 7e4c 3ebd ca05 513d 674a 6ebd 1d98 273d
00000190: d136 08be 66bb ad3c e4e5 b3bc 7d1b b53d
000001a0: 7e36 6d3d e3aa 193d 8f89 5cbd 0e58 f53c
000001b0: 58d5 023d 5c4b bd3c ed8e 26bd d7da bcbd
000001c0: 72f3 63bd 835c b73d 95b8 803d bd90 42bd
000001d0: f45e 6cbb fcc9 b9bc 176e 1f3d bdb7 fbbc
000001e0: 1cb6 72bd b6d2 a0bd e052 ba3d acbf 99ba
000001f0: 50f1 d73d a320 283e 7566 443d 4e61 2bba
00000200: 4637 fb3d a8db e33b 9d98 41bb 7e97 9abd
00000210: fc34 2c3c 421d 963d 0970 a5bb 2bb8 acbd
00000220: c431 0ebd 6cdc 833d fce8 b93d 3041 9c3d
00000230: ac0d 183e a241 e03d c2f7 ee3d 8976 293e
00000240: fb9f ef3c 23fb c5bd d609 ee3d 12cc 003e
00000250: 60ab bdbc 8398 3e3d fa64 383d 499f debc
00000260: 19a4 c7bd 5208 343d d3cd 94bd 4ef1 ff3c
00000270: a32c 0f3d dfb2 aebd 468b d03d 0bc4 283d
00000280: a15f b3bd 88df 5fbd aa66 16bd 8323 73bd
00000290: d8e5 d93d 2cd4 09bd 3004 8c3d 31d4 92bd
000002a0: d76c 833c 122d 87bd 1cce 9bbd 2ffb 36bd
000002b0: 878e 92bd d41b 7bbd 969b 523d 86bf 8c3d
000002c0: 6cca acbc 8eae 173d a78d 17bd 7f7f 2bbd
000002d0: 6a32 d3bc af33 3fbd fc73 cbbd 8434 ca3d
000002e0: 6542 c43d cd23 643c 31b2 d2bb 6832 82bd
000002f0: f7ad 993b dc05 cebd 08a2 d3bd b4cd 403c
00000300: 9a2a 0dbd 10f3 f73b d4f7 e33d ad6d 523d
00000310: 0119 86bc bd31 663b fe3c 293d 3ee5 ca3b
00000320: 316c 7dbc bc0d 2b3c 37f4 88bd 5f33 153d
00000330: 6eeb bc3d 18ac 9a3c 8474 663d 2f5d 983c
00000340: c424 be3c 5c05 9cbd fc80 eb3d e4bd 0d3b
00000350: 789b 233c 23a4 cebd 22c7 8ebd d86b 3b3d
00000360: c3d8 c8bc b517 a3bd 0f9a fcbd e238 b03d
00000370: cd1c 223d 2f6f 653d 4650 8b3d d97f aebc
00000380: c008 c53d 201a f43d 4352 fabc d7eb 36bd
00000390: c97a 82bd c982 ffbc c293 0a3d a2b0 993d
000003a0: 77a9 273d 8efe 94bd 2efb efbc f19c 263b
000003b0: 6c00 ca3c 3eee 24bd 8181 d43c 11a6 f23c
000003c0: 2df2 36bc 4c06 36bc 050e a5bc b84e 8b3d
000003d0: be84 2d3d f235 89ba af65 b8bd ac66 773d
000003e0: 96ec a43d 039d 303d b2a0 5bbd 7ccb a6bc
000003f0: a58e 673d 34cd 5cbd 72c1 313d e3a2 943c
